…
I1115 22:18:03.020098 27984 net.cpp:322] The NetState phase (0) differed from the phase (1) specified by a rule in layer accuracy
I1115 22:18:03.020304 27984 net.cpp:58] Initializing net from parameters: 
name: "CaffeNet"
state {
  phase: TRAIN
  level: 0
  stage: ""
}
layer {
  name: "data"
  type: "Data"
  top: "data"
  top: "label"
  include {
    phase: TRAIN
  }
  transform_param {
    mirror: true
    crop_size: 90
    mean_file: "examples/xuan/mean.binaryproto"
  }
  data_param {
    source: "examples/xuan/img_train_lmdb"
    batch_size: 20
    backend: LMDB
  }
}
layer {
  name: "conv1"
  type: "Convolution"
  bottom: "data"
  top: "conv1"
  param {
    lr_mult: 1
    decay_mult: 1
  }
  param {
    lr_mult: 2
    decay_mult: 0
  }
  convolution_param {
    num_output: 96
    kernel_size: 11
    stride: 4
    weight_filler {
      type: "gaussian"
      std: 0.01
    }
    bias_filler {
      type: "constant"
      value: 0
    }
  }
}
layer {
  name: "relu1"
  type: "ReLU"
  bottom: "conv1"
  top: "conv1"
}
layer {
  name: "pool1"
  type: "Pooling"
  bottom: "conv1"
  top: "pool1"
  pooling_param {
    pool: MAX
    kernel_size: 3
    stride: 2
  }
}
layer {
  name: "norm1"
  type: "LRN"
  bottom: "pool1"
  top: "norm1"
  lrn_param {
    local_size: 5
    alpha: 0.0001
    beta: 0.75
  }
}
layer {
  name: "conv2"
  type: "Convolution"
  bottom: "norm1"
  top: "conv2"
  param {
    lr_mult: 1
    decay_mult: 1
  }
  param {
    lr_mult: 2
    decay_mult: 0
  }
  convolution_param {
    num_output: 256
    pad: 2
    kernel_size: 5
    group: 2
    weight_filler {
      type: "gaussian"
      std: 0.01
    }
    bias_filler {
      type: "constant"
      value: 1
    }
  }
}
layer {
  name: "relu2"
  type: "ReLU"
  bottom: "conv2"
  top: "conv2"
}
layer {
  name: "pool2"
  type: "Pooling"
  bottom: "conv2"
  top: "pool2"
  pooling_param {
    pool: MAX
    kernel_size: 3
    stride: 2
  }
}
layer {
  name: "norm2"
  type: "LRN"
  bottom: "pool2"
  top: "norm2"
  lrn_param {
    local_size: 5
    alpha: 0.0001
    beta: 0.75
  }
}
layer {
  name: "conv3"
  type: "Convolution"
  bottom: "norm2"
  top: "conv3"
  param {
    lr_mult: 1
    decay_mult: 1
  }
  param {
    lr_mult: 2
    decay_mult: 0
  }
  convolution_param {
    num_output: 384
    pad: 1
    kernel_size: 3
    weight_filler {
      type: "gaussian"
      std: 0.01
    }
    bias_filler {
      type: "constant"
      value: 0
    }
  }
}
layer {
  name: "relu3"
  type: "ReLU"
  bottom: "conv3"
  top: "conv3"
}
layer {
  name: "conv4"
  type: "Convolution"
  bottom: "conv3"
  top: "conv4"
  param {
    lr_mult: 1
    decay_mult: 1
  }
  param {
    lr_mult: 2
    decay_mult: 0
  }
  convolution_param {
    num_output: 384
    pad: 1
    kernel_size: 3
    group: 2
    weight_filler {
      type: "gaussian"
      std: 0.01
    }
    bias_filler {
      type: "constant"
      value: 1
    }
  }
}
layer {
  name: "relu4"
  type: "ReLU"
  bottom: "conv4"
  top: "conv4"
}
layer {
  name: "conv5"
  type: "Convolution"
  bottom: "conv4"
  top: "conv5"
  param {
    lr_mult: 1
    decay_mult: 1
  }
  param {
    lr_mult: 2
    decay_mult: 0
  }
  convolution_param {
    num_output: 256
    pad: 1
    kernel_size: 3
    group: 2
    weight_filler {
      type: "gaussian"
      std: 0.01
    }
    bias_filler {
      type: "constant"
      value: 1
    }
  }
}
layer {
  name: "relu5"
  type: "ReLU"
  bottom: "conv5"
  top: "conv5"
}
layer {
  name: "pool5"
  type: "Pooling"
  bottom: "conv5"
  top: "pool5"
  pooling_param {
    pool: MAX
    kernel_size: 3
    stride: 2
  }
}
layer {
  name: "fc6"
  type: "InnerProduct"
  bottom: "pool5"
  top: "fc6"
  param {
    lr_mult: 1
    decay_mult: 1
  }
  param {
    lr_mult: 2
    decay_mult: 0
  }
  inner_product_param {
    num_output: 4096
    weight_filler {
      type: "gaussian"
      std: 0.005
    }
    bias_filler {
      type: "constant"
      value: 1
    }
  }
}
layer {
  name: "relu6"
  type: "ReLU"
  bottom: "fc6"
  top: "fc6"
}
layer {
  name: "drop6"
  type: "Dropout"
  bottom: "fc6"
  top: "fc6"
  dropout_param {
    dropout_ratio: 0.5
  }
}
layer {
  name: "fc7"
  type: "InnerProduct"
  bottom: "fc6"
  top: "fc7"
  param {
    lr_mult: 1
    decay_mult: 1
  }
  param {
    lr_mult: 2
    decay_mult: 0
  }
  inner_product_param {
    num_output: 4096
    weight_filler {
      type: "gaussian"
      std: 0.005
    }
    bias_filler {
      type: "constant"
      value: 1
    }
  }
}
layer {
  name: "relu7"
  type: "ReLU"
  bottom: "fc7"
  top: "fc7"
}
layer {
  name: "drop7"
  type: "Dropout"
  bottom: "fc7"
  top: "fc7"
  dropout_param {
    dropout_ratio: 0.5
  }
}
layer {
  name: "fc8"
  type: "InnerProduct"
  bottom: "fc7"
  top: "fc8"
  param {
    lr_mult: 1
    decay_mult: 1
  }
  param {
    lr_mult: 2
    decay_mult: 0
  }
  inner_product_param {
    num_output: 28
    weight_filler {
      type: "gaussian"
      std: 0.01
    }
    bias_filler {
      type: "constant"
      value: 0
    }
  }
}
layer {
  name: "loss"
  type: "SoftmaxWithLoss"
  bottom: "fc8"
  bottom: "label"
  top: "loss"
}
I1115 22:18:03.020406 27984 layer_factory.hpp:77] Creating layer data
I1115 22:18:03.020777 27984 net.cpp:100] Creating Layer data
I1115 22:18:03.020789 27984 net.cpp:408] data -> data
I1115 22:18:03.020807 27984 net.cpp:408] data -> label
I1115 22:18:03.020819 27984 data_transformer.cpp:25] Loading mean file from: examples/xuan/mean.binaryproto
I1115 22:18:03.021692 27990 db_lmdb.cpp:35] Opened lmdb examples/xuan/img_train_lmdb
I1115 22:18:03.083490 27984 data_layer.cpp:41] output data size: 20,3,90,90
I1115 22:18:03.090420 27984 net.cpp:150] Setting up data
I1115 22:18:03.090441 27984 net.cpp:157] Top shape: 20 3 90 90 (486000)
I1115 22:18:03.090446 27984 net.cpp:157] Top shape: 20 (20)
I1115 22:18:03.090448 27984 net.cpp:165] Memory required for data: 1944080
I1115 22:18:03.090456 27984 layer_factory.hpp:77] Creating layer conv1
I1115 22:18:03.090474 27984 net.cpp:100] Creating Layer conv1
I1115 22:18:03.090481 27984 net.cpp:434] conv1 <- data
I1115 22:18:03.090492 27984 net.cpp:408] conv1 -> conv1
I1115 22:18:03.091944 27984 net.cpp:150] Setting up conv1
I1115 22:18:03.091958 27984 net.cpp:157] Top shape: 20 96 20 20 (768000)
I1115 22:18:03.091960 27984 net.cpp:165] Memory required for data: 5016080
I1115 22:18:03.091970 27984 layer_factory.hpp:77] Creating layer relu1
I1115 22:18:03.091981 27984 net.cpp:100] Creating Layer relu1
I1115 22:18:03.091986 27984 net.cpp:434] relu1 <- conv1
I1115 22:18:03.091990 27984 net.cpp:395] relu1 -> conv1 (in-place)
I1115 22:18:03.091996 27984 net.cpp:150] Setting up relu1
I1115 22:18:03.092003 27984 net.cpp:157] Top shape: 20 96 20 20 (768000)
I1115 22:18:03.092017 27984 net.cpp:165] Memory required for data: 8088080
I1115 22:18:03.092020 27984 layer_factory.hpp:77] Creating layer pool1
I1115 22:18:03.092026 27984 net.cpp:100] Creating Layer pool1
I1115 22:18:03.092031 27984 net.cpp:434] pool1 <- conv1
I1115 22:18:03.092034 27984 net.cpp:408] pool1 -> pool1
I1115 22:18:03.093116 27984 net.cpp:150] Setting up pool1
I1115 22:18:03.093127 27984 net.cpp:157] Top shape: 20 96 10 10 (192000)
I1115 22:18:03.093129 27984 net.cpp:165] Memory required for data: 8856080
I1115 22:18:03.093132 27984 layer_factory.hpp:77] Creating layer norm1
I1115 22:18:03.093147 27984 net.cpp:100] Creating Layer norm1
I1115 22:18:03.093152 27984 net.cpp:434] norm1 <- pool1
I1115 22:18:03.093155 27984 net.cpp:408] norm1 -> norm1
I1115 22:18:03.093200 27984 net.cpp:150] Setting up norm1
I1115 22:18:03.093207 27984 net.cpp:157] Top shape: 20 96 10 10 (192000)
I1115 22:18:03.093209 27984 net.cpp:165] Memory required for data: 9624080
I1115 22:18:03.093212 27984 layer_factory.hpp:77] Creating layer conv2
I1115 22:18:03.093220 27984 net.cpp:100] Creating Layer conv2
I1115 22:18:03.093225 27984 net.cpp:434] conv2 <- norm1
I1115 22:18:03.093230 27984 net.cpp:408] conv2 -> conv2
I1115 22:18:03.100675 27984 net.cpp:150] Setting up conv2
I1115 22:18:03.100692 27984 net.cpp:157] Top shape: 20 256 10 10 (512000)
I1115 22:18:03.100695 27984 net.cpp:165] Memory required for data: 11672080
I1115 22:18:03.100703 27984 layer_factory.hpp:77] Creating layer relu2
I1115 22:18:03.100709 27984 net.cpp:100] Creating Layer relu2
I1115 22:18:03.100718 27984 net.cpp:434] relu2 <- conv2
I1115 22:18:03.100721 27984 net.cpp:395] relu2 -> conv2 (in-place)
I1115 22:18:03.100730 27984 net.cpp:150] Setting up relu2
I1115 22:18:03.100738 27984 net.cpp:157] Top shape: 20 256 10 10 (512000)
I1115 22:18:03.100739 27984 net.cpp:165] Memory required for data: 13720080
I1115 22:18:03.100742 27984 layer_factory.hpp:77] Creating layer pool2
I1115 22:18:03.100747 27984 net.cpp:100] Creating Layer pool2
I1115 22:18:03.100749 27984 net.cpp:434] pool2 <- conv2
I1115 22:18:03.100754 27984 net.cpp:408] pool2 -> pool2
I1115 22:18:03.100785 27984 net.cpp:150] Setting up pool2
I1115 22:18:03.100791 27984 net.cpp:157] Top shape: 20 256 5 5 (128000)
I1115 22:18:03.100793 27984 net.cpp:165] Memory required for data: 14232080
I1115 22:18:03.100796 27984 layer_factory.hpp:77] Creating layer norm2
I1115 22:18:03.100802 27984 net.cpp:100] Creating Layer norm2
I1115 22:18:03.100807 27984 net.cpp:434] norm2 <- pool2
I1115 22:18:03.100821 27984 net.cpp:408] norm2 -> norm2
I1115 22:18:03.100847 27984 net.cpp:150] Setting up norm2
I1115 22:18:03.100853 27984 net.cpp:157] Top shape: 20 256 5 5 (128000)
I1115 22:18:03.100855 27984 net.cpp:165] Memory required for data: 14744080
I1115 22:18:03.100858 27984 layer_factory.hpp:77] Creating layer conv3
I1115 22:18:03.100867 27984 net.cpp:100] Creating Layer conv3
I1115 22:18:03.100870 27984 net.cpp:434] conv3 <- norm2
I1115 22:18:03.100875 27984 net.cpp:408] conv3 -> conv3
I1115 22:18:03.123940 27984 net.cpp:150] Setting up conv3
I1115 22:18:03.123966 27984 net.cpp:157] Top shape: 20 384 5 5 (192000)
I1115 22:18:03.123970 27984 net.cpp:165] Memory required for data: 15512080
I1115 22:18:03.123982 27984 layer_factory.hpp:77] Creating layer relu3
I1115 22:18:03.123991 27984 net.cpp:100] Creating Layer relu3
I1115 22:18:03.123996 27984 net.cpp:434] relu3 <- conv3
I1115 22:18:03.124001 27984 net.cpp:395] relu3 -> conv3 (in-place)
I1115 22:18:03.124009 27984 net.cpp:150] Setting up relu3
I1115 22:18:03.124014 27984 net.cpp:157] Top shape: 20 384 5 5 (192000)
I1115 22:18:03.124018 27984 net.cpp:165] Memory required for data: 16280080
I1115 22:18:03.124022 27984 layer_factory.hpp:77] Creating layer conv4
I1115 22:18:03.124032 27984 net.cpp:100] Creating Layer conv4
I1115 22:18:03.124037 27984 net.cpp:434] conv4 <- conv3
I1115 22:18:03.124043 27984 net.cpp:408] conv4 -> conv4
I1115 22:18:03.148075 27984 net.cpp:150] Setting up conv4
I1115 22:18:03.148095 27984 net.cpp:157] Top shape: 20 384 5 5 (192000)
I1115 22:18:03.148099 27984 net.cpp:165] Memory required for data: 17048080
I1115 22:18:03.148108 27984 layer_factory.hpp:77] Creating layer relu4
I1115 22:18:03.148116 27984 net.cpp:100] Creating Layer relu4
I1115 22:18:03.148120 27984 net.cpp:434] relu4 <- conv4
I1115 22:18:03.148126 27984 net.cpp:395] relu4 -> conv4 (in-place)
I1115 22:18:03.148134 27984 net.cpp:150] Setting up relu4
I1115 22:18:03.148139 27984 net.cpp:157] Top shape: 20 384 5 5 (192000)
I1115 22:18:03.148142 27984 net.cpp:165] Memory required for data: 17816080
I1115 22:18:03.148146 27984 layer_factory.hpp:77] Creating layer conv5
I1115 22:18:03.148156 27984 net.cpp:100] Creating Layer conv5
I1115 22:18:03.148160 27984 net.cpp:434] conv5 <- conv4
I1115 22:18:03.148166 27984 net.cpp:408] conv5 -> conv5
I1115 22:18:03.164278 27984 net.cpp:150] Setting up conv5
I1115 22:18:03.164294 27984 net.cpp:157] Top shape: 20 256 5 5 (128000)
I1115 22:18:03.164299 27984 net.cpp:165] Memory required for data: 18328080
I1115 22:18:03.164311 27984 layer_factory.hpp:77] Creating layer relu5
I1115 22:18:03.164319 27984 net.cpp:100] Creating Layer relu5
I1115 22:18:03.164322 27984 net.cpp:434] relu5 <- conv5
I1115 22:18:03.164329 27984 net.cpp:395] relu5 -> conv5 (in-place)
I1115 22:18:03.164335 27984 net.cpp:150] Setting up relu5
I1115 22:18:03.164340 27984 net.cpp:157] Top shape: 20 256 5 5 (128000)
I1115 22:18:03.164345 27984 net.cpp:165] Memory required for data: 18840080
I1115 22:18:03.164347 27984 layer_factory.hpp:77] Creating layer pool5
I1115 22:18:03.164355 27984 net.cpp:100] Creating Layer pool5
I1115 22:18:03.164358 27984 net.cpp:434] pool5 <- conv5
I1115 22:18:03.164366 27984 net.cpp:408] pool5 -> pool5
I1115 22:18:03.164402 27984 net.cpp:150] Setting up pool5
I1115 22:18:03.164408 27984 net.cpp:157] Top shape: 20 256 2 2 (20480)
I1115 22:18:03.164412 27984 net.cpp:165] Memory required for data: 18922000
I1115 22:18:03.164415 27984 layer_factory.hpp:77] Creating layer fc6
I1115 22:18:03.164427 27984 net.cpp:100] Creating Layer fc6
I1115 22:18:03.164432 27984 net.cpp:434] fc6 <- pool5
I1115 22:18:03.164438 27984 net.cpp:408] fc6 -> fc6
I1115 22:18:03.283748 27984 net.cpp:150] Setting up fc6
I1115 22:18:03.283776 27984 net.cpp:157] Top shape: 20 4096 (81920)
I1115 22:18:03.283778 27984 net.cpp:165] Memory required for data: 19249680
I1115 22:18:03.283787 27984 layer_factory.hpp:77] Creating layer relu6
I1115 22:18:03.283795 27984 net.cpp:100] Creating Layer relu6
I1115 22:18:03.283799 27984 net.cpp:434] relu6 <- fc6
I1115 22:18:03.283807 27984 net.cpp:395] relu6 -> fc6 (in-place)
I1115 22:18:03.283815 27984 net.cpp:150] Setting up relu6
I1115 22:18:03.283821 27984 net.cpp:157] Top shape: 20 4096 (81920)
I1115 22:18:03.283823 27984 net.cpp:165] Memory required for data: 19577360
I1115 22:18:03.283825 27984 layer_factory.hpp:77] Creating layer drop6
I1115 22:18:03.283833 27984 net.cpp:100] Creating Layer drop6
I1115 22:18:03.283836 27984 net.cpp:434] drop6 <- fc6
I1115 22:18:03.283839 27984 net.cpp:395] drop6 -> fc6 (in-place)
I1115 22:18:03.283864 27984 net.cpp:150] Setting up drop6
I1115 22:18:03.283870 27984 net.cpp:157] Top shape: 20 4096 (81920)
I1115 22:18:03.283872 27984 net.cpp:165] Memory required for data: 19905040
I1115 22:18:03.283875 27984 layer_factory.hpp:77] Creating layer fc7
I1115 22:18:03.283881 27984 net.cpp:100] Creating Layer fc7
I1115 22:18:03.283885 27984 net.cpp:434] fc7 <- fc6
I1115 22:18:03.283890 27984 net.cpp:408] fc7 -> fc7
I1115 22:18:03.705603 27984 net.cpp:150] Setting up fc7
I1115 22:18:03.705636 27984 net.cpp:157] Top shape: 20 4096 (81920)
I1115 22:18:03.705639 27984 net.cpp:165] Memory required for data: 20232720
I1115 22:18:03.705646 27984 layer_factory.hpp:77] Creating layer relu7
I1115 22:18:03.705657 27984 net.cpp:100] Creating Layer relu7
I1115 22:18:03.705662 27984 net.cpp:434] relu7 <- fc7
I1115 22:18:03.705667 27984 net.cpp:395] relu7 -> fc7 (in-place)
I1115 22:18:03.705674 27984 net.cpp:150] Setting up relu7
I1115 22:18:03.705678 27984 net.cpp:157] Top shape: 20 4096 (81920)
I1115 22:18:03.705685 27984 net.cpp:165] Memory required for data: 20560400
I1115 22:18:03.705687 27984 layer_factory.hpp:77] Creating layer drop7
I1115 22:18:03.705693 27984 net.cpp:100] Creating Layer drop7
I1115 22:18:03.705698 27984 net.cpp:434] drop7 <- fc7
I1115 22:18:03.705703 27984 net.cpp:395] drop7 -> fc7 (in-place)
I1115 22:18:03.705723 27984 net.cpp:150] Setting up drop7
I1115 22:18:03.705729 27984 net.cpp:157] Top shape: 20 4096 (81920)
I1115 22:18:03.705730 27984 net.cpp:165] Memory required for data: 20888080
I1115 22:18:03.705732 27984 layer_factory.hpp:77] Creating layer fc8
I1115 22:18:03.705744 27984 net.cpp:100] Creating Layer fc8
I1115 22:18:03.705747 27984 net.cpp:434] fc8 <- fc7
I1115 22:18:03.705751 27984 net.cpp:408] fc8 -> fc8
I1115 22:18:03.708750 27984 net.cpp:150] Setting up fc8
I1115 22:18:03.708776 27984 net.cpp:157] Top shape: 20 28 (560)
I1115 22:18:03.708781 27984 net.cpp:165] Memory required for data: 20890320
I1115 22:18:03.708786 27984 layer_factory.hpp:77] Creating layer loss
I1115 22:18:03.708791 27984 net.cpp:100] Creating Layer loss
I1115 22:18:03.708794 27984 net.cpp:434] loss <- fc8
I1115 22:18:03.708798 27984 net.cpp:434] loss <- label
I1115 22:18:03.708804 27984 net.cpp:408] loss -> loss
I1115 22:18:03.708816 27984 layer_factory.hpp:77] Creating layer loss
…
I1115 22:18:03.709481 27984 solver.cpp:181] Creating test net (#0) specified by net file: examples/xuan/train_val.prototxt
I1115 22:18:03.709517 27984 net.cpp:322] The NetState phase (1) differed from the phase (0) specified by a rule in layer data
I1115 22:18:03.709717 27984 net.cpp:58] Initializing net from parameters: 
name: "CaffeNet"
state {
  phase: TEST
}
layer {
  name: "data"
  type: "Data"
  top: "data"
  top: "label"
  include {
    phase: TEST
  }
  transform_param {
    mirror: false
    crop_size: 90
    mean_file: "examples/xuan/mean.binaryproto"
  }
  data_param {
    source: "examples/xuan/img_test_lmdb"
    batch_size: 20
    backend: LMDB
  }
}
layer {
  name: "conv1"
  type: "Convolution"
  bottom: "data"
  top: "conv1"
  param {
    lr_mult: 1
    decay_mult: 1
  }
  param {
    lr_mult: 2
    decay_mult: 0
  }
  convolution_param {
    num_output: 96
    kernel_size: 11
    stride: 4
    weight_filler {
      type: "gaussian"
      std: 0.01
    }
    bias_filler {
      type: "constant"
      value: 0
    }
  }
}
layer {
  name: "relu1"
  type: "ReLU"
  bottom: "conv1"
  top: "conv1"
}
layer {
  name: "pool1"
  type: "Pooling"
  bottom: "conv1"
  top: "pool1"
  pooling_param {
    pool: MAX
    kernel_size: 3
    stride: 2
  }
}
layer {
  name: "norm1"
  type: "LRN"
  bottom: "pool1"
  top: "norm1"
  lrn_param {
    local_size: 5
    alpha: 0.0001
    beta: 0.75
  }
}
layer {
  name: "conv2"
  type: "Convolution"
  bottom: "norm1"
  top: "conv2"
  param {
    lr_mult: 1
    decay_mult: 1
  }
  param {
    lr_mult: 2
    decay_mult: 0
  }
  convolution_param {
    num_output: 256
    pad: 2
    kernel_size: 5
    group: 2
    weight_filler {
      type: "gaussian"
      std: 0.01
    }
    bias_filler {
      type: "constant"
      value: 1
    }
  }
}
layer {
  name: "relu2"
  type: "ReLU"
  bottom: "conv2"
  top: "conv2"
}
layer {
  name: "pool2"
  type: "Pooling"
  bottom: "conv2"
  top: "pool2"
  pooling_param {
    pool: MAX
    kernel_size: 3
    stride: 2
  }
}
layer {
  name: "norm2"
  type: "LRN"
  bottom: "pool2"
  top: "norm2"
  lrn_param {
    local_size: 5
    alpha: 0.0001
    beta: 0.75
  }
}
layer {
  name: "conv3"
  type: "Convolution"
  bottom: "norm2"
  top: "conv3"
  param {
    lr_mult: 1
    decay_mult: 1
  }
  param {
    lr_mult: 2
    decay_mult: 0
  }
  convolution_param {
    num_output: 384
    pad: 1
    kernel_size: 3
    weight_filler {
      type: "gaussian"
      std: 0.01
    }
    bias_filler {
      type: "constant"
      value: 0
    }
  }
}
layer {
  name: "relu3"
  type: "ReLU"
  bottom: "conv3"
  top: "conv3"
}
layer {
  name: "conv4"
  type: "Convolution"
  bottom: "conv3"
  top: "conv4"
  param {
    lr_mult: 1
    decay_mult: 1
  }
  param {
    lr_mult: 2
    decay_mult: 0
  }
  convolution_param {
    num_output: 384
    pad: 1
    kernel_size: 3
    group: 2
    weight_filler {
      type: "gaussian"
      std: 0.01
    }
    bias_filler {
      type: "constant"
      value: 1
    }
  }
}
layer {
  name: "relu4"
  type: "ReLU"
  bottom: "conv4"
  top: "conv4"
}
layer {
  name: "conv5"
  type: "Convolution"
  bottom: "conv4"
  top: "conv5"
  param {
    lr_mult: 1
    decay_mult: 1
  }
  param {
    lr_mult: 2
    decay_mult: 0
  }
  convolution_param {
    num_output: 256
    pad: 1
    kernel_size: 3
    group: 2
    weight_filler {
      type: "gaussian"
      std: 0.01
    }
    bias_filler {
      type: "constant"
      value: 1
    }
  }
}
layer {
  name: "relu5"
  type: "ReLU"
  bottom: "conv5"
  top: "conv5"
}
layer {
  name: "pool5"
  type: "Pooling"
  bottom: "conv5"
  top: "pool5"
  pooling_param {
    pool: MAX
    kernel_size: 3
    stride: 2
  }
}
layer {
  name: "fc6"
  type: "InnerProduct"
  bottom: "pool5"
  top: "fc6"
  param {
    lr_mult: 1
    decay_mult: 1
  }
  param {
    lr_mult: 2
    decay_mult: 0
  }
  inner_product_param {
    num_output: 4096
    weight_filler {
      type: "gaussian"
      std: 0.005
    }
    bias_filler {
      type: "constant"
      value: 1
    }
  }
}
layer {
  name: "relu6"
  type: "ReLU"
  bottom: "fc6"
  top: "fc6"
}
layer {
  name: "drop6"
  type: "Dropout"
  bottom: "fc6"
  top: "fc6"
  dropout_param {
    dropout_ratio: 0.5
  }
}
layer {
  name: "fc7"
  type: "InnerProduct"
  bottom: "fc6"
  top: "fc7"
  param {
    lr_mult: 1
    decay_mult: 1
  }
  param {
    lr_mult: 2
    decay_mult: 0
  }
  inner_product_param {
    num_output: 4096
    weight_filler {
      type: "gaussian"
      std: 0.005
    }
    bias_filler {
      type: "constant"
      value: 1
    }
  }
}
layer {
  name: "relu7"
  type: "ReLU"
  bottom: "fc7"
  top: "fc7"
}
layer {
  name: "drop7"
  type: "Dropout"
  bottom: "fc7"
  top: "fc7"
  dropout_param {
    dropout_ratio: 0.5
  }
}
layer {
  name: "fc8"
  type: "InnerProduct"
  bottom: "fc7"
  top: "fc8"
  param {
    lr_mult: 1
    decay_mult: 1
  }
  param {
    lr_mult: 2
    decay_mult: 0
  }
  inner_product_param {
    num_output: 28
    weight_filler {
      type: "gaussian"
      std: 0.01
    }
    bias_filler {
      type: "constant"
      value: 0
    }
  }
}
layer {
  name: "accuracy"
  type: "Accuracy"
  bottom: "fc8"
  bottom: "label"
  top: "accuracy"
  include {
    phase: TEST
  }
}
layer {
  name: "loss"
  type: "SoftmaxWithLoss"
  bottom: "fc8"
  bottom: "label"
  top: "loss"
}
I1115 22:18:03.709816 27984 layer_factory.hpp:77] Creating layer data
I1115 22:18:03.713037 27984 net.cpp:100] Creating Layer data
I1115 22:18:03.713055 27984 net.cpp:408] data -> data
I1115 22:18:03.713064 27984 net.cpp:408] data -> label
I1115 22:18:03.713070 27984 data_transformer.cpp:25] Loading mean file from: examples/xuan/mean.binaryproto
I1115 22:18:03.714121 27992 db_lmdb.cpp:35] Opened lmdb examples/xuan/img_test_lmdb
I1115 22:18:03.714238 27984 data_layer.cpp:41] output data size: 20,3,90,90
I1115 22:18:03.721959 27984 net.cpp:150] Setting up data
I1115 22:18:03.721976 27984 net.cpp:157] Top shape: 20 3 90 90 (486000)
I1115 22:18:03.721981 27984 net.cpp:157] Top shape: 20 (20)
I1115 22:18:03.721982 27984 net.cpp:165] Memory required for data: 1944080
I1115 22:18:03.721985 27984 layer_factory.hpp:77] Creating layer label_data_1_split
I1115 22:18:03.721993 27984 net.cpp:100] Creating Layer label_data_1_split
I1115 22:18:03.721997 27984 net.cpp:434] label_data_1_split <- label
I1115 22:18:03.722002 27984 net.cpp:408] label_data_1_split -> label_data_1_split_0
I1115 22:18:03.722007 27984 net.cpp:408] label_data_1_split -> label_data_1_split_1
I1115 22:18:03.722044 27984 net.cpp:150] Setting up label_data_1_split
I1115 22:18:03.722051 27984 net.cpp:157] Top shape: 20 (20)
I1115 22:18:03.722054 27984 net.cpp:157] Top shape: 20 (20)
I1115 22:18:03.722056 27984 net.cpp:165] Memory required for data: 1944240
I1115 22:18:03.722059 27984 layer_factory.hpp:77] Creating layer conv1
I1115 22:18:03.722067 27984 net.cpp:100] Creating Layer conv1
I1115 22:18:03.722074 27984 net.cpp:434] conv1 <- data
I1115 22:18:03.722079 27984 net.cpp:408] conv1 -> conv1
I1115 22:18:03.723062 27984 net.cpp:150] Setting up conv1
I1115 22:18:03.723072 27984 net.cpp:157] Top shape: 20 96 20 20 (768000)
I1115 22:18:03.723073 27984 net.cpp:165] Memory required for data: 5016240
I1115 22:18:03.723081 27984 layer_factory.hpp:77] Creating layer relu1
I1115 22:18:03.723086 27984 net.cpp:100] Creating Layer relu1
I1115 22:18:03.723089 27984 net.cpp:434] relu1 <- conv1
I1115 22:18:03.723093 27984 net.cpp:395] relu1 -> conv1 (in-place)
I1115 22:18:03.723098 27984 net.cpp:150] Setting up relu1
I1115 22:18:03.723100 27984 net.cpp:157] Top shape: 20 96 20 20 (768000)
I1115 22:18:03.723104 27984 net.cpp:165] Memory required for data: 8088240
I1115 22:18:03.723105 27984 layer_factory.hpp:77] Creating layer pool1
I1115 22:18:03.723110 27984 net.cpp:100] Creating Layer pool1
I1115 22:18:03.723114 27984 net.cpp:434] pool1 <- conv1
I1115 22:18:03.723116 27984 net.cpp:408] pool1 -> pool1
I1115 22:18:03.723141 27984 net.cpp:150] Setting up pool1
I1115 22:18:03.723148 27984 net.cpp:157] Top shape: 20 96 10 10 (192000)
I1115 22:18:03.723150 27984 net.cpp:165] Memory required for data: 8856240
I1115 22:18:03.723153 27984 layer_factory.hpp:77] Creating layer norm1
I1115 22:18:03.723158 27984 net.cpp:100] Creating Layer norm1
I1115 22:18:03.723160 27984 net.cpp:434] norm1 <- pool1
I1115 22:18:03.723163 27984 net.cpp:408] norm1 -> norm1
I1115 22:18:03.723186 27984 net.cpp:150] Setting up norm1
I1115 22:18:03.723191 27984 net.cpp:157] Top shape: 20 96 10 10 (192000)
I1115 22:18:03.723193 27984 net.cpp:165] Memory required for data: 9624240
I1115 22:18:03.723196 27984 layer_factory.hpp:77] Creating layer conv2
I1115 22:18:03.723201 27984 net.cpp:100] Creating Layer conv2
I1115 22:18:03.723204 27984 net.cpp:434] conv2 <- norm1
I1115 22:18:03.723207 27984 net.cpp:408] conv2 -> conv2
I1115 22:18:03.733186 27984 net.cpp:150] Setting up conv2
I1115 22:18:03.733220 27984 net.cpp:157] Top shape: 20 256 10 10 (512000)
I1115 22:18:03.733232 27984 net.cpp:165] Memory required for data: 11672240
I1115 22:18:03.733250 27984 layer_factory.hpp:77] Creating layer relu2
I1115 22:18:03.733264 27984 net.cpp:100] Creating Layer relu2
I1115 22:18:03.733275 27984 net.cpp:434] relu2 <- conv2
I1115 22:18:03.733288 27984 net.cpp:395] relu2 -> conv2 (in-place)
I1115 22:18:03.733306 27984 net.cpp:150] Setting up relu2
I1115 22:18:03.733319 27984 net.cpp:157] Top shape: 20 256 10 10 (512000)
I1115 22:18:03.733328 27984 net.cpp:165] Memory required for data: 13720240
I1115 22:18:03.733340 27984 layer_factory.hpp:77] Creating layer pool2
I1115 22:18:03.733372 27984 net.cpp:100] Creating Layer pool2
I1115 22:18:03.733384 27984 net.cpp:434] pool2 <- conv2
I1115 22:18:03.733397 27984 net.cpp:408] pool2 -> pool2
I1115 22:18:03.733443 27984 net.cpp:150] Setting up pool2
I1115 22:18:03.733458 27984 net.cpp:157] Top shape: 20 256 5 5 (128000)
I1115 22:18:03.733469 27984 net.cpp:165] Memory required for data: 14232240
I1115 22:18:03.733477 27984 layer_factory.hpp:77] Creating layer norm2
I1115 22:18:03.733490 27984 net.cpp:100] Creating Layer norm2
I1115 22:18:03.733500 27984 net.cpp:434] norm2 <- pool2
I1115 22:18:03.733511 27984 net.cpp:408] norm2 -> norm2
I1115 22:18:03.733551 27984 net.cpp:150] Setting up norm2
I1115 22:18:03.733566 27984 net.cpp:157] Top shape: 20 256 5 5 (128000)
I1115 22:18:03.733574 27984 net.cpp:165] Memory required for data: 14744240
I1115 22:18:03.733584 27984 layer_factory.hpp:77] Creating layer conv3
I1115 22:18:03.733613 27984 net.cpp:100] Creating Layer conv3
I1115 22:18:03.733624 27984 net.cpp:434] conv3 <- norm2
I1115 22:18:03.733638 27984 net.cpp:408] conv3 -> conv3
I1115 22:18:03.760538 27984 net.cpp:150] Setting up conv3
I1115 22:18:03.760593 27984 net.cpp:157] Top shape: 20 384 5 5 (192000)
I1115 22:18:03.760606 27984 net.cpp:165] Memory required for data: 15512240
I1115 22:18:03.760625 27984 layer_factory.hpp:77] Creating layer relu3
I1115 22:18:03.760643 27984 net.cpp:100] Creating Layer relu3
I1115 22:18:03.760653 27984 net.cpp:434] relu3 <- conv3
I1115 22:18:03.760666 27984 net.cpp:395] relu3 -> conv3 (in-place)
I1115 22:18:03.760684 27984 net.cpp:150] Setting up relu3
I1115 22:18:03.760695 27984 net.cpp:157] Top shape: 20 384 5 5 (192000)
I1115 22:18:03.760705 27984 net.cpp:165] Memory required for data: 16280240
I1115 22:18:03.760715 27984 layer_factory.hpp:77] Creating layer conv4
I1115 22:18:03.760732 27984 net.cpp:100] Creating Layer conv4
I1115 22:18:03.760742 27984 net.cpp:434] conv4 <- conv3
I1115 22:18:03.760756 27984 net.cpp:408] conv4 -> conv4
I1115 22:18:03.782089 27984 net.cpp:150] Setting up conv4
I1115 22:18:03.782131 27984 net.cpp:157] Top shape: 20 384 5 5 (192000)
I1115 22:18:03.782143 27984 net.cpp:165] Memory required for data: 17048240
I1115 22:18:03.782157 27984 layer_factory.hpp:77] Creating layer relu4
I1115 22:18:03.782173 27984 net.cpp:100] Creating Layer relu4
I1115 22:18:03.782184 27984 net.cpp:434] relu4 <- conv4
I1115 22:18:03.782198 27984 net.cpp:395] relu4 -> conv4 (in-place)
I1115 22:18:03.782214 27984 net.cpp:150] Setting up relu4
I1115 22:18:03.782227 27984 net.cpp:157] Top shape: 20 384 5 5 (192000)
I1115 22:18:03.782235 27984 net.cpp:165] Memory required for data: 17816240
I1115 22:18:03.782245 27984 layer_factory.hpp:77] Creating layer conv5
I1115 22:18:03.782261 27984 net.cpp:100] Creating Layer conv5
I1115 22:18:03.782272 27984 net.cpp:434] conv5 <- conv4
I1115 22:18:03.782285 27984 net.cpp:408] conv5 -> conv5
I1115 22:18:03.797933 27984 net.cpp:150] Setting up conv5
I1115 22:18:03.797962 27984 net.cpp:157] Top shape: 20 256 5 5 (128000)
I1115 22:18:03.797973 27984 net.cpp:165] Memory required for data: 18328240
I1115 22:18:03.797991 27984 layer_factory.hpp:77] Creating layer relu5
I1115 22:18:03.798005 27984 net.cpp:100] Creating Layer relu5
I1115 22:18:03.798017 27984 net.cpp:434] relu5 <- conv5
I1115 22:18:03.798029 27984 net.cpp:395] relu5 -> conv5 (in-place)
I1115 22:18:03.798044 27984 net.cpp:150] Setting up relu5
I1115 22:18:03.798056 27984 net.cpp:157] Top shape: 20 256 5 5 (128000)
I1115 22:18:03.798066 27984 net.cpp:165] Memory required for data: 18840240
I1115 22:18:03.798075 27984 layer_factory.hpp:77] Creating layer pool5
I1115 22:18:03.798091 27984 net.cpp:100] Creating Layer pool5
I1115 22:18:03.798101 27984 net.cpp:434] pool5 <- conv5
I1115 22:18:03.798115 27984 net.cpp:408] pool5 -> pool5
I1115 22:18:03.798161 27984 net.cpp:150] Setting up pool5
I1115 22:18:03.798178 27984 net.cpp:157] Top shape: 20 256 2 2 (20480)
I1115 22:18:03.798188 27984 net.cpp:165] Memory required for data: 18922160
I1115 22:18:03.798198 27984 layer_factory.hpp:77] Creating layer fc6
I1115 22:18:03.798233 27984 net.cpp:100] Creating Layer fc6
I1115 22:18:03.798243 27984 net.cpp:434] fc6 <- pool5
I1115 22:18:03.798257 27984 net.cpp:408] fc6 -> fc6
I1115 22:18:03.912171 27984 net.cpp:150] Setting up fc6
I1115 22:18:03.912202 27984 net.cpp:157] Top shape: 20 4096 (81920)
I1115 22:18:03.912205 27984 net.cpp:165] Memory required for data: 19249840
I1115 22:18:03.912212 27984 layer_factory.hpp:77] Creating layer relu6
I1115 22:18:03.912225 27984 net.cpp:100] Creating Layer relu6
I1115 22:18:03.912228 27984 net.cpp:434] relu6 <- fc6
I1115 22:18:03.912235 27984 net.cpp:395] relu6 -> fc6 (in-place)
I1115 22:18:03.912243 27984 net.cpp:150] Setting up relu6
I1115 22:18:03.912246 27984 net.cpp:157] Top shape: 20 4096 (81920)
I1115 22:18:03.912250 27984 net.cpp:165] Memory required for data: 19577520
I1115 22:18:03.912251 27984 layer_factory.hpp:77] Creating layer drop6
I1115 22:18:03.912257 27984 net.cpp:100] Creating Layer drop6
I1115 22:18:03.912261 27984 net.cpp:434] drop6 <- fc6
I1115 22:18:03.912264 27984 net.cpp:395] drop6 -> fc6 (in-place)
I1115 22:18:03.912287 27984 net.cpp:150] Setting up drop6
I1115 22:18:03.912293 27984 net.cpp:157] Top shape: 20 4096 (81920)
I1115 22:18:03.912295 27984 net.cpp:165] Memory required for data: 19905200
I1115 22:18:03.912298 27984 layer_factory.hpp:77] Creating layer fc7
I1115 22:18:03.912304 27984 net.cpp:100] Creating Layer fc7
I1115 22:18:03.912308 27984 net.cpp:434] fc7 <- fc6
I1115 22:18:03.912312 27984 net.cpp:408] fc7 -> fc7
I1115 22:18:04.312521 27984 net.cpp:150] Setting up fc7
I1115 22:18:04.312547 27984 net.cpp:157] Top shape: 20 4096 (81920)
I1115 22:18:04.312551 27984 net.cpp:165] Memory required for data: 20232880
I1115 22:18:04.312558 27984 layer_factory.hpp:77] Creating layer relu7
I1115 22:18:04.312568 27984 net.cpp:100] Creating Layer relu7
I1115 22:18:04.312572 27984 net.cpp:434] relu7 <- fc7
I1115 22:18:04.312578 27984 net.cpp:395] relu7 -> fc7 (in-place)
I1115 22:18:04.312587 27984 net.cpp:150] Setting up relu7
I1115 22:18:04.312590 27984 net.cpp:157] Top shape: 20 4096 (81920)
I1115 22:18:04.312592 27984 net.cpp:165] Memory required for data: 20560560
I1115 22:18:04.312595 27984 layer_factory.hpp:77] Creating layer drop7
I1115 22:18:04.312600 27984 net.cpp:100] Creating Layer drop7
I1115 22:18:04.312608 27984 net.cpp:434] drop7 <- fc7
I1115 22:18:04.312616 27984 net.cpp:395] drop7 -> fc7 (in-place)
I1115 22:18:04.312640 27984 net.cpp:150] Setting up drop7
I1115 22:18:04.312647 27984 net.cpp:157] Top shape: 20 4096 (81920)
I1115 22:18:04.312649 27984 net.cpp:165] Memory required for data: 20888240
I1115 22:18:04.312651 27984 layer_factory.hpp:77] Creating layer fc8
I1115 22:18:04.312660 27984 net.cpp:100] Creating Layer fc8
I1115 22:18:04.312665 27984 net.cpp:434] fc8 <- fc7
I1115 22:18:04.312670 27984 net.cpp:408] fc8 -> fc8
I1115 22:18:04.315218 27984 net.cpp:150] Setting up fc8
I1115 22:18:04.315227 27984 net.cpp:157] Top shape: 20 28 (560)
I1115 22:18:04.315229 27984 net.cpp:165] Memory required for data: 20890480
I1115 22:18:04.315233 27984 layer_factory.hpp:77] Creating layer fc8_fc8_0_split
I1115 22:18:04.315238 27984 net.cpp:100] Creating Layer fc8_fc8_0_split
I1115 22:18:04.315242 27984 net.cpp:434] fc8_fc8_0_split <- fc8
I1115 22:18:04.315245 27984 net.cpp:408] fc8_fc8_0_split -> fc8_fc8_0_split_0
I1115 22:18:04.315249 27984 net.cpp:408] fc8_fc8_0_split -> fc8_fc8_0_split_1
I1115 22:18:04.315276 27984 net.cpp:150] Setting up fc8_fc8_0_split
I1115 22:18:04.315282 27984 net.cpp:157] Top shape: 20 28 (560)
I1115 22:18:04.315285 27984 net.cpp:157] Top shape: 20 28 (560)
I1115 22:18:04.315287 27984 net.cpp:165] Memory required for data: 20894960
I1115 22:18:04.315290 27984 layer_factory.hpp:77] Creating layer accuracy
I1115 22:18:04.315295 27984 net.cpp:100] Creating Layer accuracy
I1115 22:18:04.315300 27984 net.cpp:434] accuracy <- fc8_fc8_0_split_0
I1115 22:18:04.315304 27984 net.cpp:434] accuracy <- label_data_1_split_0
I1115 22:18:04.315309 27984 net.cpp:408] accuracy -> accuracy
…
