…
I1115 11:29:42.260857 19108 net.cpp:322] The NetState phase (0) differed from the phase (1) specified by a rule in layer loss3/top-5
I1115 11:29:42.261900 19108 net.cpp:58] Initializing net from parameters: 
name: "GoogleNet"
state {
  phase: TRAIN
  level: 0
  stage: ""
}
layer {
  name: "data"
  type: "Data"
  top: "data"
  top: "label"
  include {
    phase: TRAIN
  }
  transform_param {
    mirror: true
    crop_size: 224
    mean_value: 104
    mean_value: 117
    mean_value: 123
  }
  data_param {
    source: "examples/google/img_train_lmdb"
    batch_size: 24
    backend: LMDB
  }
}
layer {
  name: "conv1/7x7_s2"
  type: "Convolution"
  bottom: "data"
  top: "conv1/7x7_s2"
  param {
    lr_mult: 1
    decay_mult: 1
  }
  param {
    lr_mult: 2
    decay_mult: 0
  }
  convolution_param {
    num_output: 64
    pad: 3
    kernel_size: 7
    stride: 2
    weight_filler {
      type: "xavier"
    }
    bias_filler {
      type: "constant"
      value: 0.2
    }
  }
}
layer {
  name: "conv1/relu_7x7"
  type: "ReLU"
  bottom: "conv1/7x7_s2"
  top: "conv1/7x7_s2"
}
layer {
  name: "pool1/3x3_s2"
  type: "Pooling"
  bottom: "conv1/7x7_s2"
  top: "pool1/3x3_s2"
  pooling_param {
    pool: MAX
    kernel_size: 3
    stride: 2
  }
}
layer {
  name: "pool1/norm1"
  type: "LRN"
  bottom: "pool1/3x3_s2"
  top: "pool1/norm1"
  lrn_param {
    local_size: 5
    alpha: 0.0001
    beta: 0.75
  }
}
layer {
  name: "conv2/3x3_reduce"
  type: "Convolution"
  bottom: "pool1/norm1"
  top: "conv2/3x3_reduce"
  param {
    lr_mult: 1
    decay_mult: 1
  }
  param {
    lr_mult: 2
    decay_mult: 0
  }
  convolution_param {
    num_output: 64
    kernel_size: 1
    weight_filler {
      type: "xavier"
    }
    bias_filler {
      type: "constant"
      value: 0.2
    }
  }
}
layer {
  name: "conv2/relu_3x3_reduce"
  type: "ReLU"
  bottom: "conv2/3x3_reduce"
  top: "conv2/3x3_reduce"
}
layer {
  name: "conv2/3x3"
  type: "Convolution"
  bottom: "conv2/3x3_reduce"
  top: "conv2/3x3"
  param {
    lr_mult: 1
    decay_mult: 1
  }
  param {
    lr_mult: 2
    decay_mult: 0
  }
  convolution_param {
    num_output: 192
    pad: 1
    kernel_size: 3
    weight_filler {
      type: "xavier"
    }
    bias_filler {
      type: "constant"
      value: 0.2
    }
  }
}
layer {
  name: "conv2/relu_3x3"
  type: "ReLU"
  bottom: "conv2/3x3"
  top: "conv2/3x3"
}
layer {
  name: "conv2/norm2"
  type: "LRN"
  bottom: "conv2/3x3"
  top: "conv2/norm2"
  lrn_param {
    local_size: 5
    alpha: 0.0001
    beta: 0.75
  }
}
layer {
  name: "pool2/3x3_s2"
  type: "Pooling"
  bottom: "conv2/norm2"
  top: "pool2/3x3_s2"
  pooling_param {
    pool: MAX
    kernel_size: 3
    stride: 2
  }
}
layer {
  name: "inception_3a/1x1"
  type: "Convolution"
  bottom: "pool2/3x3_s2"
  top: "inception_3a/1x1"
  param {
    lr_mult: 1
    decay_mult: 1
  }
  param {
    lr_mult: 2
    decay_mult: 0
  }
  convolution_param {
    num_output: 64
    kernel_size: 1
    weight_filler {
      type: "xavier"
    }
    bias_filler {
      type: "constant"
      value: 0.2
    }
  }
}
layer {
  name: "inception_3a/relu_1x1"
  type: "ReLU"
  bottom: "inception_3a/1x1"
  top: "inception_3a/1x1"
}
layer {
  name: "inception_3a/3x3_reduce"
  type: "Convolution"
  bottom: "pool2/3x3_s2"
  top: "inception_3a/3x3_reduce"
  param {
    lr_mult: 1
    decay_mult: 1
  }
  param {
    lr_mult: 2
    decay_mult: 0
  }
  convolution_param {
    num_output: 96
    kernel_size: 1
    weight_filler {
      type: "xavier"
    }
    bias_filler {
      type: "constant"
      value: 0.2
    }
  }
}
layer {
  name: "inception_3a/relu_3x3_reduce"
  type: "ReLU"
  bottom: "inception_3a/3x3_reduce"
  top: "inception_3a/3x3_reduce"
}
layer {
  name: "inception_3a/3x3"
  type: "Convolution"
  bottom: "inception_3a/3x3_reduce"
  top: "inception_3a/3x3"
  param {
    lr_mult: 1
    decay_mult: 1
  }
  param {
    lr_mult: 2
    decay_mult: 0
  }
  convolution_param {
    num_output: 128
    pad: 1
    kernel_size: 3
    weight_filler {
      type: "xavier"
    }
    bias_filler {
      type: "constant"
      value: 0.2
    }
  }
}
layer {
  name: "inception_3a/relu_3x3"
  type: "ReLU"
  bottom: "inception_3a/3x3"
  top: "inception_3a/3x3"
}
layer {
  name: "inception_3a/5x5_reduce"
  type: "Convolution"
  bottom: "pool2/3x3_s2"
  top: "inception_3a/5x5_reduce"
  param {
    lr_mult: 1
    decay_mult: 1
  }
  param {
    lr_mult: 2
    decay_mult: 0
  }
  convolution_param {
    num_output: 16
    kernel_size: 1
    weight_filler {
      type: "xavier"
    }
    bias_filler {
      type: "constant"
      value: 0.2
    }
  }
}
layer {
  name: "inception_3a/relu_5x5_reduce"
  type: "ReLU"
  bottom: "inception_3a/5x5_reduce"
  top: "inception_3a/5x5_reduce"
}
layer {
  name: "inception_3a/5x5"
  type: "Convolution"
  bottom: "inception_3a/5x5_reduce"
  top: "inception_3a/5x5"
  param {
    lr_mult: 1
    decay_mult: 1
  }
  param {
    lr_mult: 2
    decay_mult: 0
  }
  convolution_param {
    num_output: 32
    pad: 2
    kernel_size: 5
    weight_filler {
      type: "xavier"
    }
    bias_filler {
      type: "constant"
      value: 0.2
    }
  }
}
layer {
  name: "inception_3a/relu_5x5"
  type: "ReLU"
  bottom: "inception_3a/5x5"
  top: "inception_3a/5x5"
}
layer {
  name: "inception_3a/pool"
  type: "Pooling"
  bottom: "pool2/3x3_s2"
  top: "inception_3a/pool"
  pooling_param {
    pool: MAX
    kernel_size: 3
    stride: 1
    pad: 1
  }
}
layer {
  name: "inception_3a/pool_proj"
  type: "Convolution"
  bottom: "inception_3a/pool"
  top: "inception_3a/pool_proj"
  param {
    lr_mult: 1
    decay_mult: 1
  }
  param {
    lr_mult: 2
    decay_mult: 0
  }
  convolution_param {
    num_output: 32
    kernel_size: 1
    weight_filler {
      type: "xavier"
    }
    bias_filler {
      type: "constant"
      value: 0.2
    }
  }
}
layer {
  name: "inception_3a/relu_pool_proj"
  type: "ReLU"
  bottom: "inception_3a/pool_proj"
  top: "inception_3a/pool_proj"
}
layer {
  name: "inception_3a/output"
  type: "Concat"
  bottom: "inception_3a/1x1"
  bottom: "inception_3a/3x3"
  bottom: "inception_3a/5x5"
  bottom: "inception_3a/pool_proj"
  top: "inception_3a/output"
}
layer {
  name: "inception_3b/1x1"
  type: "Convolution"
  bottom: "inception_3a/output"
  top: "inception_3b/1x1"
  param {
    lr_mult: 1
    decay_mult: 1
  }
  param {
    lr_mult: 2
    decay_mult: 0
  }
  convolution_param {
    num_output: 128
    kernel_size: 1
    weight_filler {
      type: "xavier"
    }
    bias_filler {
      type: "constant"
      value: 0.2
    }
  }
}
layer {
  name: "inception_3b/relu_1x1"
  type: "ReLU"
  bottom: "inception_3b/1x1"
  top: "inception_3b/1x1"
}
layer {
  name: "inception_3b/3x3_reduce"
  type: "Convolution"
  bottom: "inception_3a/output"
  top: "inception_3b/3x3_reduce"
  param {
    lr_mult: 1
    decay_mult: 1
  }
  param {
    lr_mult: 2
    decay_mult: 0
  }
  convolution_param {
    num_output: 128
    kernel_size: 1
    weight_filler {
      type: "xavier"
    }
    bias_filler {
      type: "constant"
      value: 0.2
    }
  }
}
layer {
  name: "inception_3b/relu_3x3_reduce"
  type: "ReLU"
  bottom: "inception_3b/3x3_reduce"
  top: "inception_3b/3x3_reduce"
}
layer {
  name: "inception_3b/3x3"
  type: "Convolution"
  bottom: "inception_3b/3x3_reduce"
  top: "inception_3b/3x3"
  param {
    lr_mult: 1
    decay_mult: 1
  }
  param {
    lr_mult: 2
    decay_mult: 0
  }
  convolution_param {
    num_output: 192
    pad: 1
    kernel_size: 3
    weight_filler {
      type: "xavier"
    }
    bias_filler {
      type: "constant"
      value: 0.2
    }
  }
}
layer {
  name: "inception_3b/relu_3x3"
  type: "ReLU"
  bottom: "inception_3b/3x3"
  top: "inception_3b/3x3"
}
layer {
  name: "inception_3b/5x5_reduce"
  type: "Convolution"
  bottom: "inception_3a/output"
  top: "inception_3b/5x5_reduce"
  param {
    lr_mult: 1
    decay_mult: 1
  }
  param {
    lr_mult: 2
    decay_mult: 0
  }
  convolution_param {
    num_output: 32
    kernel_size: 1
    weight_filler {
      type: "xavier"
    }
    bias_filler {
      type: "constant"
      value: 0.2
    }
  }
}
layer {
  name: "inception_3b/relu_5x5_reduce"
  type: "ReLU"
  bottom: "inception_3b/5x5_reduce"
  top: "inception_3b/5x5_reduce"
}
layer {
  name: "inception_3b/5x5"
  type: "Convolution"
  bottom: "inception_3b/5x5_reduce"
  top: "inception_3b/5x5"
  param {
    lr_mult: 1
    decay_mult: 1
  }
  param {
    lr_mult: 2
    decay_mult: 0
  }
  convolution_param {
    num_output: 96
    pad: 2
    kernel_size: 5
    weight_filler {
      type: "xavier"
    }
    bias_filler {
      type: "constant"
      value: 0.2
    }
  }
}
layer {
  name: "inception_3b/relu_5x5"
  type: "ReLU"
  bottom: "inception_3b/5x5"
  top: "inception_3b/5x5"
}
layer {
  name: "inception_3b/pool"
  type: "Pooling"
  bottom: "inception_3a/output"
  top: "inception_3b/pool"
  pooling_param {
    pool: MAX
    kernel_size: 3
    stride: 1
    pad: 1
  }
}
layer {
  name: "inception_3b/pool_proj"
  type: "Convolution"
  bottom: "inception_3b/pool"
  top: "inception_3b/pool_proj"
  param {
    lr_mult: 1
    decay_mult: 1
  }
  param {
    lr_mult: 2
    decay_mult: 0
  }
  convolution_param {
    num_output: 64
    kernel_size: 1
    weight_filler {
      type: "xavier"
    }
    bias_filler {
      type: "constant"
      value: 0.2
    }
  }
}
layer {
  name: "inception_3b/relu_pool_proj"
  type: "ReLU"
  bottom: "inception_3b/pool_proj"
  top: "inception_3b/pool_proj"
}
layer {
  name: "inception_3b/output"
  type: "Concat"
  bottom: "inception_3b/1x1"
  bottom: "inception_3b/3x3"
  bottom: "inception_3b/5x5"
  bottom: "inception_3b/pool_proj"
  top: "inception_3b/output"
}
layer {
  name: "pool3/3x3_s2"
  type: "Pooling"
  bottom: "inception_3b/output"
  top: "pool3/3x3_s2"
  pooling_param {
    pool: MAX
    kernel_size: 3
    stride: 2
  }
}
layer {
  name: "inception_4a/1x1"
  type: "Convolution"
  bottom: "pool3/3x3_s2"
  top: "inception_4a/1x1"
  param {
    lr_mult: 1
    decay_mult: 1
  }
  param {
    lr_mult: 2
    decay_mult: 0
  }
  convolution_param {
    num_output: 192
    kernel_size: 1
    weight_filler {
      type: "xavier"
    }
    bias_filler {
      type: "constant"
      value: 0.2
    }
  }
}
layer {
  name: "inception_4a/relu_1x1"
  type: "ReLU"
  bottom: "inception_4a/1x1"
  top: "inception_4a/1x1"
}
layer {
  name: "inception_4a/3x3_reduce"
  type: "Convolution"
  bottom: "pool3/3x3_s2"
  top: "inception_4a/3x3_reduce"
  param {
    lr_mult: 1
    decay_mult: 1
  }
  param {
    lr_mult: 2
    decay_mult: 0
  }
  convolution_param {
    num_output: 96
    kernel_size: 1
    weight_filler {
      type: "xavier"
    }
    bias_filler {
      type: "constant"
      value: 0.2
    }
  }
}
layer {
  name: "inception_4a/relu_3x3_reduce"
  type: "ReLU"
  bottom: "inception_4a/3x3_reduce"
  top: "inception_4a/3x3_reduce"
}
layer {
  name: "inception_4a/3x3"
  type: "Convolution"
  bottom: "inception_4a/3x3_reduce"
  top: "inception_4a/3x3"
  param {
    lr_mult: 1
    decay_mult: 1
  }
  param {
    lr_mult: 2
    decay_mult: 0
  }
  convolution_param {
    num_output: 208
    pad: 1
    kernel_size: 3
    weight_filler {
      type: "xavier"
    }
    bias_filler {
      type: "constant"
      value: 0.2
    }
  }
}
layer {
  name: "inception_4a/relu_3x3"
  type: "ReLU"
  bottom: "inception_4a/3x3"
  top: "inception_4a/3x3"
}
layer {
  name: "inception_4a/5x5_reduce"
  type: "Convolution"
  bottom: "pool3/3x3_s2"
  top: "inception_4a/5x5_reduce"
  param {
    lr_mult: 1
    decay_mult: 1
  }
  param {
    lr_mult: 2
    decay_mult: 0
  }
  convolution_param {
    num_output: 16
    kernel_size: 1
    weight_filler {
      type: "xavier"
    }
    bias_filler {
      type: "constant"
      value: 0.2
    }
  }
}
layer {
  name: "inception_4a/relu_5x5_reduce"
  type: "ReLU"
  bottom: "inception_4a/5x5_reduce"
  top: "inception_4a/5x5_reduce"
}
layer {
  name: "inception_4a/5x5"
  type: "Convolution"
  bottom: "inception_4a/5x5_reduce"
  top: "inception_4a/5x5"
  param {
    lr_mult: 1
    decay_mult: 1
  }
  param {
    lr_mult: 2
    decay_mult: 0
  }
  convolution_param {
    num_output: 48
    pad: 2
    kernel_size: 5
    weight_filler {
      type: "xavier"
    }
    bias_filler {
      type: "constant"
      value: 0.2
    }
  }
}
layer {
  name: "inception_4a/relu_5x5"
  type: "ReLU"
  bottom: "inception_4a/5x5"
  top: "inception_4a/5x5"
}
layer {
  name: "inception_4a/pool"
  type: "Pooling"
  bottom: "pool3/3x3_s2"
  top: "inception_4a/pool"
  pooling_param {
    pool: MAX
    kernel_size: 3
    stride: 1
    pad: 1
  }
}
layer {
  name: "inception_4a/pool_proj"
  type: "Convolution"
  bottom: "inception_4a/pool"
  top: "inception_4a/pool_proj"
  param {
    lr_mult: 1
    decay_mult: 1
  }
  param {
    lr_mult: 2
    decay_mult: 0
  }
  convolution_param {
    num_output: 64
    kernel_size: 1
    weight_filler {
      type: "xavier"
    }
    bias_filler {
      type: "constant"
      value: 0.2
    }
  }
}
layer {
  name: "inception_4a/relu_pool_proj"
  type: "ReLU"
  bottom: "inception_4a/pool_proj"
  top: "inception_4a/pool_proj"
}
layer {
  name: "inception_4a/output"
  type: "Concat"
  bottom: "inception_4a/1x1"
  bottom: "inception_4a/3x3"
  bottom: "inception_4a/5x5"
  bottom: "inception_4a/pool_proj"
  top: "inception_4a/output"
}
layer {
  name: "loss1/ave_pool"
  type: "Pooling"
  bottom: "inception_4a/output"
  top: "loss1/ave_pool"
  pooling_param {
    pool: AVE
    kernel_size: 5
    stride: 3
  }
}
layer {
  name: "loss1/conv"
  type: "Convolution"
  bottom: "loss1/ave_pool"
  top: "loss1/conv"
  param {
    lr_mult: 1
    decay_mult: 1
  }
  param {
    lr_mult: 2
    decay_mult: 0
  }
  convolution_param {
    num_output: 128
    kernel_size: 1
    weight_filler {
      type: "xavier"
    }
    bias_filler {
      type: "constant"
      value: 0.2
    }
  }
}
layer {
  name: "loss1/relu_conv"
  type: "ReLU"
  bottom: "loss1/conv"
  top: "loss1/conv"
}
layer {
  name: "loss1/fc"
  type: "InnerProduct"
  bottom: "loss1/conv"
  top: "loss1/fc"
  param {
    lr_mult: 1
    decay_mult: 1
  }
  param {
    lr_mult: 2
    decay_mult: 0
  }
  inner_product_param {
    num_output: 1024
    weight_filler {
      type: "xavier"
    }
    bias_filler {
      type: "constant"
      value: 0.2
    }
  }
}
layer {
  name: "loss1/relu_fc"
  type: "ReLU"
  bottom: "loss1/fc"
  top: "loss1/fc"
}
layer {
  name: "loss1/drop_fc"
  type: "Dropout"
  bottom: "loss1/fc"
  top: "loss1/fc"
  dropout_param {
    dropout_ratio: 0.7
  }
}
layer {
  name: "loss1/classifier"
  type: "InnerProduct"
  bottom: "loss1/fc"
  top: "loss1/classifier"
  param {
    lr_mult: 1
    decay_mult: 1
  }
  param {
    lr_mult: 2
    decay_mult: 0
  }
  inner_product_param {
    num_output: 1000
    weight_filler {
      type: "xavier"
    }
    bias_filler {
      type: "constant"
      value: 0
    }
  }
}
layer {
  name: "loss1/loss"
  type: "SoftmaxWithLoss"
  bottom: "loss1/classifier"
  bottom: "label"
  top: "loss1/loss1"
  loss_weight: 0.3
}
layer {
  name: "inception_4b/1x1"
  type: "Convolution"
  bottom: "inception_4a/output"
  top: "inception_4b/1x1"
  param {
    lr_mult: 1
    decay_mult: 1
  }
  param {
    lr_mult: 2
    decay_mult: 0
  }
  convolution_param {
    num_output: 160
    kernel_size: 1
    weight_filler {
      type: "xavier"
    }
    bias_filler {
      type: "constant"
      value: 0.2
    }
  }
}
layer {
  name: "inception_4b/relu_1x1"
  type: "ReLU"
  bottom: "inception_4b/1x1"
  top: "inception_4b/1x1"
}
layer {
  name: "inception_4b/3x3_reduce"
  type: "Convolution"
  bottom: "inception_4a/output"
  top: "inception_4b/3x3_reduce"
  param {
    lr_mult: 1
    decay_mult: 1
  }
  param {
    lr_mult: 2
    decay_mult: 0
  }
  convolution_param {
    num_output: 112
    kernel_size: 1
    weight_filler {
      type: "xavier"
    }
    bias_filler {
      type: "constant"
      value: 0.2
    }
  }
}
layer {
  name: "inception_4b/relu_3x3_reduce"
  type: "ReLU"
  bottom: "inception_4b/3x3_reduce"
  top: "inception_4b/3x3_reduce"
}
layer {
  name: "inception_4b/3x3"
  type: "Convolution"
  bottom: "inception_4b/3x3_reduce"
  top: "inception_4b/3x3"
  param {
    lr_mult: 1
    decay_mult: 1
  }
  param {
    lr_mult: 2
    decay_mult: 0
  }
  convolution_param {
    num_output: 224
    pad: 1
    kernel_size: 3
    weight_filler {
      type: "xavier"
    }
    bias_filler {
      type: "constant"
      value: 0.2
    }
  }
}
layer {
  name: "inception_4b/relu_3x3"
  type: "ReLU"
  bottom: "inception_4b/3x3"
  top: "inception_4b/3x3"
}
layer {
  name: "inception_4b/5x5_reduce"
  type: "Convolution"
  bottom: "inception_4a/output"
  top: "inception_4b/5x5_reduce"
  param {
    lr_mult: 1
    decay_mult: 1
  }
  param {
    lr_mult: 2
    decay_mult: 0
  }
  convolution_param {
    num_output: 24
    kernel_size: 1
    weight_filler {
      type: "xavier"
    }
    bias_filler {
      type: "constant"
      value: 0.2
    }
  }
}
layer {
  name: "inception_4b/relu_5x5_reduce"
  type: "ReLU"
  bottom: "inception_4b/5x5_reduce"
  top: "inception_4b/5x5_reduce"
}
layer {
  name: "inception_4b/5x5"
  type: "Convolution"
  bottom: "inception_4b/5x5_reduce"
  top: "inception_4b/5x5"
  param {
    lr_mult: 1
    decay_mult: 1
  }
  param {
    lr_mult: 2
    decay_mult: 0
  }
  convolution_param {
    num_output: 64
    pad: 2
    kernel_size: 5
    weight_filler {
      type: "xavier"
    }
    bias_filler {
      type: "constant"
      value: 0.2
    }
  }
}
layer {
  name: "inception_4b/relu_5x5"
  type: "ReLU"
  bottom: "inception_4b/5x5"
  top: "inception_4b/5x5"
}
layer {
  name: "inception_4b/pool"
  type: "Pooling"
  bottom: "inception_4a/output"
  top: "inception_4b/pool"
  pooling_param {
    pool: MAX
    kernel_size: 3
    stride: 1
    pad: 1
  }
}
layer {
  name: "inception_4b/pool_proj"
  type: "Convolution"
  bottom: "inception_4b/pool"
  top: "inception_4b/pool_proj"
  param {
    lr_mult: 1
    decay_mult: 1
  }
  param {
    lr_mult: 2
    decay_mult: 0
  }
  convolution_param {
    num_output: 64
    kernel_size: 1
    weight_filler {
      type: "xavier"
    }
    bias_filler {
      type: "constant"
      value: 0.2
    }
  }
}
layer {
  name: "inception_4b/relu_pool_proj"
  type: "ReLU"
  bottom: "inception_4b/pool_proj"
  top: "inception_4b/pool_proj"
}
layer {
  name: "inception_4b/output"
  type: "Concat"
  bottom: "inception_4b/1x1"
  bottom: "inception_4b/3x3"
  bottom: "inception_4b/5x5"
  bottom: "inception_4b/pool_proj"
  top: "inception_4b/output"
}
layer {
  name: "inception_4c/1x1"
  type: "Convolution"
  bottom: "inception_4b/output"
  top: "inception_4c/1x1"
  param {
    lr_mult: 1
    decay_mult: 1
  }
  param {
    lr_mult: 2
    decay_mult: 0
  }
  convolution_param {
    num_output: 128
    kernel_size: 1
    weight_filler {
      type: "xavier"
    }
    bias_filler {
      type: "constant"
      value: 0.2
    }
  }
}
layer {
  name: "inception_4c/relu_1x1"
  type: "ReLU"
  bottom: "inception_4c/1x1"
  top: "inception_4c/1x1"
}
layer {
  name: "inception_4c/3x3_reduce"
  type: "Convolution"
  bottom: "inception_4b/output"
  top: "inception_4c/3x3_reduce"
  param {
    lr_mult: 1
    decay_mult: 1
  }
  param {
    lr_mult: 2
    decay_mult: 0
  }
  convolution_param {
    num_output: 128
    kernel_size: 1
    weight_filler {
      type: "xavier"
    }
    bias_filler {
      type: "constant"
      value: 0.2
    }
  }
}
layer {
  name: "inception_4c/relu_3x3_reduce"
  type: "ReLU"
  bottom: "inception_4c/3x3_reduce"
  top: "inception_4c/3x3_reduce"
}
layer {
  name: "inception_4c/3x3"
  type: "Convolution"
  bottom: "inception_4c/3x3_reduce"
  top: "inception_4c/3x3"
  param {
    lr_mult: 1
    decay_mult: 1
  }
  param {
    lr_mult: 2
    decay_mult: 0
  }
  convolution_param {
    num_output: 256
    pad: 1
    kernel_size: 3
    weight_filler {
      type: "xavier"
    }
    bias_filler {
      type: "constant"
      value: 0.2
    }
  }
}
layer {
  name: "inception_4c/relu_3x3"
  type: "ReLU"
  bottom: "inception_4c/3x3"
  top: "inception_4c/3x3"
}
layer {
  name: "inception_4c/5x5_reduce"
  type: "Convolution"
  bottom: "inception_4b/output"
  top: "inception_4c/5x5_reduce"
  param {
    lr_mult: 1
    decay_mult: 1
  }
  param {
    lr_mult: 2
    decay_mult: 0
  }
  convolution_param {
    num_output: 24
    kernel_size: 1
    weight_filler {
      type: "xavier"
    }
    bias_filler {
      type: "constant"
      value: 0.2
    }
  }
}
layer {
  name: "inception_4c/relu_5x5_reduce"
  type: "ReLU"
  bottom: "inception_4c/5x5_reduce"
  top: "inception_4c/5x5_reduce"
}
layer {
  name: "inception_4c/5x5"
  type: "Convolution"
  bottom: "inception_4c/5x5_reduce"
  top: "inception_4c/5x5"
  param {
    lr_mult: 1
    decay_mult: 1
  }
  param {
    lr_mult: 2
    decay_mult: 0
  }
  convolution_param {
    num_output: 64
    pad: 2
    kernel_size: 5
    weight_filler {
      type: "xavier"
    }
    bias_filler {
      type: "constant"
      value: 0.2
    }
  }
}
layer {
  name: "inception_4c/relu_5x5"
  type: "ReLU"
  bottom: "inception_4c/5x5"
  top: "inception_4c/5x5"
}
layer {
  name: "inception_4c/pool"
  type: "Pooling"
  bottom: "inception_4b/output"
  top: "inception_4c/pool"
  pooling_param {
    pool: MAX
    kernel_size: 3
    stride: 1
    pad: 1
  }
}
layer {
  name: "inception_4c/pool_proj"
  type: "Convolution"
  bottom: "inception_4c/pool"
  top: "inception_4c/pool_proj"
  param {
    lr_mult: 1
    decay_mult: 1
  }
  param {
    lr_mult: 2
    decay_mult: 0
  }
  convolution_param {
    num_output: 64
    kernel_size: 1
    weight_filler {
      type: "xavier"
    }
    bias_filler {
      type: "constant"
      value: 0.2
    }
  }
}
layer {
  name: "inception_4c/relu_pool_proj"
  type: "ReLU"
  bottom: "inception_4c/pool_proj"
  top: "inception_4c/pool_proj"
}
layer {
  name: "inception_4c/output"
  type: "Concat"
  bottom: "inception_4c/1x1"
  bottom: "inception_4c/3x3"
  bottom: "inception_4c/5x5"
  bottom: "inception_4c/pool_proj"
  top: "inception_4c/output"
}
layer {
  name: "inception_4d/1x1"
  type: "Convolution"
  bottom: "inception_4c/output"
  top: "inception_4d/1x1"
  param {
    lr_mult: 1
    decay_mult: 1
  }
  param {
    lr_mult: 2
    decay_mult: 0
  }
  convolution_param {
    num_output: 112
    kernel_size: 1
    weight_filler {
      type: "xavier"
    }
    bias_filler {
      type: "constant"
      value: 0.2
    }
  }
}
layer {
  name: "inception_4d/relu_1x1"
  type: "ReLU"
  bottom: "inception_4d/1x1"
  top: "inception_4d/1x1"
}
layer {
  name: "inception_4d/3x3_reduce"
  type: "Convolution"
  bottom: "inception_4c/output"
  top: "inception_4d/3x3_reduce"
  param {
    lr_mult: 1
    decay_mult: 1
  }
  param {
    lr_mult: 2
    decay_mult: 0
  }
  convolution_param {
    num_output: 144
    kernel_size: 1
    weight_filler {
      type: "xavier"
    }
    bias_filler {
      type: "constant"
      value: 0.2
    }
  }
}
layer {
  name: "inception_4d/relu_3x3_reduce"
  type: "ReLU"
  bottom: "inception_4d/3x3_reduce"
  top: "inception_4d/3x3_reduce"
}
layer {
  name: "inception_4d/3x3"
  type: "Convolution"
  bottom: "inception_4d/3x3_reduce"
  top: "inception_4d/3x3"
  param {
    lr_mult: 1
    decay_mult: 1
  }
  param {
    lr_mult: 2
    decay_mult: 0
  }
  convolution_param {
    num_output: 288
    pad: 1
    kernel_size: 3
    weight_filler {
      type: "xavier"
    }
    bias_filler {
      type: "constant"
      value: 0.2
    }
  }
}
layer {
  name: "inception_4d/relu_3x3"
  type: "ReLU"
  bottom: "inception_4d/3x3"
  top: "inception_4d/3x3"
}
layer {
  name: "inception_4d/5x5_reduce"
  type: "Convolution"
  bottom: "inception_4c/output"
  top: "inception_4d/5x5_reduce"
  param {
    lr_mult: 1
    decay_mult: 1
  }
  param {
    lr_mult: 2
    decay_mult: 0
  }
  convolution_param {
    num_output: 32
    kernel_size: 1
    weight_filler {
      type: "xavier"
    }
    bias_filler {
      type: "constant"
      value: 0.2
    }
  }
}
layer {
  name: "inception_4d/relu_5x5_reduce"
  type: "ReLU"
  bottom: "inception_4d/5x5_reduce"
  top: "inception_4d/5x5_reduce"
}
layer {
  name: "inception_4d/5x5"
  type: "Convolution"
  bottom: "inception_4d/5x5_reduce"
  top: "inception_4d/5x5"
  param {
    lr_mult: 1
    decay_mult: 1
  }
  param {
    lr_mult: 2
    decay_mult: 0
  }
  convolution_param {
    num_output: 64
    pad: 2
    kernel_size: 5
    weight_filler {
      type: "xavier"
    }
    bias_filler {
      type: "constant"
      value: 0.2
    }
  }
}
layer {
  name: "inception_4d/relu_5x5"
  type: "ReLU"
  bottom: "inception_4d/5x5"
  top: "inception_4d/5x5"
}
layer {
  name: "inception_4d/pool"
  type: "Pooling"
  bottom: "inception_4c/output"
  top: "inception_4d/pool"
  pooling_param {
    pool: MAX
    kernel_size: 3
    stride: 1
    pad: 1
  }
}
layer {
  name: "inception_4d/pool_proj"
  type: "Convolution"
  bottom: "inception_4d/pool"
  top: "inception_4d/pool_proj"
  param {
    lr_mult: 1
    decay_mult: 1
  }
  param {
    lr_mult: 2
    decay_mult: 0
  }
  convolution_param {
    num_output: 64
    kernel_size: 1
    weight_filler {
      type: "xavier"
    }
    bias_filler {
      type: "constant"
      value: 0.2
    }
  }
}
layer {
  name: "inception_4d/relu_pool_proj"
  type: "ReLU"
  bottom: "inception_4d/pool_proj"
  top: "inception_4d/pool_proj"
}
layer {
  name: "inception_4d/output"
  type: "Concat"
  bottom: "inception_4d/1x1"
  bottom: "inception_4d/3x3"
  bottom: "inception_4d/5x5"
  bottom: "inception_4d/pool_proj"
  top: "inception_4d/output"
}
layer {
  name: "loss2/ave_pool"
  type: "Pooling"
  bottom: "inception_4d/output"
  top: "loss2/ave_pool"
  pooling_param {
    pool: AVE
    kernel_size: 5
    stride: 3
  }
}
layer {
  name: "loss2/conv"
  type: "Convolution"
  bottom: "loss2/ave_pool"
  top: "loss2/conv"
  param {
    lr_mult: 1
    decay_mult: 1
  }
  param {
    lr_mult: 2
    decay_mult: 0
  }
  convolution_param {
    num_output: 128
    kernel_size: 1
    weight_filler {
      type: "xavier"
    }
    bias_filler {
      type: "constant"
      value: 0.2
    }
  }
}
layer {
  name: "loss2/relu_conv"
  type: "ReLU"
  bottom: "loss2/conv"
  top: "loss2/conv"
}
layer {
  name: "loss2/fc"
  type: "InnerProduct"
  bottom: "loss2/conv"
  top: "loss2/fc"
  param {
    lr_mult: 1
    decay_mult: 1
  }
  param {
    lr_mult: 2
    decay_mult: 0
  }
  inner_product_param {
    num_output: 1024
    weight_filler {
      type: "xavier"
    }
    bias_filler {
      type: "constant"
      value: 0.2
    }
  }
}
layer {
  name: "loss2/relu_fc"
  type: "ReLU"
  bottom: "loss2/fc"
  top: "loss2/fc"
}
layer {
  name: "loss2/drop_fc"
  type: "Dropout"
  bottom: "loss2/fc"
  top: "loss2/fc"
  dropout_param {
    dropout_ratio: 0.7
  }
}
layer {
  name: "loss2/classifier"
  type: "InnerProduct"
  bottom: "loss2/fc"
  top: "loss2/classifier"
  param {
    lr_mult: 1
    decay_mult: 1
  }
  param {
    lr_mult: 2
    decay_mult: 0
  }
  inner_product_param {
    num_output: 1000
    weight_filler {
      type: "xavier"
    }
    bias_filler {
      type: "constant"
      value: 0
    }
  }
}
layer {
  name: "loss2/loss"
  type: "SoftmaxWithLoss"
  bottom: "loss2/classifier"
  bottom: "label"
  top: "loss2/loss1"
  loss_weight: 0.3
}
layer {
  name: "inception_4e/1x1"
  type: "Convolution"
  bottom: "inception_4d/output"
  top: "inception_4e/1x1"
  param {
    lr_mult: 1
    decay_mult: 1
  }
  param {
    lr_mult: 2
    decay_mult: 0
  }
  convolution_param {
    num_output: 256
    kernel_size: 1
    weight_filler {
      type: "xavier"
    }
    bias_filler {
      type: "constant"
      value: 0.2
    }
  }
}
layer {
  name: "inception_4e/relu_1x1"
  type: "ReLU"
  bottom: "inception_4e/1x1"
  top: "inception_4e/1x1"
}
layer {
  name: "inception_4e/3x3_reduce"
  type: "Convolution"
  bottom: "inception_4d/output"
  top: "inception_4e/3x3_reduce"
  param {
    lr_mult: 1
    decay_mult: 1
  }
  param {
    lr_mult: 2
    decay_mult: 0
  }
  convolution_param {
    num_output: 160
    kernel_size: 1
    weight_filler {
      type: "xavier"
    }
    bias_filler {
      type: "constant"
      value: 0.2
    }
  }
}
layer {
  name: "inception_4e/relu_3x3_reduce"
  type: "ReLU"
  bottom: "inception_4e/3x3_reduce"
  top: "inception_4e/3x3_reduce"
}
layer {
  name: "inception_4e/3x3"
  type: "Convolution"
  bottom: "inception_4e/3x3_reduce"
  top: "inception_4e/3x3"
  param {
    lr_mult: 1
    decay_mult: 1
  }
  param {
    lr_mult: 2
    decay_mult: 0
  }
  convolution_param {
    num_output: 320
    pad: 1
    kernel_size: 3
    weight_filler {
      type: "xavier"
    }
    bias_filler {
      type: "constant"
      value: 0.2
    }
  }
}
layer {
  name: "inception_4e/relu_3x3"
  type: "ReLU"
  bottom: "inception_4e/3x3"
  top: "inception_4e/3x3"
}
layer {
  name: "inception_4e/5x5_reduce"
  type: "Convolution"
  bottom: "inception_4d/output"
  top: "inception_4e/5x5_reduce"
  param {
    lr_mult: 1
    decay_mult: 1
  }
  param {
    lr_mult: 2
    decay_mult: 0
  }
  convolution_param {
    num_output: 32
    kernel_size: 1
    weight_filler {
      type: "xavier"
    }
    bias_filler {
      type: "constant"
      value: 0.2
    }
  }
}
layer {
  name: "inception_4e/relu_5x5_reduce"
  type: "ReLU"
  bottom: "inception_4e/5x5_reduce"
  top: "inception_4e/5x5_reduce"
}
layer {
  name: "inception_4e/5x5"
  type: "Convolution"
  bottom: "inception_4e/5x5_reduce"
  top: "inception_4e/5x5"
  param {
    lr_mult: 1
    decay_mult: 1
  }
  param {
    lr_mult: 2
    decay_mult: 0
  }
  convolution_param {
    num_output: 128
    pad: 2
    kernel_size: 5
    weight_filler {
      type: "xavier"
    }
    bias_filler {
      type: "constant"
      value: 0.2
    }
  }
}
layer {
  name: "inception_4e/relu_5x5"
  type: "ReLU"
  bottom: "inception_4e/5x5"
  top: "inception_4e/5x5"
}
layer {
  name: "inception_4e/pool"
  type: "Pooling"
  bottom: "inception_4d/output"
  top: "inception_4e/pool"
  pooling_param {
    pool: MAX
    kernel_size: 
I1115 11:29:42.262468 19108 layer_factory.hpp:77] Creating layer data
I1115 11:29:42.262863 19108 net.cpp:100] Creating Layer data
I1115 11:29:42.262876 19108 net.cpp:408] data -> data
I1115 11:29:42.262893 19108 net.cpp:408] data -> label
I1115 11:29:42.264483 19113 db_lmdb.cpp:35] Opened lmdb examples/google/img_train_lmdb
I1115 11:29:42.284737 19108 data_layer.cpp:41] output data size: 24,3,224,224
I1115 11:29:42.306891 19108 net.cpp:150] Setting up data
I1115 11:29:42.306922 19108 net.cpp:157] Top shape: 24 3 224 224 (3612672)
I1115 11:29:42.306927 19108 net.cpp:157] Top shape: 24 (24)
I1115 11:29:42.306931 19108 net.cpp:165] Memory required for data: 14450784
I1115 11:29:42.306939 19108 layer_factory.hpp:77] Creating layer label_data_1_split
I1115 11:29:42.306951 19108 net.cpp:100] Creating Layer label_data_1_split
I1115 11:29:42.306955 19108 net.cpp:434] label_data_1_split <- label
I1115 11:29:42.306967 19108 net.cpp:408] label_data_1_split -> label_data_1_split_0
I1115 11:29:42.306977 19108 net.cpp:408] label_data_1_split -> label_data_1_split_1
I1115 11:29:42.306988 19108 net.cpp:408] label_data_1_split -> label_data_1_split_2
I1115 11:29:42.307090 19108 net.cpp:150] Setting up label_data_1_split
I1115 11:29:42.307114 19108 net.cpp:157] Top shape: 24 (24)
I1115 11:29:42.307118 19108 net.cpp:157] Top shape: 24 (24)
I1115 11:29:42.307121 19108 net.cpp:157] Top shape: 24 (24)
I1115 11:29:42.307123 19108 net.cpp:165] Memory required for data: 14451072
I1115 11:29:42.307126 19108 layer_factory.hpp:77] Creating layer conv1/7x7_s2
I1115 11:29:42.307142 19108 net.cpp:100] Creating Layer conv1/7x7_s2
I1115 11:29:42.307147 19108 net.cpp:434] conv1/7x7_s2 <- data
I1115 11:29:42.307153 19108 net.cpp:408] conv1/7x7_s2 -> conv1/7x7_s2
I1115 11:29:42.307875 19108 net.cpp:150] Setting up conv1/7x7_s2
I1115 11:29:42.307888 19108 net.cpp:157] Top shape: 24 64 112 112 (19267584)
I1115 11:29:42.307890 19108 net.cpp:165] Memory required for data: 91521408
I1115 11:29:42.307900 19108 layer_factory.hpp:77] Creating layer conv1/relu_7x7
I1115 11:29:42.307907 19108 net.cpp:100] Creating Layer conv1/relu_7x7
I1115 11:29:42.307910 19108 net.cpp:434] conv1/relu_7x7 <- conv1/7x7_s2
I1115 11:29:42.307915 19108 net.cpp:395] conv1/relu_7x7 -> conv1/7x7_s2 (in-place)
I1115 11:29:42.307920 19108 net.cpp:150] Setting up conv1/relu_7x7
I1115 11:29:42.307924 19108 net.cpp:157] Top shape: 24 64 112 112 (19267584)
I1115 11:29:42.307926 19108 net.cpp:165] Memory required for data: 168591744
I1115 11:29:42.307929 19108 layer_factory.hpp:77] Creating layer pool1/3x3_s2
I1115 11:29:42.307936 19108 net.cpp:100] Creating Layer pool1/3x3_s2
I1115 11:29:42.307945 19108 net.cpp:434] pool1/3x3_s2 <- conv1/7x7_s2
I1115 11:29:42.307950 19108 net.cpp:408] pool1/3x3_s2 -> pool1/3x3_s2
I1115 11:29:42.307986 19108 net.cpp:150] Setting up pool1/3x3_s2
I1115 11:29:42.307993 19108 net.cpp:157] Top shape: 24 64 56 56 (4816896)
I1115 11:29:42.307996 19108 net.cpp:165] Memory required for data: 187859328
I1115 11:29:42.307998 19108 layer_factory.hpp:77] Creating layer pool1/norm1
I1115 11:29:42.308004 19108 net.cpp:100] Creating Layer pool1/norm1
I1115 11:29:42.308007 19108 net.cpp:434] pool1/norm1 <- pool1/3x3_s2
I1115 11:29:42.308015 19108 net.cpp:408] pool1/norm1 -> pool1/norm1
I1115 11:29:42.308043 19108 net.cpp:150] Setting up pool1/norm1
I1115 11:29:42.308050 19108 net.cpp:157] Top shape: 24 64 56 56 (4816896)
I1115 11:29:42.308053 19108 net.cpp:165] Memory required for data: 207126912
I1115 11:29:42.308055 19108 layer_factory.hpp:77] Creating layer conv2/3x3_reduce
I1115 11:29:42.308064 19108 net.cpp:100] Creating Layer conv2/3x3_reduce
I1115 11:29:42.308069 19108 net.cpp:434] conv2/3x3_reduce <- pool1/norm1
I1115 11:29:42.308073 19108 net.cpp:408] conv2/3x3_reduce -> conv2/3x3_reduce
I1115 11:29:42.308645 19108 net.cpp:150] Setting up conv2/3x3_reduce
I1115 11:29:42.308656 19108 net.cpp:157] Top shape: 24 64 56 56 (4816896)
I1115 11:29:42.308660 19108 net.cpp:165] Memory required for data: 226394496
I1115 11:29:42.308666 19108 layer_factory.hpp:77] Creating layer conv2/relu_3x3_reduce
I1115 11:29:42.308671 19108 net.cpp:100] Creating Layer conv2/relu_3x3_reduce
I1115 11:29:42.308675 19108 net.cpp:434] conv2/relu_3x3_reduce <- conv2/3x3_reduce
I1115 11:29:42.308678 19108 net.cpp:395] conv2/relu_3x3_reduce -> conv2/3x3_reduce (in-place)
I1115 11:29:42.308686 19108 net.cpp:150] Setting up conv2/relu_3x3_reduce
I1115 11:29:42.308689 19108 net.cpp:157] Top shape: 24 64 56 56 (4816896)
I1115 11:29:42.308691 19108 net.cpp:165] Memory required for data: 245662080
I1115 11:29:42.308693 19108 layer_factory.hpp:77] Creating layer conv2/3x3
I1115 11:29:42.308701 19108 net.cpp:100] Creating Layer conv2/3x3
I1115 11:29:42.308704 19108 net.cpp:434] conv2/3x3 <- conv2/3x3_reduce
I1115 11:29:42.308709 19108 net.cpp:408] conv2/3x3 -> conv2/3x3
I1115 11:29:42.311560 19108 net.cpp:150] Setting up conv2/3x3
I1115 11:29:42.311573 19108 net.cpp:157] Top shape: 24 192 56 56 (14450688)
I1115 11:29:42.311575 19108 net.cpp:165] Memory required for data: 303464832
I1115 11:29:42.311583 19108 layer_factory.hpp:77] Creating layer conv2/relu_3x3
I1115 11:29:42.311589 19108 net.cpp:100] Creating Layer conv2/relu_3x3
I1115 11:29:42.311591 19108 net.cpp:434] conv2/relu_3x3 <- conv2/3x3
I1115 11:29:42.311597 19108 net.cpp:395] conv2/relu_3x3 -> conv2/3x3 (in-place)
I1115 11:29:42.311614 19108 net.cpp:150] Setting up conv2/relu_3x3
I1115 11:29:42.311619 19108 net.cpp:157] Top shape: 24 192 56 56 (14450688)
I1115 11:29:42.311621 19108 net.cpp:165] Memory required for data: 361267584
I1115 11:29:42.311624 19108 layer_factory.hpp:77] Creating layer conv2/norm2
I1115 11:29:42.311630 19108 net.cpp:100] Creating Layer conv2/norm2
I1115 11:29:42.311632 19108 net.cpp:434] conv2/norm2 <- conv2/3x3
I1115 11:29:42.311636 19108 net.cpp:408] conv2/norm2 -> conv2/norm2
I1115 11:29:42.311666 19108 net.cpp:150] Setting up conv2/norm2
I1115 11:29:42.311672 19108 net.cpp:157] Top shape: 24 192 56 56 (14450688)
I1115 11:29:42.311676 19108 net.cpp:165] Memory required for data: 419070336
I1115 11:29:42.311677 19108 layer_factory.hpp:77] Creating layer pool2/3x3_s2
I1115 11:29:42.311682 19108 net.cpp:100] Creating Layer pool2/3x3_s2
I1115 11:29:42.311686 19108 net.cpp:434] pool2/3x3_s2 <- conv2/norm2
I1115 11:29:42.311689 19108 net.cpp:408] pool2/3x3_s2 -> pool2/3x3_s2
I1115 11:29:42.311715 19108 net.cpp:150] Setting up pool2/3x3_s2
I1115 11:29:42.311722 19108 net.cpp:157] Top shape: 24 192 28 28 (3612672)
I1115 11:29:42.311724 19108 net.cpp:165] Memory required for data: 433521024
I1115 11:29:42.311728 19108 layer_factory.hpp:77] Creating layer pool2/3x3_s2_pool2/3x3_s2_0_split
I1115 11:29:42.311733 19108 net.cpp:100] Creating Layer pool2/3x3_s2_pool2/3x3_s2_0_split
I1115 11:29:42.311739 19108 net.cpp:434] pool2/3x3_s2_pool2/3x3_s2_0_split <- pool2/3x3_s2
I1115 11:29:42.311743 19108 net.cpp:408] pool2/3x3_s2_pool2/3x3_s2_0_split -> pool2/3x3_s2_pool2/3x3_s2_0_split_0
I1115 11:29:42.311748 19108 net.cpp:408] pool2/3x3_s2_pool2/3x3_s2_0_split -> pool2/3x3_s2_pool2/3x3_s2_0_split_1
I1115 11:29:42.311753 19108 net.cpp:408] pool2/3x3_s2_pool2/3x3_s2_0_split -> pool2/3x3_s2_pool2/3x3_s2_0_split_2
I1115 11:29:42.311758 19108 net.cpp:408] pool2/3x3_s2_pool2/3x3_s2_0_split -> pool2/3x3_s2_pool2/3x3_s2_0_split_3
I1115 11:29:42.311795 19108 net.cpp:150] Setting up pool2/3x3_s2_pool2/3x3_s2_0_split
I1115 11:29:42.311801 19108 net.cpp:157] Top shape: 24 192 28 28 (3612672)
I1115 11:29:42.311805 19108 net.cpp:157] Top shape: 24 192 28 28 (3612672)
I1115 11:29:42.311807 19108 net.cpp:157] Top shape: 24 192 28 28 (3612672)
I1115 11:29:42.311810 19108 net.cpp:157] Top shape: 24 192 28 28 (3612672)
I1115 11:29:42.311813 19108 net.cpp:165] Memory required for data: 491323776
I1115 11:29:42.311816 19108 layer_factory.hpp:77] Creating layer inception_3a/1x1
I1115 11:29:42.311825 19108 net.cpp:100] Creating Layer inception_3a/1x1
I1115 11:29:42.311830 19108 net.cpp:434] inception_3a/1x1 <- pool2/3x3_s2_pool2/3x3_s2_0_split_0
I1115 11:29:42.311836 19108 net.cpp:408] inception_3a/1x1 -> inception_3a/1x1
I1115 11:29:42.312433 19108 net.cpp:150] Setting up inception_3a/1x1
I1115 11:29:42.312445 19108 net.cpp:157] Top shape: 24 64 28 28 (1204224)
I1115 11:29:42.312448 19108 net.cpp:165] Memory required for data: 496140672
I1115 11:29:42.312453 19108 layer_factory.hpp:77] Creating layer inception_3a/relu_1x1
I1115 11:29:42.312475 19108 net.cpp:100] Creating Layer inception_3a/relu_1x1
I1115 11:29:42.312481 19108 net.cpp:434] inception_3a/relu_1x1 <- inception_3a/1x1
I1115 11:29:42.312486 19108 net.cpp:395] inception_3a/relu_1x1 -> inception_3a/1x1 (in-place)
I1115 11:29:42.312492 19108 net.cpp:150] Setting up inception_3a/relu_1x1
I1115 11:29:42.312496 19108 net.cpp:157] Top shape: 24 64 28 28 (1204224)
I1115 11:29:42.312499 19108 net.cpp:165] Memory required for data: 500957568
I1115 11:29:42.312500 19108 layer_factory.hpp:77] Creating layer inception_3a/3x3_reduce
I1115 11:29:42.312508 19108 net.cpp:100] Creating Layer inception_3a/3x3_reduce
I1115 11:29:42.312515 19108 net.cpp:434] inception_3a/3x3_reduce <- pool2/3x3_s2_pool2/3x3_s2_0_split_1
I1115 11:29:42.312520 19108 net.cpp:408] inception_3a/3x3_reduce -> inception_3a/3x3_reduce
I1115 11:29:42.313144 19108 net.cpp:150] Setting up inception_3a/3x3_reduce
I1115 11:29:42.313156 19108 net.cpp:157] Top shape: 24 96 28 28 (1806336)
I1115 11:29:42.313170 19108 net.cpp:165] Memory required for data: 508182912
I1115 11:29:42.313179 19108 layer_factory.hpp:77] Creating layer inception_3a/relu_3x3_reduce
I1115 11:29:42.313189 19108 net.cpp:100] Creating Layer inception_3a/relu_3x3_reduce
I1115 11:29:42.313195 19108 net.cpp:434] inception_3a/relu_3x3_reduce <- inception_3a/3x3_reduce
I1115 11:29:42.313199 19108 net.cpp:395] inception_3a/relu_3x3_reduce -> inception_3a/3x3_reduce (in-place)
I1115 11:29:42.313205 19108 net.cpp:150] Setting up inception_3a/relu_3x3_reduce
I1115 11:29:42.313208 19108 net.cpp:157] Top shape: 24 96 28 28 (1806336)
I1115 11:29:42.313211 19108 net.cpp:165] Memory required for data: 515408256
I1115 11:29:42.313213 19108 layer_factory.hpp:77] Creating layer inception_3a/3x3
I1115 11:29:42.313221 19108 net.cpp:100] Creating Layer inception_3a/3x3
I1115 11:29:42.313227 19108 net.cpp:434] inception_3a/3x3 <- inception_3a/3x3_reduce
I1115 11:29:42.313231 19108 net.cpp:408] inception_3a/3x3 -> inception_3a/3x3
I1115 11:29:42.313824 19108 net.cpp:150] Setting up inception_3a/3x3
I1115 11:29:42.313833 19108 net.cpp:157] Top shape: 24 128 28 28 (2408448)
I1115 11:29:42.313837 19108 net.cpp:165] Memory required for data: 525042048
I1115 11:29:42.313841 19108 layer_factory.hpp:77] Creating layer inception_3a/relu_3x3
I1115 11:29:42.313845 19108 net.cpp:100] Creating Layer inception_3a/relu_3x3
I1115 11:29:42.313848 19108 net.cpp:434] inception_3a/relu_3x3 <- inception_3a/3x3
I1115 11:29:42.313853 19108 net.cpp:395] inception_3a/relu_3x3 -> inception_3a/3x3 (in-place)
I1115 11:29:42.313858 19108 net.cpp:150] Setting up inception_3a/relu_3x3
I1115 11:29:42.313863 19108 net.cpp:157] Top shape: 24 128 28 28 (2408448)
I1115 11:29:42.313864 19108 net.cpp:165] Memory required for data: 534675840
I1115 11:29:42.313868 19108 layer_factory.hpp:77] Creating layer inception_3a/5x5_reduce
I1115 11:29:42.313874 19108 net.cpp:100] Creating Layer inception_3a/5x5_reduce
I1115 11:29:42.313879 19108 net.cpp:434] inception_3a/5x5_reduce <- pool2/3x3_s2_pool2/3x3_s2_0_split_2
I1115 11:29:42.313884 19108 net.cpp:408] inception_3a/5x5_reduce -> inception_3a/5x5_reduce
I1115 11:29:42.314054 19108 net.cpp:150] Setting up inception_3a/5x5_reduce
I1115 11:29:42.314064 19108 net.cpp:157] Top shape: 24 16 28 28 (301056)
I1115 11:29:42.314066 19108 net.cpp:165] Memory required for data: 535880064
I1115 11:29:42.314070 19108 layer_factory.hpp:77] Creating layer inception_3a/relu_5x5_reduce
I1115 11:29:42.314074 19108 net.cpp:100] Creating Layer inception_3a/relu_5x5_reduce
I1115 11:29:42.314077 19108 net.cpp:434] inception_3a/relu_5x5_reduce <- inception_3a/5x5_reduce
I1115 11:29:42.314082 19108 net.cpp:395] inception_3a/relu_5x5_reduce -> inception_3a/5x5_reduce (in-place)
I1115 11:29:42.314086 19108 net.cpp:150] Setting up inception_3a/relu_5x5_reduce
I1115 11:29:42.314090 19108 net.cpp:157] Top shape: 24 16 28 28 (301056)
I1115 11:29:42.314092 19108 net.cpp:165] Memory required for data: 537084288
I1115 11:29:42.314106 19108 layer_factory.hpp:77] Creating layer inception_3a/5x5
I1115 11:29:42.314116 19108 net.cpp:100] Creating Layer inception_3a/5x5
I1115 11:29:42.314121 19108 net.cpp:434] inception_3a/5x5 <- inception_3a/5x5_reduce
I1115 11:29:42.314126 19108 net.cpp:408] inception_3a/5x5 -> inception_3a/5x5
I1115 11:29:42.314337 19108 net.cpp:150] Setting up inception_3a/5x5
I1115 11:29:42.314345 19108 net.cpp:157] Top shape: 24 32 28 28 (602112)
I1115 11:29:42.314348 19108 net.cpp:165] Memory required for data: 539492736
I1115 11:29:42.314353 19108 layer_factory.hpp:77] Creating layer inception_3a/relu_5x5
I1115 11:29:42.314362 19108 net.cpp:100] Creating Layer inception_3a/relu_5x5
I1115 11:29:42.314364 19108 net.cpp:434] inception_3a/relu_5x5 <- inception_3a/5x5
I1115 11:29:42.314368 19108 net.cpp:395] inception_3a/relu_5x5 -> inception_3a/5x5 (in-place)
I1115 11:29:42.314373 19108 net.cpp:150] Setting up inception_3a/relu_5x5
I1115 11:29:42.314378 19108 net.cpp:157] Top shape: 24 32 28 28 (602112)
I1115 11:29:42.314379 19108 net.cpp:165] Memory required for data: 541901184
I1115 11:29:42.314388 19108 layer_factory.hpp:77] Creating layer inception_3a/pool
I1115 11:29:42.314395 19108 net.cpp:100] Creating Layer inception_3a/pool
I1115 11:29:42.314401 19108 net.cpp:434] inception_3a/pool <- pool2/3x3_s2_pool2/3x3_s2_0_split_3
I1115 11:29:42.314405 19108 net.cpp:408] inception_3a/pool -> inception_3a/pool
I1115 11:29:42.314435 19108 net.cpp:150] Setting up inception_3a/pool
I1115 11:29:42.314442 19108 net.cpp:157] Top shape: 24 192 28 28 (3612672)
I1115 11:29:42.314445 19108 net.cpp:165] Memory required for data: 556351872
I1115 11:29:42.314447 19108 layer_factory.hpp:77] Creating layer inception_3a/pool_proj
I1115 11:29:42.314455 19108 net.cpp:100] Creating Layer inception_3a/pool_proj
I1115 11:29:42.314460 19108 net.cpp:434] inception_3a/pool_proj <- inception_3a/pool
I1115 11:29:42.314465 19108 net.cpp:408] inception_3a/pool_proj -> inception_3a/pool_proj
I1115 11:29:42.314645 19108 net.cpp:150] Setting up inception_3a/pool_proj
I1115 11:29:42.314652 19108 net.cpp:157] Top shape: 24 32 28 28 (602112)
I1115 11:29:42.314654 19108 net.cpp:165] Memory required for data: 558760320
I1115 11:29:42.314664 19108 layer_factory.hpp:77] Creating layer inception_3a/relu_pool_proj
I1115 11:29:42.314671 19108 net.cpp:100] Creating Layer inception_3a/relu_pool_proj
I1115 11:29:42.314674 19108 net.cpp:434] inception_3a/relu_pool_proj <- inception_3a/pool_proj
I1115 11:29:42.314679 19108 net.cpp:395] inception_3a/relu_pool_proj -> inception_3a/pool_proj (in-place)
I1115 11:29:42.314684 19108 net.cpp:150] Setting up inception_3a/relu_pool_proj
I1115 11:29:42.314688 19108 net.cpp:157] Top shape: 24 32 28 28 (602112)
I1115 11:29:42.314690 19108 net.cpp:165] Memory required for data: 561168768
I1115 11:29:42.314693 19108 layer_factory.hpp:77] Creating layer inception_3a/output
I1115 11:29:42.314698 19108 net.cpp:100] Creating Layer inception_3a/output
I1115 11:29:42.314700 19108 net.cpp:434] inception_3a/output <- inception_3a/1x1
I1115 11:29:42.314704 19108 net.cpp:434] inception_3a/output <- inception_3a/3x3
I1115 11:29:42.314707 19108 net.cpp:434] inception_3a/output <- inception_3a/5x5
I1115 11:29:42.314710 19108 net.cpp:434] inception_3a/output <- inception_3a/pool_proj
I1115 11:29:42.314714 19108 net.cpp:408] inception_3a/output -> inception_3a/output
I1115 11:29:42.314733 19108 net.cpp:150] Setting up inception_3a/output
I1115 11:29:42.314738 19108 net.cpp:157] Top shape: 24 256 28 28 (4816896)
I1115 11:29:42.314741 19108 net.cpp:165] Memory required for data: 580436352
I1115 11:29:42.314743 19108 layer_factory.hpp:77] Creating layer inception_3a/output_inception_3a/output_0_split
I1115 11:29:42.314749 19108 net.cpp:100] Creating Layer inception_3a/output_inception_3a/output_0_split
I1115 11:29:42.314751 19108 net.cpp:434] inception_3a/output_inception_3a/output_0_split <- inception_3a/output
I1115 11:29:42.314756 19108 net.cpp:408] inception_3a/output_inception_3a/output_0_split -> inception_3a/output_inception_3a/output_0_split_0
I1115 11:29:42.314761 19108 net.cpp:408] inception_3a/output_inception_3a/output_0_split -> inception_3a/output_inception_3a/output_0_split_1
I1115 11:29:42.314765 19108 net.cpp:408] inception_3a/output_inception_3a/output_0_split -> inception_3a/output_inception_3a/output_0_split_2
I1115 11:29:42.314769 19108 net.cpp:408] inception_3a/output_inception_3a/output_0_split -> inception_3a/output_inception_3a/output_0_split_3
I1115 11:29:42.314806 19108 net.cpp:150] Setting up inception_3a/output_inception_3a/output_0_split
I1115 11:29:42.314815 19108 net.cpp:157] Top shape: 24 256 28 28 (4816896)
I1115 11:29:42.314817 19108 net.cpp:157] Top shape: 24 256 28 28 (4816896)
I1115 11:29:42.314821 19108 net.cpp:157] Top shape: 24 256 28 28 (4816896)
I1115 11:29:42.314823 19108 net.cpp:157] Top shape: 24 256 28 28 (4816896)
I1115 11:29:42.314826 19108 net.cpp:165] Memory required for data: 657506688
I1115 11:29:42.314828 19108 layer_factory.hpp:77] Creating layer inception_3b/1x1
I1115 11:29:42.314836 19108 net.cpp:100] Creating Layer inception_3b/1x1
I1115 11:29:42.314847 19108 net.cpp:434] inception_3b/1x1 <- inception_3a/output_inception_3a/output_0_split_0
I1115 11:29:42.314853 19108 net.cpp:408] inception_3b/1x1 -> inception_3b/1x1
I1115 11:29:42.315135 19108 net.cpp:150] Setting up inception_3b/1x1
I1115 11:29:42.315143 19108 net.cpp:157] Top shape: 24 128 28 28 (2408448)
I1115 11:29:42.315145 19108 net.cpp:165] Memory required for data: 667140480
I1115 11:29:42.315150 19108 layer_factory.hpp:77] Creating layer inception_3b/relu_1x1
I1115 11:29:42.315157 19108 net.cpp:100] Creating Layer inception_3b/relu_1x1
I1115 11:29:42.315160 19108 net.cpp:434] inception_3b/relu_1x1 <- inception_3b/1x1
I1115 11:29:42.315165 19108 net.cpp:395] inception_3b/relu_1x1 -> inception_3b/1x1 (in-place)
I1115 11:29:42.315171 19108 net.cpp:150] Setting up inception_3b/relu_1x1
I1115 11:29:42.315174 19108 net.cpp:157] Top shape: 24 128 28 28 (2408448)
I1115 11:29:42.315176 19108 net.cpp:165] Memory required for data: 676774272
I1115 11:29:42.315178 19108 layer_factory.hpp:77] Creating layer inception_3b/3x3_reduce
I1115 11:29:42.315186 19108 net.cpp:100] Creating Layer inception_3b/3x3_reduce
I1115 11:29:42.315189 19108 net.cpp:434] inception_3b/3x3_reduce <- inception_3a/output_inception_3a/output_0_split_1
I1115 11:29:42.315194 19108 net.cpp:408] inception_3b/3x3_reduce -> inception_3b/3x3_reduce
I1115 11:29:42.315474 19108 net.cpp:150] Setting up inception_3b/3x3_reduce
I1115 11:29:42.315481 19108 net.cpp:157] Top shape: 24 128 28 28 (2408448)
I1115 11:29:42.315485 19108 net.cpp:165] Memory required for data: 686408064
I1115 11:29:42.315488 19108 layer_factory.hpp:77] Creating layer inception_3b/relu_3x3_reduce
I1115 11:29:42.315496 19108 net.cpp:100] Creating Layer inception_3b/relu_3x3_reduce
I1115 11:29:42.315500 19108 net.cpp:434] inception_3b/relu_3x3_reduce <- inception_3b/3x3_reduce
I1115 11:29:42.315502 19108 net.cpp:395] inception_3b/relu_3x3_reduce -> inception_3b/3x3_reduce (in-place)
I1115 11:29:42.315508 19108 net.cpp:150] Setting up inception_3b/relu_3x3_reduce
I1115 11:29:42.315512 19108 net.cpp:157] Top shape: 24 128 28 28 (2408448)
I1115 11:29:42.315515 19108 net.cpp:165] Memory required for data: 696041856
I1115 11:29:42.315517 19108 layer_factory.hpp:77] Creating layer inception_3b/3x3
I1115 11:29:42.315526 19108 net.cpp:100] Creating Layer inception_3b/3x3
I1115 11:29:42.315531 19108 net.cpp:434] inception_3b/3x3 <- inception_3b/3x3_reduce
I1115 11:29:42.315536 19108 net.cpp:408] inception_3b/3x3 -> inception_3b/3x3
I1115 11:29:42.316956 19108 net.cpp:150] Setting up inception_3b/3x3
I1115 11:29:42.316970 19108 net.cpp:157] Top shape: 24 192 28 28 (3612672)
I1115 11:29:42.316973 19108 net.cpp:165] Memory required for data: 710492544
I1115 11:29:42.316978 19108 layer_factory.hpp:77] Creating layer inception_3b/relu_3x3
I1115 11:29:42.316983 19108 net.cpp:100] Creating Layer inception_3b/relu_3x3
I1115 11:29:42.316987 19108 net.cpp:434] inception_3b/relu_3x3 <- inception_3b/3x3
I1115 11:29:42.316992 19108 net.cpp:395] inception_3b/relu_3x3 -> inception_3b/3x3 (in-place)
I1115 11:29:42.316997 19108 net.cpp:150] Setting up inception_3b/relu_3x3
I1115 11:29:42.317003 19108 net.cpp:157] Top shape: 24 192 28 28 (3612672)
I1115 11:29:42.317005 19108 net.cpp:165] Memory required for data: 724943232
I1115 11:29:42.317008 19108 layer_factory.hpp:77] Creating layer inception_3b/5x5_reduce
I1115 11:29:42.317015 19108 net.cpp:100] Creating Layer inception_3b/5x5_reduce
I1115 11:29:42.317020 19108 net.cpp:434] inception_3b/5x5_reduce <- inception_3a/output_inception_3a/output_0_split_2
I1115 11:29:42.317026 19108 net.cpp:408] inception_3b/5x5_reduce -> inception_3b/5x5_reduce
I1115 11:29:42.317217 19108 net.cpp:150] Setting up inception_3b/5x5_reduce
I1115 11:29:42.317226 19108 net.cpp:157] Top shape: 24 32 28 28 (602112)
I1115 11:29:42.317229 19108 net.cpp:165] Memory required for data: 727351680
I1115 11:29:42.317234 19108 layer_factory.hpp:77] Creating layer inception_3b/relu_5x5_reduce
I1115 11:29:42.317241 19108 net.cpp:100] Creating Layer inception_3b/relu_5x5_reduce
I1115 11:29:42.317258 19108 net.cpp:434] inception_3b/relu_5x5_reduce <- inception_3b/5x5_reduce
I1115 11:29:42.317263 19108 net.cpp:395] inception_3b/relu_5x5_reduce -> inception_3b/5x5_reduce (in-place)
I1115 11:29:42.317268 19108 net.cpp:150] Setting up inception_3b/relu_5x5_reduce
I1115 11:29:42.317272 19108 net.cpp:157] Top shape: 24 32 28 28 (602112)
I1115 11:29:42.317275 19108 net.cpp:165] Memory required for data: 729760128
I1115 11:29:42.317276 19108 layer_factory.hpp:77] Creating layer inception_3b/5x5
I1115 11:29:42.317284 19108 net.cpp:100] Creating Layer inception_3b/5x5
I1115 11:29:42.317291 19108 net.cpp:434] inception_3b/5x5 <- inception_3b/5x5_reduce
I1115 11:29:42.317297 19108 net.cpp:408] inception_3b/5x5 -> inception_3b/5x5
I1115 11:29:42.318145 19108 net.cpp:150] Setting up inception_3b/5x5
I1115 11:29:42.318157 19108 net.cpp:157] Top shape: 24 96 28 28 (1806336)
I1115 11:29:42.318161 19108 net.cpp:165] Memory required for data: 736985472
I1115 11:29:42.318166 19108 layer_factory.hpp:77] Creating layer inception_3b/relu_5x5
I1115 11:29:42.318171 19108 net.cpp:100] Creating Layer inception_3b/relu_5x5
I1115 11:29:42.318173 19108 net.cpp:434] inception_3b/relu_5x5 <- inception_3b/5x5
I1115 11:29:42.318178 19108 net.cpp:395] inception_3b/relu_5x5 -> inception_3b/5x5 (in-place)
I1115 11:29:42.318184 19108 net.cpp:150] Setting up inception_3b/relu_5x5
I1115 11:29:42.318187 19108 net.cpp:157] Top shape: 24 96 28 28 (1806336)
I1115 11:29:42.318189 19108 net.cpp:165] Memory required for data: 744210816
I1115 11:29:42.318192 19108 layer_factory.hpp:77] Creating layer inception_3b/pool
I1115 11:29:42.318197 19108 net.cpp:100] Creating Layer inception_3b/pool
I1115 11:29:42.318199 19108 net.cpp:434] inception_3b/pool <- inception_3a/output_inception_3a/output_0_split_3
I1115 11:29:42.318204 19108 net.cpp:408] inception_3b/pool -> inception_3b/pool
I1115 11:29:42.318233 19108 net.cpp:150] Setting up inception_3b/pool
I1115 11:29:42.318239 19108 net.cpp:157] Top shape: 24 256 28 28 (4816896)
I1115 11:29:42.318243 19108 net.cpp:165] Memory required for data: 763478400
I1115 11:29:42.318244 19108 layer_factory.hpp:77] Creating layer inception_3b/pool_proj
I1115 11:29:42.318253 19108 net.cpp:100] Creating Layer inception_3b/pool_proj
I1115 11:29:42.318259 19108 net.cpp:434] inception_3b/pool_proj <- inception_3b/pool
I1115 11:29:42.318264 19108 net.cpp:408] inception_3b/pool_proj -> inception_3b/pool_proj
I1115 11:29:42.318486 19108 net.cpp:150] Setting up inception_3b/pool_proj
I1115 11:29:42.318495 19108 net.cpp:157] Top shape: 24 64 28 28 (1204224)
I1115 11:29:42.318497 19108 net.cpp:165] Memory required for data: 768295296
I1115 11:29:42.318501 19108 layer_factory.hpp:77] Creating layer inception_3b/relu_pool_proj
I1115 11:29:42.318509 19108 net.cpp:100] Creating Layer inception_3b/relu_pool_proj
I1115 11:29:42.318512 19108 net.cpp:434] inception_3b/relu_pool_proj <- inception_3b/pool_proj
I1115 11:29:42.318517 19108 net.cpp:395] inception_3b/relu_pool_proj -> inception_3b/pool_proj (in-place)
I1115 11:29:42.318522 19108 net.cpp:150] Setting up inception_3b/relu_pool_proj
I1115 11:29:42.318529 19108 net.cpp:157] Top shape: 24 64 28 28 (1204224)
I1115 11:29:42.318532 19108 net.cpp:165] Memory required for data: 773112192
I1115 11:29:42.318534 19108 layer_factory.hpp:77] Creating layer inception_3b/output
I1115 11:29:42.318538 19108 net.cpp:100] Creating Layer inception_3b/output
I1115 11:29:42.318542 19108 net.cpp:434] inception_3b/output <- inception_3b/1x1
I1115 11:29:42.318545 19108 net.cpp:434] inception_3b/output <- inception_3b/3x3
I1115 11:29:42.318548 19108 net.cpp:434] inception_3b/output <- inception_3b/5x5
I1115 11:29:42.318552 19108 net.cpp:434] inception_3b/output <- inception_3b/pool_proj
I1115 11:29:42.318555 19108 net.cpp:408] inception_3b/output -> inception_3b/output
I1115 11:29:42.318574 19108 net.cpp:150] Setting up inception_3b/output
I1115 11:29:42.318581 19108 net.cpp:157] Top shape: 24 480 28 28 (9031680)
I1115 11:29:42.318584 19108 net.cpp:165] Memory required for data: 809238912
I1115 11:29:42.318586 19108 layer_factory.hpp:77] Creating layer pool3/3x3_s2
I1115 11:29:42.318598 19108 net.cpp:100] Creating Layer pool3/3x3_s2
I1115 11:29:42.318601 19108 net.cpp:434] pool3/3x3_s2 <- inception_3b/output
I1115 11:29:42.318608 19108 net.cpp:408] pool3/3x3_s2 -> pool3/3x3_s2
I1115 11:29:42.318634 19108 net.cpp:150] Setting up pool3/3x3_s2
I1115 11:29:42.318642 19108 net.cpp:157] Top shape: 24 480 14 14 (2257920)
I1115 11:29:42.318645 19108 net.cpp:165] Memory required for data: 818270592
I1115 11:29:42.318647 19108 layer_factory.hpp:77] Creating layer pool3/3x3_s2_pool3/3x3_s2_0_split
I1115 11:29:42.318651 19108 net.cpp:100] Creating Layer pool3/3x3_s2_pool3/3x3_s2_0_split
I1115 11:29:42.318655 19108 net.cpp:434] pool3/3x3_s2_pool3/3x3_s2_0_split <- pool3/3x3_s2
I1115 11:29:42.318658 19108 net.cpp:408] pool3/3x3_s2_pool3/3x3_s2_0_split -> pool3/3x3_s2_pool3/3x3_s2_0_split_0
I1115 11:29:42.318663 19108 net.cpp:408] pool3/3x3_s2_pool3/3x3_s2_0_split -> pool3/3x3_s2_pool3/3x3_s2_0_split_1
I1115 11:29:42.318668 19108 net.cpp:408] pool3/3x3_s2_pool3/3x3_s2_0_split -> pool3/3x3_s2_pool3/3x3_s2_0_split_2
I1115 11:29:42.318673 19108 net.cpp:408] pool3/3x3_s2_pool3/3x3_s2_0_split -> pool3/3x3_s2_pool3/3x3_s2_0_split_3
I1115 11:29:42.318711 19108 net.cpp:150] Setting up pool3/3x3_s2_pool3/3x3_s2_0_split
I1115 11:29:42.318717 19108 net.cpp:157] Top shape: 24 480 14 14 (2257920)
I1115 11:29:42.318722 19108 net.cpp:157] Top shape: 24 480 14 14 (2257920)
I1115 11:29:42.318724 19108 net.cpp:157] Top shape: 24 480 14 14 (2257920)
I1115 11:29:42.318727 19108 net.cpp:157] Top shape: 24 480 14 14 (2257920)
I1115 11:29:42.318729 19108 net.cpp:165] Memory required for data: 854397312
I1115 11:29:42.318732 19108 layer_factory.hpp:77] Creating layer inception_4a/1x1
I1115 11:29:42.318742 19108 net.cpp:100] Creating Layer inception_4a/1x1
I1115 11:29:42.318747 19108 net.cpp:434] inception_4a/1x1 <- pool3/3x3_s2_pool3/3x3_s2_0_split_0
I1115 11:29:42.318753 19108 net.cpp:408] inception_4a/1x1 -> inception_4a/1x1
I1115 11:29:42.319268 19108 net.cpp:150] Setting up inception_4a/1x1
I1115 11:29:42.319278 19108 net.cpp:157] Top shape: 24 192 14 14 (903168)
I1115 11:29:42.319279 19108 net.cpp:165] Memory required for data: 858009984
I1115 11:29:42.319285 19108 layer_factory.hpp:77] Creating layer inception_4a/relu_1x1
I1115 11:29:42.319289 19108 net.cpp:100] Creating Layer inception_4a/relu_1x1
I1115 11:29:42.319293 19108 net.cpp:434] inception_4a/relu_1x1 <- inception_4a/1x1
I1115 11:29:42.319298 19108 net.cpp:395] inception_4a/relu_1x1 -> inception_4a/1x1 (in-place)
I1115 11:29:42.319303 19108 net.cpp:150] Setting up inception_4a/relu_1x1
I1115 11:29:42.319305 19108 net.cpp:157] Top shape: 24 192 14 14 (903168)
I1115 11:29:42.319308 19108 net.cpp:165] Memory required for data: 861622656
I1115 11:29:42.319310 19108 layer_factory.hpp:77] Creating layer inception_4a/3x3_reduce
I1115 11:29:42.319316 19108 net.cpp:100] Creating Layer inception_4a/3x3_reduce
I1115 11:29:42.319321 19108 net.cpp:434] inception_4a/3x3_reduce <- pool3/3x3_s2_pool3/3x3_s2_0_split_1
I1115 11:29:42.319326 19108 net.cpp:408] inception_4a/3x3_reduce -> inception_4a/3x3_reduce
I1115 11:29:42.319679 19108 net.cpp:150] Setting up inception_4a/3x3_reduce
I1115 11:29:42.319687 19108 net.cpp:157] Top shape: 24 96 14 14 (451584)
I1115 11:29:42.319689 19108 net.cpp:165] Memory required for data: 863428992
I1115 11:29:42.319699 19108 layer_factory.hpp:77] Creating layer inception_4a/relu_3x3_reduce
I1115 11:29:42.319705 19108 net.cpp:100] Creating Layer inception_4a/relu_3x3_reduce
I1115 11:29:42.319707 19108 net.cpp:434] inception_4a/relu_3x3_reduce <- inception_4a/3x3_reduce
I1115 11:29:42.319711 19108 net.cpp:395] inception_4a/relu_3x3_reduce -> inception_4a/3x3_reduce (in-place)
I1115 11:29:42.319717 19108 net.cpp:150] Setting up inception_4a/relu_3x3_reduce
I1115 11:29:42.319720 19108 net.cpp:157] Top shape: 24 96 14 14 (451584)
I1115 11:29:42.319723 19108 net.cpp:165] Memory required for data: 865235328
I1115 11:29:42.319725 19108 layer_factory.hpp:77] Creating layer inception_4a/3x3
I1115 11:29:42.319738 19108 net.cpp:100] Creating Layer inception_4a/3x3
I1115 11:29:42.319742 19108 net.cpp:434] inception_4a/3x3 <- inception_4a/3x3_reduce
I1115 11:29:42.319748 19108 net.cpp:408] inception_4a/3x3 -> inception_4a/3x3
I1115 11:29:42.321010 19108 net.cpp:150] Setting up inception_4a/3x3
I1115 11:29:42.321022 19108 net.cpp:157] Top shape: 24 208 14 14 (978432)
I1115 11:29:42.321025 19108 net.cpp:165] Memory required for data: 869149056
I1115 11:29:42.321030 19108 layer_factory.hpp:77] Creating layer inception_4a/relu_3x3
I1115 11:29:42.321035 19108 net.cpp:100] Creating Layer inception_4a/relu_3x3
I1115 11:29:42.321038 19108 net.cpp:434] inception_4a/relu_3x3 <- inception_4a/3x3
I1115 11:29:42.321044 19108 net.cpp:395] inception_4a/relu_3x3 -> inception_4a/3x3 (in-place)
I1115 11:29:42.321049 19108 net.cpp:150] Setting up inception_4a/relu_3x3
I1115 11:29:42.321053 19108 net.cpp:157] Top shape: 24 208 14 14 (978432)
I1115 11:29:42.321055 19108 net.cpp:165] Memory required for data: 873062784
I1115 11:29:42.321058 19108 layer_factory.hpp:77] Creating layer inception_4a/5x5_reduce
I1115 11:29:42.321065 19108 net.cpp:100] Creating Layer inception_4a/5x5_reduce
I1115 11:29:42.321069 19108 net.cpp:434] inception_4a/5x5_reduce <- pool3/3x3_s2_pool3/3x3_s2_0_split_2
I1115 11:29:42.321072 19108 net.cpp:408] inception_4a/5x5_reduce -> inception_4a/5x5_reduce
I1115 11:29:42.321271 19108 net.cpp:150] Setting up inception_4a/5x5_reduce
I1115 11:29:42.321277 19108 net.cpp:157] Top shape: 24 16 14 14 (75264)
I1115 11:29:42.321280 19108 net.cpp:165] Memory required for data: 873363840
I1115 11:29:42.321285 19108 layer_factory.hpp:77] Creating layer inception_4a/relu_5x5_reduce
I1115 11:29:42.321290 19108 net.cpp:100] Creating Layer inception_4a/relu_5x5_reduce
I1115 11:29:42.321291 19108 net.cpp:434] inception_4a/relu_5x5_reduce <- inception_4a/5x5_reduce
I1115 11:29:42.321296 19108 net.cpp:395] inception_4a/relu_5x5_reduce -> inception_4a/5x5_reduce (in-place)
I1115 11:29:42.321301 19108 net.cpp:150] Setting up inception_4a/relu_5x5_reduce
I1115 11:29:42.321305 19108 net.cpp:157] Top shape: 24 16 14 14 (75264)
I1115 11:29:42.321307 19108 net.cpp:165] Memory required for data: 873664896
I1115 11:29:42.321310 19108 layer_factory.hpp:77] Creating layer inception_4a/5x5
I1115 11:29:42.321316 19108 net.cpp:100] Creating Layer inception_4a/5x5
I1115 11:29:42.321319 19108 net.cpp:434] inception_4a/5x5 <- inception_4a/5x5_reduce
I1115 11:29:42.321323 19108 net.cpp:408] inception_4a/5x5 -> inception_4a/5x5
I1115 11:29:42.321558 19108 net.cpp:150] Setting up inception_4a/5x5
I1115 11:29:42.321565 19108 net.cpp:157] Top shape: 24 48 14 14 (225792)
I1115 11:29:42.321568 19108 net.cpp:165] Memory required for data: 874568064
I1115 11:29:42.321573 19108 layer_factory.hpp:77] Creating layer inception_4a/relu_5x5
I1115 11:29:42.321576 19108 net.cpp:100] Creating Layer inception_4a/relu_5x5
I1115 11:29:42.321579 19108 net.cpp:434] inception_4a/relu_5x5 <- inception_4a/5x5
I1115 11:29:42.321583 19108 net.cpp:395] inception_4a/relu_5x5 -> inception_4a/5x5 (in-place)
I1115 11:29:42.321588 19108 net.cpp:150] Setting up inception_4a/relu_5x5
I1115 11:29:42.321590 19108 net.cpp:157] Top shape: 24 48 14 14 (225792)
I1115 11:29:42.321593 19108 net.cpp:165] Memory required for data: 875471232
I1115 11:29:42.321594 19108 layer_factory.hpp:77] Creating layer inception_4a/pool
I1115 11:29:42.321599 19108 net.cpp:100] Creating Layer inception_4a/pool
I1115 11:29:42.321602 19108 net.cpp:434] inception_4a/pool <- pool3/3x3_s2_pool3/3x3_s2_0_split_3
I1115 11:29:42.321606 19108 net.cpp:408] inception_4a/pool -> inception_4a/pool
I1115 11:29:42.321633 19108 net.cpp:150] Setting up inception_4a/pool
I1115 11:29:42.321638 19108 net.cpp:157] Top shape: 24 480 14 14 (2257920)
I1115 11:29:42.321640 19108 net.cpp:165] Memory required for data: 884502912
I1115 11:29:42.321642 19108 layer_factory.hpp:77] Creating layer inception_4a/pool_proj
I1115 11:29:42.321650 19108 net.cpp:100] Creating Layer inception_4a/pool_proj
I1115 11:29:42.321653 19108 net.cpp:434] inception_4a/pool_proj <- inception_4a/pool
I1115 11:29:42.321667 19108 net.cpp:408] inception_4a/pool_proj -> inception_4a/pool_proj
I1115 11:29:42.321950 19108 net.cpp:150] Setting up inception_4a/pool_proj
I1115 11:29:42.321956 19108 net.cpp:157] Top shape: 24 64 14 14 (301056)
I1115 11:29:42.321959 19108 net.cpp:165] Memory required for data: 885707136
I1115 11:29:42.321964 19108 layer_factory.hpp:77] Creating layer inception_4a/relu_pool_proj
I1115 11:29:42.321969 19108 net.cpp:100] Creating Layer inception_4a/relu_pool_proj
I1115 11:29:42.321972 19108 net.cpp:434] inception_4a/relu_pool_proj <- inception_4a/pool_proj
I1115 11:29:42.321976 19108 net.cpp:395] inception_4a/relu_pool_proj -> inception_4a/pool_proj (in-place)
I1115 11:29:42.321980 19108 net.cpp:150] Setting up inception_4a/relu_pool_proj
I1115 11:29:42.321985 19108 net.cpp:157] Top shape: 24 64 14 14 (301056)
I1115 11:29:42.321986 19108 net.cpp:165] Memory required for data: 886911360
I1115 11:29:42.321990 19108 layer_factory.hpp:77] Creating layer inception_4a/output
I1115 11:29:42.321993 19108 net.cpp:100] Creating Layer inception_4a/output
I1115 11:29:42.321995 19108 net.cpp:434] inception_4a/output <- inception_4a/1x1
I1115 11:29:42.321998 19108 net.cpp:434] inception_4a/output <- inception_4a/3x3
I1115 11:29:42.322002 19108 net.cpp:434] inception_4a/output <- inception_4a/5x5
I1115 11:29:42.322005 19108 net.cpp:434] inception_4a/output <- inception_4a/pool_proj
I1115 11:29:42.322008 19108 net.cpp:408] inception_4a/output -> inception_4a/output
I1115 11:29:42.322026 19108 net.cpp:150] Setting up inception_4a/output
I1115 11:29:42.322031 19108 net.cpp:157] Top shape: 24 512 14 14 (2408448)
I1115 11:29:42.322032 19108 net.cpp:165] Memory required for data: 896545152
I1115 11:29:42.322036 19108 layer_factory.hpp:77] Creating layer inception_4a/output_inception_4a/output_0_split
I1115 11:29:42.322041 19108 net.cpp:100] Creating Layer inception_4a/output_inception_4a/output_0_split
I1115 11:29:42.322043 19108 net.cpp:434] inception_4a/output_inception_4a/output_0_split <- inception_4a/output
I1115 11:29:42.322047 19108 net.cpp:408] inception_4a/output_inception_4a/output_0_split -> inception_4a/output_inception_4a/output_0_split_0
I1115 11:29:42.322052 19108 net.cpp:408] inception_4a/output_inception_4a/output_0_split -> inception_4a/output_inception_4a/output_0_split_1
I1115 11:29:42.322057 19108 net.cpp:408] inception_4a/output_inception_4a/output_0_split -> inception_4a/output_inception_4a/output_0_split_2
I1115 11:29:42.322062 19108 net.cpp:408] inception_4a/output_inception_4a/output_0_split -> inception_4a/output_inception_4a/output_0_split_3
I1115 11:29:42.322065 19108 net.cpp:408] inception_4a/output_inception_4a/output_0_split -> inception_4a/output_inception_4a/output_0_split_4
I1115 11:29:42.322113 19108 net.cpp:150] Setting up inception_4a/output_inception_4a/output_0_split
I1115 11:29:42.322118 19108 net.cpp:157] Top shape: 24 512 14 14 (2408448)
I1115 11:29:42.322120 19108 net.cpp:157] Top shape: 24 512 14 14 (2408448)
I1115 11:29:42.322124 19108 net.cpp:157] Top shape: 24 512 14 14 (2408448)
I1115 11:29:42.322126 19108 net.cpp:157] Top shape: 24 512 14 14 (2408448)
I1115 11:29:42.322129 19108 net.cpp:157] Top shape: 24 512 14 14 (2408448)
I1115 11:29:42.322131 19108 net.cpp:165] Memory required for data: 944714112
I1115 11:29:42.322134 19108 layer_factory.hpp:77] Creating layer loss1/ave_pool
I1115 11:29:42.322139 19108 net.cpp:100] Creating Layer loss1/ave_pool
I1115 11:29:42.322142 19108 net.cpp:434] loss1/ave_pool <- inception_4a/output_inception_4a/output_0_split_0
I1115 11:29:42.322145 19108 net.cpp:408] loss1/ave_pool -> loss1/ave_pool
I1115 11:29:42.322162 19108 net.cpp:150] Setting up loss1/ave_pool
I1115 11:29:42.322167 19108 net.cpp:157] Top shape: 24 512 4 4 (196608)
I1115 11:29:42.322170 19108 net.cpp:165] Memory required for data: 945500544
I1115 11:29:42.322171 19108 layer_factory.hpp:77] Creating layer loss1/conv
I1115 11:29:42.322178 19108 net.cpp:100] Creating Layer loss1/conv
I1115 11:29:42.322181 19108 net.cpp:434] loss1/conv <- loss1/ave_pool
I1115 11:29:42.322192 19108 net.cpp:408] loss1/conv -> loss1/conv
I1115 11:29:42.322612 19108 net.cpp:150] Setting up loss1/conv
I1115 11:29:42.322618 19108 net.cpp:157] Top shape: 24 128 4 4 (49152)
I1115 11:29:42.322619 19108 net.cpp:165] Memory required for data: 945697152
I1115 11:29:42.322624 19108 layer_factory.hpp:77] Creating layer loss1/relu_conv
I1115 11:29:42.322628 19108 net.cpp:100] Creating Layer loss1/relu_conv
I1115 11:29:42.322631 19108 net.cpp:434] loss1/relu_conv <- loss1/conv
I1115 11:29:42.322635 19108 net.cpp:395] loss1/relu_conv -> loss1/conv (in-place)
I1115 11:29:42.322640 19108 net.cpp:150] Setting up loss1/relu_conv
I1115 11:29:42.322643 19108 net.cpp:157] Top shape: 24 128 4 4 (49152)
I1115 11:29:42.322646 19108 net.cpp:165] Memory required for data: 945893760
I1115 11:29:42.322649 19108 layer_factory.hpp:77] Creating layer loss1/fc
I1115 11:29:42.322654 19108 net.cpp:100] Creating Layer loss1/fc
I1115 11:29:42.322656 19108 net.cpp:434] loss1/fc <- loss1/conv
I1115 11:29:42.322664 19108 net.cpp:408] loss1/fc -> loss1/fc
I1115 11:29:42.333079 19108 net.cpp:150] Setting up loss1/fc
I1115 11:29:42.333102 19108 net.cpp:157] Top shape: 24 1024 (24576)
I1115 11:29:42.333106 19108 net.cpp:165] Memory required for data: 945992064
I1115 11:29:42.333112 19108 layer_factory.hpp:77] Creating layer loss1/relu_fc
I1115 11:29:42.333120 19108 net.cpp:100] Creating Layer loss1/relu_fc
I1115 11:29:42.333124 19108 net.cpp:434] loss1/relu_fc <- loss1/fc
I1115 11:29:42.333130 19108 net.cpp:395] loss1/relu_fc -> loss1/fc (in-place)
I1115 11:29:42.333137 19108 net.cpp:150] Setting up loss1/relu_fc
I1115 11:29:42.333142 19108 net.cpp:157] Top shape: 24 1024 (24576)
I1115 11:29:42.333143 19108 net.cpp:165] Memory required for data: 946090368
I1115 11:29:42.333145 19108 layer_factory.hpp:77] Creating layer loss1/drop_fc
I1115 11:29:42.333158 19108 net.cpp:100] Creating Layer loss1/drop_fc
I1115 11:29:42.333160 19108 net.cpp:434] loss1/drop_fc <- loss1/fc
I1115 11:29:42.333164 19108 net.cpp:395] loss1/drop_fc -> loss1/fc (in-place)
I1115 11:29:42.333187 19108 net.cpp:150] Setting up loss1/drop_fc
I1115 11:29:42.333191 19108 net.cpp:157] Top shape: 24 1024 (24576)
I1115 11:29:42.333194 19108 net.cpp:165] Memory required for data: 946188672
I1115 11:29:42.333196 19108 layer_factory.hpp:77] Creating layer loss1/classifier
I1115 11:29:42.333204 19108 net.cpp:100] Creating Layer loss1/classifier
I1115 11:29:42.333206 19108 net.cpp:434] loss1/classifier <- loss1/fc
I1115 11:29:42.333212 19108 net.cpp:408] loss1/classifier -> loss1/classifier
I1115 11:29:42.338474 19108 net.cpp:150] Setting up loss1/classifier
I1115 11:29:42.338488 19108 net.cpp:157] Top shape: 24 1000 (24000)
I1115 11:29:42.338490 19108 net.cpp:165] Memory required for data: 946284672
I1115 11:29:42.338496 19108 layer_factory.hpp:77] Creating layer loss1/loss
I1115 11:29:42.338503 19108 net.cpp:100] Creating Layer loss1/loss
I1115 11:29:42.338507 19108 net.cpp:434] loss1/loss <- loss1/classifier
I1115 11:29:42.338511 19108 net.cpp:434] loss1/loss <- label_data_1_split_0
I1115 11:29:42.338515 19108 net.cpp:408] loss1/loss -> loss1/loss1
I1115 11:29:42.338526 19108 layer_factory.hpp:77] Creating layer loss1/loss
I1115 11:29:42.339001 19108 net.cpp:150] Setting up loss1/loss
I1115 11:29:42.339010 19108 net.cpp:157] Top shape: (1)
I1115 11:29:42.339012 19108 net.cpp:160]     with loss weight 0.3
I1115 11:29:42.339027 19108 net.cpp:165] Memory required for data: 946284676
I1115 11:29:42.339030 19108 layer_factory.hpp:77] Creating layer inception_4b/1x1
I1115 11:29:42.339040 19108 net.cpp:100] Creating Layer inception_4b/1x1
I1115 11:29:42.339043 19108 net.cpp:434] inception_4b/1x1 <- inception_4a/output_inception_4a/output_0_split_1
I1115 11:29:42.339048 19108 net.cpp:408] inception_4b/1x1 -> inception_4b/1x1
I1115 11:29:42.339552 19108 net.cpp:150] Setting up inception_4b/1x1
I1115 11:29:42.339560 19108 net.cpp:157] Top shape: 24 160 14 14 (752640)
I1115 11:29:42.339562 19108 net.cpp:165] Memory required for data: 949295236
I1115 11:29:42.339567 19108 layer_factory.hpp:77] Creating layer inception_4b/relu_1x1
I1115 11:29:42.339588 19108 net.cpp:100] Creating Layer inception_4b/relu_1x1
I1115 11:29:42.339591 19108 net.cpp:434] inception_4b/relu_1x1 <- inception_4b/1x1
I1115 11:29:42.339596 19108 net.cpp:395] inception_4b/relu_1x1 -> inception_4b/1x1 (in-place)
I1115 11:29:42.339601 19108 net.cpp:150] Setting up inception_4b/relu_1x1
I1115 11:29:42.339604 19108 net.cpp:157] Top shape: 24 160 14 14 (752640)
I1115 11:29:42.339607 19108 net.cpp:165] Memory required for data: 952305796
I1115 11:29:42.339608 19108 layer_factory.hpp:77] Creating layer inception_4b/3x3_reduce
I1115 11:29:42.339617 19108 net.cpp:100] Creating Layer inception_4b/3x3_reduce
I1115 11:29:42.339619 19108 net.cpp:434] inception_4b/3x3_reduce <- inception_4a/output_inception_4a/output_0_split_2
I1115 11:29:42.339625 19108 net.cpp:408] inception_4b/3x3_reduce -> inception_4b/3x3_reduce
I1115 11:29:42.340024 19108 net.cpp:150] Setting up inception_4b/3x3_reduce
I1115 11:29:42.340030 19108 net.cpp:157] Top shape: 24 112 14 14 (526848)
I1115 11:29:42.340034 19108 net.cpp:165] Memory required for data: 954413188
I1115 11:29:42.340037 19108 layer_factory.hpp:77] Creating layer inception_4b/relu_3x3_reduce
I1115 11:29:42.340042 19108 net.cpp:100] Creating Layer inception_4b/relu_3x3_reduce
I1115 11:29:42.340045 19108 net.cpp:434] inception_4b/relu_3x3_reduce <- inception_4b/3x3_reduce
I1115 11:29:42.340050 19108 net.cpp:395] inception_4b/relu_3x3_reduce -> inception_4b/3x3_reduce (in-place)
I1115 11:29:42.340054 19108 net.cpp:150] Setting up inception_4b/relu_3x3_reduce
I1115 11:29:42.340059 19108 net.cpp:157] Top shape: 24 112 14 14 (526848)
I1115 11:29:42.340060 19108 net.cpp:165] Memory required for data: 956520580
I1115 11:29:42.340064 19108 layer_factory.hpp:77] Creating layer inception_4b/3x3
I1115 11:29:42.340070 19108 net.cpp:100] Creating Layer inception_4b/3x3
I1115 11:29:42.340072 19108 net.cpp:434] inception_4b/3x3 <- inception_4b/3x3_reduce
I1115 11:29:42.340077 19108 net.cpp:408] inception_4b/3x3 -> inception_4b/3x3
I1115 11:29:42.341512 19108 net.cpp:150] Setting up inception_4b/3x3
I1115 11:29:42.341523 19108 net.cpp:157] Top shape: 24 224 14 14 (1053696)
I1115 11:29:42.341526 19108 net.cpp:165] Memory required for data: 960735364
I1115 11:29:42.341531 19108 layer_factory.hpp:77] Creating layer inception_4b/relu_3x3
I1115 11:29:42.341536 19108 net.cpp:100] Creating Layer inception_4b/relu_3x3
I1115 11:29:42.341539 19108 net.cpp:434] inception_4b/relu_3x3 <- inception_4b/3x3
I1115 11:29:42.341544 19108 net.cpp:395] inception_4b/relu_3x3 -> inception_4b/3x3 (in-place)
I1115 11:29:42.341549 19108 net.cpp:150] Setting up inception_4b/relu_3x3
I1115 11:29:42.341553 19108 net.cpp:157] Top shape: 24 224 14 14 (1053696)
I1115 11:29:42.341555 19108 net.cpp:165] Memory required for data: 964950148
I1115 11:29:42.341557 19108 layer_factory.hpp:77] Creating layer inception_4b/5x5_reduce
I1115 11:29:42.341563 19108 net.cpp:100] Creating Layer inception_4b/5x5_reduce
I1115 11:29:42.341567 19108 net.cpp:434] inception_4b/5x5_reduce <- inception_4a/output_inception_4a/output_0_split_3
I1115 11:29:42.341572 19108 net.cpp:408] inception_4b/5x5_reduce -> inception_4b/5x5_reduce
I1115 11:29:42.341792 19108 net.cpp:150] Setting up inception_4b/5x5_reduce
I1115 11:29:42.341799 19108 net.cpp:157] Top shape: 24 24 14 14 (112896)
I1115 11:29:42.341800 19108 net.cpp:165] Memory required for data: 965401732
I1115 11:29:42.341804 19108 layer_factory.hpp:77] Creating layer inception_4b/relu_5x5_reduce
I1115 11:29:42.341809 19108 net.cpp:100] Creating Layer inception_4b/relu_5x5_reduce
I1115 11:29:42.341812 19108 net.cpp:434] inception_4b/relu_5x5_reduce <- inception_4b/5x5_reduce
I1115 11:29:42.341816 19108 net.cpp:395] inception_4b/relu_5x5_reduce -> inception_4b/5x5_reduce (in-place)
I1115 11:29:42.341821 19108 net.cpp:150] Setting up inception_4b/relu_5x5_reduce
I1115 11:29:42.341825 19108 net.cpp:157] Top shape: 24 24 14 14 (112896)
I1115 11:29:42.341827 19108 net.cpp:165] Memory required for data: 965853316
I1115 11:29:42.341837 19108 layer_factory.hpp:77] Creating layer inception_4b/5x5
I1115 11:29:42.341845 19108 net.cpp:100] Creating Layer inception_4b/5x5
I1115 11:29:42.341848 19108 net.cpp:434] inception_4b/5x5 <- inception_4b/5x5_reduce
I1115 11:29:42.341852 19108 net.cpp:408] inception_4b/5x5 -> inception_4b/5x5
I1115 11:29:42.342169 19108 net.cpp:150] Setting up inception_4b/5x5
I1115 11:29:42.342175 19108 net.cpp:157] Top shape: 24 64 14 14 (301056)
I1115 11:29:42.342176 19108 net.cpp:165] Memory required for data: 967057540
I1115 11:29:42.342181 19108 layer_factory.hpp:77] Creating layer inception_4b/relu_5x5
I1115 11:29:42.342186 19108 net.cpp:100] Creating Layer inception_4b/relu_5x5
I1115 11:29:42.342190 19108 net.cpp:434] inception_4b/relu_5x5 <- inception_4b/5x5
I1115 11:29:42.342193 19108 net.cpp:395] inception_4b/relu_5x5 -> inception_4b/5x5 (in-place)
I1115 11:29:42.342198 19108 net.cpp:150] Setting up inception_4b/relu_5x5
I1115 11:29:42.342201 19108 net.cpp:157] Top shape: 24 64 14 14 (301056)
I1115 11:29:42.342203 19108 net.cpp:165] Memory required for data: 968261764
I1115 11:29:42.342206 19108 layer_factory.hpp:77] Creating layer inception_4b/pool
I1115 11:29:42.342211 19108 net.cpp:100] Creating Layer inception_4b/pool
I1115 11:29:42.342213 19108 net.cpp:434] inception_4b/pool <- inception_4a/output_inception_4a/output_0_split_4
I1115 11:29:42.342218 19108 net.cpp:408] inception_4b/pool -> inception_4b/pool
I1115 11:29:42.342252 19108 net.cpp:150] Setting up inception_4b/pool
I1115 11:29:42.342259 19108 net.cpp:157] Top shape: 24 512 14 14 (2408448)
I1115 11:29:42.342262 19108 net.cpp:165] Memory required for data: 977895556
I1115 11:29:42.342264 19108 layer_factory.hpp:77] Creating layer inception_4b/pool_proj
I1115 11:29:42.342270 19108 net.cpp:100] Creating Layer inception_4b/pool_proj
I1115 11:29:42.342273 19108 net.cpp:434] inception_4b/pool_proj <- inception_4b/pool
I1115 11:29:42.342279 19108 net.cpp:408] inception_4b/pool_proj -> inception_4b/pool_proj
I1115 11:29:42.342568 19108 net.cpp:150] Setting up inception_4b/pool_proj
I1115 11:29:42.342574 19108 net.cpp:157] Top shape: 24 64 14 14 (301056)
I1115 11:29:42.342576 19108 net.cpp:165] Memory required for data: 979099780
I1115 11:29:42.342581 19108 layer_factory.hpp:77] Creating layer inception_4b/relu_pool_proj
I1115 11:29:42.342586 19108 net.cpp:100] Creating Layer inception_4b/relu_pool_proj
I1115 11:29:42.342587 19108 net.cpp:434] inception_4b/relu_pool_proj <- inception_4b/pool_proj
I1115 11:29:42.342592 19108 net.cpp:395] inception_4b/relu_pool_proj -> inception_4b/pool_proj (in-place)
I1115 11:29:42.342597 19108 net.cpp:150] Setting up inception_4b/relu_pool_proj
I1115 11:29:42.342599 19108 net.cpp:157] Top shape: 24 64 14 14 (301056)
I1115 11:29:42.342602 19108 net.cpp:165] Memory required for data: 980304004
I1115 11:29:42.342603 19108 layer_factory.hpp:77] Creating layer inception_4b/output
I1115 11:29:42.342609 19108 net.cpp:100] Creating Layer inception_4b/output
I1115 11:29:42.342612 19108 net.cpp:434] inception_4b/output <- inception_4b/1x1
I1115 11:29:42.342615 19108 net.cpp:434] inception_4b/output <- inception_4b/3x3
I1115 11:29:42.342618 19108 net.cpp:434] inception_4b/output <- inception_4b/5x5
I1115 11:29:42.342622 19108 net.cpp:434] inception_4b/output <- inception_4b/pool_proj
I1115 11:29:42.342625 19108 net.cpp:408] inception_4b/output -> inception_4b/output
I1115 11:29:42.342643 19108 net.cpp:150] Setting up inception_4b/output
I1115 11:29:42.342648 19108 net.cpp:157] Top shape: 24 512 14 14 (2408448)
I1115 11:29:42.342650 19108 net.cpp:165] Memory required for data: 989937796
I1115 11:29:42.342653 19108 layer_factory.hpp:77] Creating layer inception_4b/output_inception_4b/output_0_split
I1115 11:29:42.342658 19108 net.cpp:100] Creating Layer inception_4b/output_inception_4b/output_0_split
I1115 11:29:42.342659 19108 net.cpp:434] inception_4b/output_inception_4b/output_0_split <- inception_4b/output
I1115 11:29:42.342664 19108 net.cpp:408] inception_4b/output_inception_4b/output_0_split -> inception_4b/output_inception_4b/output_0_split_0
I1115 11:29:42.342676 19108 net.cpp:408] inception_4b/output_inception_4b/output_0_split -> inception_4b/output_inception_4b/output_0_split_1
I1115 11:29:42.342681 19108 net.cpp:408] inception_4b/output_inception_4b/output_0_split -> inception_4b/output_inception_4b/output_0_split_2
I1115 11:29:42.342686 19108 net.cpp:408] inception_4b/output_inception_4b/output_0_split -> inception_4b/output_inception_4b/output_0_split_3
I1115 11:29:42.342727 19108 net.cpp:150] Setting up inception_4b/output_inception_4b/output_0_split
I1115 11:29:42.342733 19108 net.cpp:157] Top shape: 24 512 14 14 (2408448)
I1115 11:29:42.342736 19108 net.cpp:157] Top shape: 24 512 14 14 (2408448)
I1115 11:29:42.342741 19108 net.cpp:157] Top shape: 24 512 14 14 (2408448)
I1115 11:29:42.342742 19108 net.cpp:157] Top shape: 24 512 14 14 (2408448)
I1115 11:29:42.342746 19108 net.cpp:165] Memory required for data: 1028472964
I1115 11:29:42.342747 19108 layer_factory.hpp:77] Creating layer inception_4c/1x1
I1115 11:29:42.342754 19108 net.cpp:100] Creating Layer inception_4c/1x1
I1115 11:29:42.342757 19108 net.cpp:434] inception_4c/1x1 <- inception_4b/output_inception_4b/output_0_split_0
I1115 11:29:42.342762 19108 net.cpp:408] inception_4c/1x1 -> inception_4c/1x1
I1115 11:29:42.343178 19108 net.cpp:150] Setting up inception_4c/1x1
I1115 11:29:42.343184 19108 net.cpp:157] Top shape: 24 128 14 14 (602112)
I1115 11:29:42.343188 19108 net.cpp:165] Memory required for data: 1030881412
I1115 11:29:42.343191 19108 layer_factory.hpp:77] Creating layer inception_4c/relu_1x1
I1115 11:29:42.343196 19108 net.cpp:100] Creating Layer inception_4c/relu_1x1
I1115 11:29:42.343199 19108 net.cpp:434] inception_4c/relu_1x1 <- inception_4c/1x1
I1115 11:29:42.343204 19108 net.cpp:395] inception_4c/relu_1x1 -> inception_4c/1x1 (in-place)
I1115 11:29:42.343209 19108 net.cpp:150] Setting up inception_4c/relu_1x1
I1115 11:29:42.343211 19108 net.cpp:157] Top shape: 24 128 14 14 (602112)
I1115 11:29:42.343214 19108 net.cpp:165] Memory required for data: 1033289860
I1115 11:29:42.343216 19108 layer_factory.hpp:77] Creating layer inception_4c/3x3_reduce
I1115 11:29:42.343221 19108 net.cpp:100] Creating Layer inception_4c/3x3_reduce
I1115 11:29:42.343225 19108 net.cpp:434] inception_4c/3x3_reduce <- inception_4b/output_inception_4b/output_0_split_1
I1115 11:29:42.343241 19108 net.cpp:408] inception_4c/3x3_reduce -> inception_4c/3x3_reduce
I1115 11:29:42.344053 19108 net.cpp:150] Setting up inception_4c/3x3_reduce
I1115 11:29:42.344063 19108 net.cpp:157] Top shape: 24 128 14 14 (602112)
I1115 11:29:42.344065 19108 net.cpp:165] Memory required for data: 1035698308
I1115 11:29:42.344070 19108 layer_factory.hpp:77] Creating layer inception_4c/relu_3x3_reduce
I1115 11:29:42.344075 19108 net.cpp:100] Creating Layer inception_4c/relu_3x3_reduce
I1115 11:29:42.344079 19108 net.cpp:434] inception_4c/relu_3x3_reduce <- inception_4c/3x3_reduce
I1115 11:29:42.344084 19108 net.cpp:395] inception_4c/relu_3x3_reduce -> inception_4c/3x3_reduce (in-place)
I1115 11:29:42.344089 19108 net.cpp:150] Setting up inception_4c/relu_3x3_reduce
I1115 11:29:42.344091 19108 net.cpp:157] Top shape: 24 128 14 14 (602112)
I1115 11:29:42.344094 19108 net.cpp:165] Memory required for data: 1038106756
I1115 11:29:42.344096 19108 layer_factory.hpp:77] Creating layer inception_4c/3x3
I1115 11:29:42.344104 19108 net.cpp:100] Creating Layer inception_4c/3x3
I1115 11:29:42.344106 19108 net.cpp:434] inception_4c/3x3 <- inception_4c/3x3_reduce
I1115 11:29:42.344112 19108 net.cpp:408] inception_4c/3x3 -> inception_4c/3x3
I1115 11:29:42.345841 19108 net.cpp:150] Setting up inception_4c/3x3
I1115 11:29:42.345851 19108 net.cpp:157] Top shape: 24 256 14 14 (1204224)
I1115 11:29:42.345854 19108 net.cpp:165] Memory required for data: 1042923652
I1115 11:29:42.345870 19108 layer_factory.hpp:77] Creating layer inception_4c/relu_3x3
I1115 11:29:42.345875 19108 net.cpp:100] Creating Layer inception_4c/relu_3x3
I1115 11:29:42.345878 19108 net.cpp:434] inception_4c/relu_3x3 <- inception_4c/3x3
I1115 11:29:42.345882 19108 net.cpp:395] inception_4c/relu_3x3 -> inception_4c/3x3 (in-place)
I1115 11:29:42.345897 19108 net.cpp:150] Setting up inception_4c/relu_3x3
I1115 11:29:42.345901 19108 net.cpp:157] Top shape: 24 256 14 14 (1204224)
I1115 11:29:42.345903 19108 net.cpp:165] Memory required for data: 1047740548
I1115 11:29:42.345906 19108 layer_factory.hpp:77] Creating layer inception_4c/5x5_reduce
I1115 11:29:42.345914 19108 net.cpp:100] Creating Layer inception_4c/5x5_reduce
I1115 11:29:42.345917 19108 net.cpp:434] inception_4c/5x5_reduce <- inception_4b/output_inception_4b/output_0_split_2
I1115 11:29:42.345922 19108 net.cpp:408] inception_4c/5x5_reduce -> inception_4c/5x5_reduce
I1115 11:29:42.346140 19108 net.cpp:150] Setting up inception_4c/5x5_reduce
I1115 11:29:42.346148 19108 net.cpp:157] Top shape: 24 24 14 14 (112896)
I1115 11:29:42.346151 19108 net.cpp:165] Memory required for data: 1048192132
I1115 11:29:42.346155 19108 layer_factory.hpp:77] Creating layer inception_4c/relu_5x5_reduce
I1115 11:29:42.346159 19108 net.cpp:100] Creating Layer inception_4c/relu_5x5_reduce
I1115 11:29:42.346163 19108 net.cpp:434] inception_4c/relu_5x5_reduce <- inception_4c/5x5_reduce
I1115 11:29:42.346166 19108 net.cpp:395] inception_4c/relu_5x5_reduce -> inception_4c/5x5_reduce (in-place)
I1115 11:29:42.346171 19108 net.cpp:150] Setting up inception_4c/relu_5x5_reduce
I1115 11:29:42.346174 19108 net.cpp:157] Top shape: 24 24 14 14 (112896)
I1115 11:29:42.346176 19108 net.cpp:165] Memory required for data: 1048643716
I1115 11:29:42.346179 19108 layer_factory.hpp:77] Creating layer inception_4c/5x5
I1115 11:29:42.346186 19108 net.cpp:100] Creating Layer inception_4c/5x5
I1115 11:29:42.346189 19108 net.cpp:434] inception_4c/5x5 <- inception_4c/5x5_reduce
I1115 11:29:42.346194 19108 net.cpp:408] inception_4c/5x5 -> inception_4c/5x5
I1115 11:29:42.346514 19108 net.cpp:150] Setting up inception_4c/5x5
I1115 11:29:42.346520 19108 net.cpp:157] Top shape: 24 64 14 14 (301056)
I1115 11:29:42.346524 19108 net.cpp:165] Memory required for data: 1049847940
I1115 11:29:42.346527 19108 layer_factory.hpp:77] Creating layer inception_4c/relu_5x5
I1115 11:29:42.346532 19108 net.cpp:100] Creating Layer inception_4c/relu_5x5
I1115 11:29:42.346535 19108 net.cpp:434] inception_4c/relu_5x5 <- inception_4c/5x5
I1115 11:29:42.346539 19108 net.cpp:395] inception_4c/relu_5x5 -> inception_4c/5x5 (in-place)
I1115 11:29:42.346544 19108 net.cpp:150] Setting up inception_4c/relu_5x5
I1115 11:29:42.346547 19108 net.cpp:157] Top shape: 24 64 14 14 (301056)
I1115 11:29:42.346549 19108 net.cpp:165] Memory required for data: 1051052164
I1115 11:29:42.346551 19108 layer_factory.hpp:77] Creating layer inception_4c/pool
I1115 11:29:42.346557 19108 net.cpp:100] Creating Layer inception_4c/pool
I1115 11:29:42.346560 19108 net.cpp:434] inception_4c/pool <- inception_4b/output_inception_4b/output_0_split_3
I1115 11:29:42.346563 19108 net.cpp:408] inception_4c/pool -> inception_4c/pool
I1115 11:29:42.346593 19108 net.cpp:150] Setting up inception_4c/pool
I1115 11:29:42.346597 19108 net.cpp:157] Top shape: 24 512 14 14 (2408448)
I1115 11:29:42.346601 19108 net.cpp:165] Memory required for data: 1060685956
I1115 11:29:42.346602 19108 layer_factory.hpp:77] Creating layer inception_4c/pool_proj
I1115 11:29:42.346609 19108 net.cpp:100] Creating Layer inception_4c/pool_proj
I1115 11:29:42.346612 19108 net.cpp:434] inception_4c/pool_proj <- inception_4c/pool
I1115 11:29:42.346617 19108 net.cpp:408] inception_4c/pool_proj -> inception_4c/pool_proj
I1115 11:29:42.346907 19108 net.cpp:150] Setting up inception_4c/pool_proj
I1115 11:29:42.346913 19108 net.cpp:157] Top shape: 24 64 14 14 (301056)
I1115 11:29:42.346915 19108 net.cpp:165] Memory required for data: 1061890180
I1115 11:29:42.346920 19108 layer_factory.hpp:77] Creating layer inception_4c/relu_pool_proj
I1115 11:29:42.346925 19108 net.cpp:100] Creating Layer inception_4c/relu_pool_proj
I1115 11:29:42.346928 19108 net.cpp:434] inception_4c/relu_pool_proj <- inception_4c/pool_proj
I1115 11:29:42.346932 19108 net.cpp:395] inception_4c/relu_pool_proj -> inception_4c/pool_proj (in-place)
I1115 11:29:42.346943 19108 net.cpp:150] Setting up inception_4c/relu_pool_proj
I1115 11:29:42.346947 19108 net.cpp:157] Top shape: 24 64 14 14 (301056)
I1115 11:29:42.346949 19108 net.cpp:165] Memory required for data: 1063094404
I1115 11:29:42.346951 19108 layer_factory.hpp:77] Creating layer inception_4c/output
I1115 11:29:42.346956 19108 net.cpp:100] Creating Layer inception_4c/output
I1115 11:29:42.346959 19108 net.cpp:434] inception_4c/output <- inception_4c/1x1
I1115 11:29:42.346962 19108 net.cpp:434] inception_4c/output <- inception_4c/3x3
I1115 11:29:42.346966 19108 net.cpp:434] inception_4c/output <- inception_4c/5x5
I1115 11:29:42.346969 19108 net.cpp:434] inception_4c/output <- inception_4c/pool_proj
I1115 11:29:42.346973 19108 net.cpp:408] inception_4c/output -> inception_4c/output
I1115 11:29:42.346992 19108 net.cpp:150] Setting up inception_4c/output
I1115 11:29:42.346997 19108 net.cpp:157] Top shape: 24 512 14 14 (2408448)
I1115 11:29:42.346998 19108 net.cpp:165] Memory required for data: 1072728196
I1115 11:29:42.347002 19108 layer_factory.hpp:77] Creating layer inception_4c/output_inception_4c/output_0_split
I1115 11:29:42.347007 19108 net.cpp:100] Creating Layer inception_4c/output_inception_4c/output_0_split
I1115 11:29:42.347010 19108 net.cpp:434] inception_4c/output_inception_4c/output_0_split <- inception_4c/output
I1115 11:29:42.347014 19108 net.cpp:408] inception_4c/output_inception_4c/output_0_split -> inception_4c/output_inception_4c/output_0_split_0
I1115 11:29:42.347019 19108 net.cpp:408] inception_4c/output_inception_4c/output_0_split -> inception_4c/output_inception_4c/output_0_split_1
I1115 11:29:42.347024 19108 net.cpp:408] inception_4c/output_inception_4c/output_0_split -> inception_4c/output_inception_4c/output_0_split_2
I1115 11:29:42.347028 19108 net.cpp:408] inception_4c/output_inception_4c/output_0_split -> inception_4c/output_inception_4c/output_0_split_3
I1115 11:29:42.347069 19108 net.cpp:150] Setting up inception_4c/output_inception_4c/output_0_split
I1115 11:29:42.347074 19108 net.cpp:157] Top shape: 24 512 14 14 (2408448)
I1115 11:29:42.347076 19108 net.cpp:157] Top shape: 24 512 14 14 (2408448)
I1115 11:29:42.347079 19108 net.cpp:157] Top shape: 24 512 14 14 (2408448)
I1115 11:29:42.347082 19108 net.cpp:157] Top shape: 24 512 14 14 (2408448)
I1115 11:29:42.347084 19108 net.cpp:165] Memory required for data: 1111263364
I1115 11:29:42.347086 19108 layer_factory.hpp:77] Creating layer inception_4d/1x1
I1115 11:29:42.347093 19108 net.cpp:100] Creating Layer inception_4d/1x1
I1115 11:29:42.347096 19108 net.cpp:434] inception_4d/1x1 <- inception_4c/output_inception_4c/output_0_split_0
I1115 11:29:42.347101 19108 net.cpp:408] inception_4d/1x1 -> inception_4d/1x1
I1115 11:29:42.347496 19108 net.cpp:150] Setting up inception_4d/1x1
I1115 11:29:42.347502 19108 net.cpp:157] Top shape: 24 112 14 14 (526848)
I1115 11:29:42.347506 19108 net.cpp:165] Memory required for data: 1113370756
I1115 11:29:42.347509 19108 layer_factory.hpp:77] Creating layer inception_4d/relu_1x1
I1115 11:29:42.347514 19108 net.cpp:100] Creating Layer inception_4d/relu_1x1
I1115 11:29:42.347517 19108 net.cpp:434] inception_4d/relu_1x1 <- inception_4d/1x1
I1115 11:29:42.347520 19108 net.cpp:395] inception_4d/relu_1x1 -> inception_4d/1x1 (in-place)
I1115 11:29:42.347525 19108 net.cpp:150] Setting up inception_4d/relu_1x1
I1115 11:29:42.347528 19108 net.cpp:157] Top shape: 24 112 14 14 (526848)
I1115 11:29:42.347530 19108 net.cpp:165] Memory required for data: 1115478148
I1115 11:29:42.347532 19108 layer_factory.hpp:77] Creating layer inception_4d/3x3_reduce
I1115 11:29:42.347539 19108 net.cpp:100] Creating Layer inception_4d/3x3_reduce
I1115 11:29:42.347543 19108 net.cpp:434] inception_4d/3x3_reduce <- inception_4c/output_inception_4c/output_0_split_1
I1115 11:29:42.347548 19108 net.cpp:408] inception_4d/3x3_reduce -> inception_4d/3x3_reduce
I1115 11:29:42.348013 19108 net.cpp:150] Setting up inception_4d/3x3_reduce
I1115 11:29:42.348019 19108 net.cpp:157] Top shape: 24 144 14 14 (677376)
I1115 11:29:42.348028 19108 net.cpp:165] Memory required for data: 1118187652
I1115 11:29:42.348032 19108 layer_factory.hpp:77] Creating layer inception_4d/relu_3x3_reduce
I1115 11:29:42.348037 19108 net.cpp:100] Creating Layer inception_4d/relu_3x3_reduce
I1115 11:29:42.348040 19108 net.cpp:434] inception_4d/relu_3x3_reduce <- inception_4d/3x3_reduce
I1115 11:29:42.348045 19108 net.cpp:395] inception_4d/relu_3x3_reduce -> inception_4d/3x3_reduce (in-place)
I1115 11:29:42.348050 19108 net.cpp:150] Setting up inception_4d/relu_3x3_reduce
I1115 11:29:42.348053 19108 net.cpp:157] Top shape: 24 144 14 14 (677376)
I1115 11:29:42.348055 19108 net.cpp:165] Memory required for data: 1120897156
I1115 11:29:42.348058 19108 layer_factory.hpp:77] Creating layer inception_4d/3x3
I1115 11:29:42.348064 19108 net.cpp:100] Creating Layer inception_4d/3x3
I1115 11:29:42.348067 19108 net.cpp:434] inception_4d/3x3 <- inception_4d/3x3_reduce
I1115 11:29:42.348072 19108 net.cpp:408] inception_4d/3x3 -> inception_4d/3x3
I1115 11:29:42.350205 19108 net.cpp:150] Setting up inception_4d/3x3
I1115 11:29:42.350216 19108 net.cpp:157] Top shape: 24 288 14 14 (1354752)
I1115 11:29:42.350219 19108 net.cpp:165] Memory required for data: 1126316164
I1115 11:29:42.350224 19108 layer_factory.hpp:77] Creating layer inception_4d/relu_3x3
I1115 11:29:42.350229 19108 net.cpp:100] Creating Layer inception_4d/relu_3x3
I1115 11:29:42.350232 19108 net.cpp:434] inception_4d/relu_3x3 <- inception_4d/3x3
I1115 11:29:42.350237 19108 net.cpp:395] inception_4d/relu_3x3 -> inception_4d/3x3 (in-place)
I1115 11:29:42.350242 19108 net.cpp:150] Setting up inception_4d/relu_3x3
I1115 11:29:42.350247 19108 net.cpp:157] Top shape: 24 288 14 14 (1354752)
I1115 11:29:42.350250 19108 net.cpp:165] Memory required for data: 1131735172
I1115 11:29:42.350251 19108 layer_factory.hpp:77] Creating layer inception_4d/5x5_reduce
I1115 11:29:42.350258 19108 net.cpp:100] Creating Layer inception_4d/5x5_reduce
I1115 11:29:42.350261 19108 net.cpp:434] inception_4d/5x5_reduce <- inception_4c/output_inception_4c/output_0_split_2
I1115 11:29:42.350266 19108 net.cpp:408] inception_4d/5x5_reduce -> inception_4d/5x5_reduce
I1115 11:29:42.350507 19108 net.cpp:150] Setting up inception_4d/5x5_reduce
I1115 11:29:42.350513 19108 net.cpp:157] Top shape: 24 32 14 14 (150528)
I1115 11:29:42.350517 19108 net.cpp:165] Memory required for data: 1132337284
I1115 11:29:42.350520 19108 layer_factory.hpp:77] Creating layer inception_4d/relu_5x5_reduce
I1115 11:29:42.350524 19108 net.cpp:100] Creating Layer inception_4d/relu_5x5_reduce
I1115 11:29:42.350528 19108 net.cpp:434] inception_4d/relu_5x5_reduce <- inception_4d/5x5_reduce
I1115 11:29:42.350531 19108 net.cpp:395] inception_4d/relu_5x5_reduce -> inception_4d/5x5_reduce (in-place)
I1115 11:29:42.350538 19108 net.cpp:150] Setting up inception_4d/relu_5x5_reduce
I1115 11:29:42.350540 19108 net.cpp:157] Top shape: 24 32 14 14 (150528)
I1115 11:29:42.350543 19108 net.cpp:165] Memory required for data: 1132939396
I1115 11:29:42.350544 19108 layer_factory.hpp:77] Creating layer inception_4d/5x5
I1115 11:29:42.350553 19108 net.cpp:100] Creating Layer inception_4d/5x5
I1115 11:29:42.350554 19108 net.cpp:434] inception_4d/5x5 <- inception_4d/5x5_reduce
I1115 11:29:42.350559 19108 net.cpp:408] inception_4d/5x5 -> inception_4d/5x5
I1115 11:29:42.350934 19108 net.cpp:150] Setting up inception_4d/5x5
I1115 11:29:42.350940 19108 net.cpp:157] Top shape: 24 64 14 14 (301056)
I1115 11:29:42.350944 19108 net.cpp:165] Memory required for data: 1134143620
I1115 11:29:42.350947 19108 layer_factory.hpp:77] Creating layer inception_4d/relu_5x5
I1115 11:29:42.350951 19108 net.cpp:100] Creating Layer inception_4d/relu_5x5
I1115 11:29:42.350955 19108 net.cpp:434] inception_4d/relu_5x5 <- inception_4d/5x5
I1115 11:29:42.350960 19108 net.cpp:395] inception_4d/relu_5x5 -> inception_4d/5x5 (in-place)
I1115 11:29:42.350963 19108 net.cpp:150] Setting up inception_4d/relu_5x5
I1115 11:29:42.350967 19108 net.cpp:157] Top shape: 24 64 14 14 (301056)
I1115 11:29:42.350970 19108 net.cpp:165] Memory required for data: 1135347844
I1115 11:29:42.350980 19108 layer_factory.hpp:77] Creating layer inception_4d/pool
I1115 11:29:42.350986 19108 net.cpp:100] Creating Layer inception_4d/pool
I1115 11:29:42.350988 19108 net.cpp:434] inception_4d/pool <- inception_4c/output_inception_4c/output_0_split_3
I1115 11:29:42.350992 19108 net.cpp:408] inception_4d/pool -> inception_4d/pool
I1115 11:29:42.351025 19108 net.cpp:150] Setting up inception_4d/pool
I1115 11:29:42.351030 19108 net.cpp:157] Top shape: 24 512 14 14 (2408448)
I1115 11:29:42.351032 19108 net.cpp:165] Memory required for data: 1144981636
I1115 11:29:42.351035 19108 layer_factory.hpp:77] Creating layer inception_4d/pool_proj
I1115 11:29:42.351042 19108 net.cpp:100] Creating Layer inception_4d/pool_proj
I1115 11:29:42.351045 19108 net.cpp:434] inception_4d/pool_proj <- inception_4d/pool
I1115 11:29:42.351052 19108 net.cpp:408] inception_4d/pool_proj -> inception_4d/pool_proj
I1115 11:29:42.351353 19108 net.cpp:150] Setting up inception_4d/pool_proj
I1115 11:29:42.351359 19108 net.cpp:157] Top shape: 24 64 14 14 (301056)
I1115 11:29:42.351361 19108 net.cpp:165] Memory required for data: 1146185860
I1115 11:29:42.351366 19108 layer_factory.hpp:77] Creating layer inception_4d/relu_pool_proj
I1115 11:29:42.351369 19108 net.cpp:100] Creating Layer inception_4d/relu_pool_proj
I1115 11:29:42.351372 19108 net.cpp:434] inception_4d/relu_pool_proj <- inception_4d/pool_proj
I1115 11:29:42.351377 19108 net.cpp:395] inception_4d/relu_pool_proj -> inception_4d/pool_proj (in-place)
I1115 11:29:42.351382 19108 net.cpp:150] Setting up inception_4d/relu_pool_proj
I1115 11:29:42.351387 19108 net.cpp:157] Top shape: 24 64 14 14 (301056)
I1115 11:29:42.351388 19108 net.cpp:165] Memory required for data: 1147390084
I1115 11:29:42.351390 19108 layer_factory.hpp:77] Creating layer inception_4d/output
I1115 11:29:42.351394 19108 net.cpp:100] Creating Layer inception_4d/output
I1115 11:29:42.351397 19108 net.cpp:434] inception_4d/output <- inception_4d/1x1
I1115 11:29:42.351400 19108 net.cpp:434] inception_4d/output <- inception_4d/3x3
I1115 11:29:42.351404 19108 net.cpp:434] inception_4d/output <- inception_4d/5x5
I1115 11:29:42.351407 19108 net.cpp:434] inception_4d/output <- inception_4d/pool_proj
I1115 11:29:42.351410 19108 net.cpp:408] inception_4d/output -> inception_4d/output
I1115 11:29:42.351429 19108 net.cpp:150] Setting up inception_4d/output
I1115 11:29:42.351433 19108 net.cpp:157] Top shape: 24 528 14 14 (2483712)
I1115 11:29:42.351435 19108 net.cpp:165] Memory required for data: 1157324932
I1115 11:29:42.351438 19108 layer_factory.hpp:77] Creating layer inception_4d/output_inception_4d/output_0_split
I1115 11:29:42.351442 19108 net.cpp:100] Creating Layer inception_4d/output_inception_4d/output_0_split
I1115 11:29:42.351445 19108 net.cpp:434] inception_4d/output_inception_4d/output_0_split <- inception_4d/output
I1115 11:29:42.351450 19108 net.cpp:408] inception_4d/output_inception_4d/output_0_split -> inception_4d/output_inception_4d/output_0_split_0
I1115 11:29:42.351455 19108 net.cpp:408] inception_4d/output_inception_4d/output_0_split -> inception_4d/output_inception_4d/output_0_split_1
I1115 11:29:42.351459 19108 net.cpp:408] inception_4d/output_inception_4d/output_0_split -> inception_4d/output_inception_4d/output_0_split_2
I1115 11:29:42.351464 19108 net.cpp:408] inception_4d/output_inception_4d/output_0_split -> inception_4d/output_inception_4d/output_0_split_3
I1115 11:29:42.351467 19108 net.cpp:408] inception_4d/output_inception_4d/output_0_split -> inception_4d/output_inception_4d/output_0_split_4
I1115 11:29:42.351517 19108 net.cpp:150] Setting up inception_4d/output_inception_4d/output_0_split
I1115 11:29:42.351522 19108 net.cpp:157] Top shape: 24 528 14 14 (2483712)
I1115 11:29:42.351526 19108 net.cpp:157] Top shape: 24 528 14 14 (2483712)
I1115 11:29:42.351529 19108 net.cpp:157] Top shape: 24 528 14 14 (2483712)
I1115 11:29:42.351532 19108 net.cpp:157] Top shape: 24 528 14 14 (2483712)
I1115 11:29:42.351534 19108 net.cpp:157] Top shape: 24 528 14 14 (2483712)
I1115 11:29:42.351543 19108 net.cpp:165] Memory required for data: 1206999172
I1115 11:29:42.351547 19108 layer_factory.hpp:77] Creating layer loss2/ave_pool
I1115 11:29:42.351552 19108 net.cpp:100] Creating Layer loss2/ave_pool
I1115 11:29:42.351553 19108 net.cpp:434] loss2/ave_pool <- inception_4d/output_inception_4d/output_0_split_0
I1115 11:29:42.351559 19108 net.cpp:408] loss2/ave_pool -> loss2/ave_pool
I1115 11:29:42.351577 19108 net.cpp:150] Setting up loss2/ave_pool
I1115 11:29:42.351582 19108 net.cpp:157] Top shape: 24 528 4 4 (202752)
I1115 11:29:42.351583 19108 net.cpp:165] Memory required for data: 1207810180
I1115 11:29:42.351585 19108 layer_factory.hpp:77] Creating layer loss2/conv
I1115 11:29:42.351594 19108 net.cpp:100] Creating Layer loss2/conv
I1115 11:29:42.351598 19108 net.cpp:434] loss2/conv <- loss2/ave_pool
I1115 11:29:42.351601 19108 net.cpp:408] loss2/conv -> loss2/conv
I1115 11:29:42.352437 19108 net.cpp:150] Setting up loss2/conv
I1115 11:29:42.352447 19108 net.cpp:157] Top shape: 24 128 4 4 (49152)
I1115 11:29:42.352448 19108 net.cpp:165] Memory required for data: 1208006788
I1115 11:29:42.352453 19108 layer_factory.hpp:77] Creating layer loss2/relu_conv
I1115 11:29:42.352458 19108 net.cpp:100] Creating Layer loss2/relu_conv
I1115 11:29:42.352461 19108 net.cpp:434] loss2/relu_conv <- loss2/conv
I1115 11:29:42.352466 19108 net.cpp:395] loss2/relu_conv -> loss2/conv (in-place)
I1115 11:29:42.352471 19108 net.cpp:150] Setting up loss2/relu_conv
I1115 11:29:42.352474 19108 net.cpp:157] Top shape: 24 128 4 4 (49152)
I1115 11:29:42.352476 19108 net.cpp:165] Memory required for data: 1208203396
I1115 11:29:42.352479 19108 layer_factory.hpp:77] Creating layer loss2/fc
I1115 11:29:42.352486 19108 net.cpp:100] Creating Layer loss2/fc
I1115 11:29:42.352489 19108 net.cpp:434] loss2/fc <- loss2/conv
I1115 11:29:42.352494 19108 net.cpp:408] loss2/fc -> loss2/fc
I1115 11:29:42.362912 19108 net.cpp:150] Setting up loss2/fc
I1115 11:29:42.362933 19108 net.cpp:157] Top shape: 24 1024 (24576)
I1115 11:29:42.362936 19108 net.cpp:165] Memory required for data: 1208301700
I1115 11:29:42.362942 19108 layer_factory.hpp:77] Creating layer loss2/relu_fc
I1115 11:29:42.362951 19108 net.cpp:100] Creating Layer loss2/relu_fc
I1115 11:29:42.362957 19108 net.cpp:434] loss2/relu_fc <- loss2/fc
I1115 11:29:42.362962 19108 net.cpp:395] loss2/relu_fc -> loss2/fc (in-place)
I1115 11:29:42.362970 19108 net.cpp:150] Setting up loss2/relu_fc
I1115 11:29:42.362974 19108 net.cpp:157] Top shape: 24 1024 (24576)
I1115 11:29:42.362977 19108 net.cpp:165] Memory required for data: 1208400004
I1115 11:29:42.362978 19108 layer_factory.hpp:77] Creating layer loss2/drop_fc
I1115 11:29:42.362984 19108 net.cpp:100] Creating Layer loss2/drop_fc
I1115 11:29:42.362987 19108 net.cpp:434] loss2/drop_fc <- loss2/fc
I1115 11:29:42.362992 19108 net.cpp:395] loss2/drop_fc -> loss2/fc (in-place)
I1115 11:29:42.363013 19108 net.cpp:150] Setting up loss2/drop_fc
I1115 11:29:42.363018 19108 net.cpp:157] Top shape: 24 1024 (24576)
I1115 11:29:42.363020 19108 net.cpp:165] Memory required for data: 1208498308
I1115 11:29:42.363031 19108 layer_factory.hpp:77] Creating layer loss2/classifier
I1115 11:29:42.363039 19108 net.cpp:100] Creating Layer loss2/classifier
I1115 11:29:42.363042 19108 net.cpp:434] loss2/classifier <- loss2/fc
I1115 11:29:42.363046 19108 net.cpp:408] loss2/classifier -> loss2/classifier
I1115 11:29:42.368299 19108 net.cpp:150] Setting up loss2/classifier
I1115 11:29:42.368319 19108 net.cpp:157] Top shape: 24 1000 (24000)
I1115 11:29:42.368320 19108 net.cpp:165] Memory required for data: 1208594308
I1115 11:29:42.368327 19108 layer_factory.hpp:77] Creating layer loss2/loss
I1115 11:29:42.368335 19108 net.cpp:100] Creating Layer loss2/loss
I1115 11:29:42.368338 19108 net.cpp:434] loss2/loss <- loss2/classifier
I1115 11:29:42.368343 19108 net.cpp:434] loss2/loss <- label_data_1_split_1
I1115 11:29:42.368347 19108 net.cpp:408] loss2/loss -> loss2/loss1
I1115 11:29:42.368356 19108 layer_factory.hpp:77] Creating layer loss2/loss
I1115 11:29:42.368888 19108 net.cpp:150] Setting up loss2/loss
I1115 11:29:42.368897 19108 net.cpp:157] Top shape: (1)
I1115 11:29:42.368901 19108 net.cpp:160]     with loss weight 0.3
I1115 11:29:42.368909 19108 net.cpp:165] Memory required for data: 1208594312
I1115 11:29:42.368912 19108 layer_factory.hpp:77] Creating layer inception_4e/1x1
I1115 11:29:42.368922 19108 net.cpp:100] Creating Layer inception_4e/1x1
I1115 11:29:42.368927 19108 net.cpp:434] inception_4e/1x1 <- inception_4d/output_inception_4d/output_0_split_1
I1115 11:29:42.368932 19108 net.cpp:408] inception_4e/1x1 -> inception_4e/1x1
I1115 11:29:42.369663 19108 net.cpp:150] Setting up inception_4e/1x1
I1115 11:29:42.369669 19108 net.cpp:157] Top shape: 24 256 14 14 (1204224)
I1115 11:29:42.369673 19108 net.cpp:165] Memory required for data: 1213411208
I1115 11:29:42.369676 19108 layer_factory.hpp:77] Creating layer inception_4e/relu_1x1
I1115 11:29:42.369681 19108 net.cpp:100] Creating Layer inception_4e/relu_1x1
I1115 11:29:42.369684 19108 net.cpp:434] inception_4e/relu_1x1 <- inception_4e/1x1
I1115 11:29:42.369688 19108 net.cpp:395] inception_4e/relu_1x1 -> inception_4e/1x1 (in-place)
I1115 11:29:42.369695 19108 net.cpp:150] Setting up inception_4e/relu_1x1
I1115 11:29:42.369699 19108 net.cpp:157] Top shape: 24 256 14 14 (1204224)
I1115 11:29:42.369700 19108 net.cpp:165] Memory required for data: 1218228104
I1115 11:29:42.369704 19108 layer_factory.hpp:77] Creating layer inception_4e/3x3_reduce
I1115 11:29:42.369709 19108 net.cpp:100] Creating Layer inception_4e/3x3_reduce
I1115 11:29:42.369712 19108 net.cpp:434] inception_4e/3x3_reduce <- inception_4d/output_inception_4d/output_0_split_2
I1115 11:29:42.369717 19108 net.cpp:408] inception_4e/3x3_reduce -> inception_4e/3x3_reduce
I1115 11:29:42.370614 19108 net.cpp:150] Setting up inception_4e/3x3_reduce
I1115 11:29:42.370622 19108 net.cpp:157] Top shape: 24 160 14 14 (752640)
I1115 11:29:42.370625 19108 net.cpp:165] Memory required for data: 1221238664
I1115 11:29:42.370630 19108 layer_factory.hpp:77] Creating layer inception_4e/relu_3x3_reduce
I1115 11:29:42.370635 19108 net.cpp:100] Creating Layer inception_4e/relu_3x3_reduce
I1115 11:29:42.370638 19108 net.cpp:434] inception_4e/relu_3x3_reduce <- inception_4e/3x3_reduce
I1115 11:29:42.370643 19108 net.cpp:395] inception_4e/relu_3x3_reduce -> inception_4e/3x3_reduce (in-place)
I1115 11:29:42.370649 19108 net.cpp:150] Setting up inception_4e/relu_3x3_reduce
I1115 11:29:42.370652 19108 net.cpp:157] Top shape: 24 160 14 14 (752640)
I1115 11:29:42.370654 19108 net.cpp:165] Memory required for data: 1224249224
I1115 11:29:42.370657 19108 layer_factory.hpp:77] Creating layer inception_4e/3x3
I1115 11:29:42.370663 19108 net.cpp:100] Creating Layer inception_4e/3x3
I1115 11:29:42.370666 19108 net.cpp:434] inception_4e/3x3 <- inception_4e/3x3_reduce
I1115 11:29:42.370672 19108 net.cpp:408] inception_4e/3x3 -> inception_4e/3x3
I1115 11:29:42.373210 19108 net.cpp:150] Setting up inception_4e/3x3
I1115 11:29:42.373221 19108 net.cpp:157] Top shape: 24 320 14 14 (1505280)
I1115 11:29:42.373224 19108 net.cpp:165] Memory required for data: 1230270344
I1115 11:29:42.373229 19108 layer_factory.hpp:77] Creating layer inception_4e/relu_3x3
I1115 11:29:42.373234 19108 net.cpp:100] Creating Layer inception_4e/relu_3x3
I1115 11:29:42.373237 19108 net.cpp:434] inception_4e/relu_3x3 <- inception_4e/3x3
I1115 11:29:42.373242 19108 net.cpp:395] inception_4e/relu_3x3 -> inception_4e/3x3 (in-place)
I1115 11:29:42.373248 19108 net.cpp:150] Setting up inception_4e/relu_3x3
I1115 11:29:42.373251 19108 net.cpp:157] Top shape: 24 320 14 14 (1505280)
I1115 11:29:42.373253 19108 net.cpp:165] Memory required for data: 1236291464
I1115 11:29:42.373256 19108 layer_factory.hpp:77] Creating layer inception_4e/5x5_reduce
I1115 11:29:42.373262 19108 net.cpp:100] Creating Layer inception_4e/5x5_reduce
I1115 11:29:42.373265 19108 net.cpp:434] inception_4e/5x5_reduce <- inception_4d/output_inception_4d/output_0_split_3
I1115 11:29:42.373271 19108 net.cpp:408] inception_4e/5x5_reduce -> inception_4e/5x5_reduce
I1115 11:29:42.373545 19108 net.cpp:150] Setting up inception_4e/5x5_reduce
I1115 11:29:42.373553 19108 net.cpp:157] Top shape: 24 32 14 14 (150528)
I1115 11:29:42.373554 19108 net.cpp:165] Memory required for data: 1236893576
I1115 11:29:42.373559 19108 layer_factory.hpp:77] Creating layer inception_4e/relu_5x5_reduce
I1115 11:29:42.373565 19108 net.cpp:100] Creating Layer inception_4e/relu_5x5_reduce
I1115 11:29:42.373569 19108 net.cpp:434] inception_4e/relu_5x5_reduce <- inception_4e/5x5_reduce
I1115 11:29:42.373574 19108 net.cpp:395] inception_4e/relu_5x5_reduce -> inception_4e/5x5_reduce (in-place)
I1115 11:29:42.373579 19108 net.cpp:150] Setting up inception_4e/relu_5x5_reduce
I1115 11:29:42.373581 19108 net.cpp:157] Top shape: 24 32 14 14 (150528)
I1115 11:29:42.373584 19108 net.cpp:165] Memory required for data: 1237495688
I1115 11:29:42.373585 19108 layer_factory.hpp:77] Creating layer inception_4e/5x5
I1115 11:29:42.373608 19108 net.cpp:100] Creating Layer inception_4e/5x5
I1115 11:29:42.373611 19108 net.cpp:434] inception_4e/5x5 <- inception_4e/5x5_reduce
I1115 11:29:42.373616 19108 net.cpp:408] inception_4e/5x5 -> inception_4e/5x5
I1115 11:29:42.374195 19108 net.cpp:150] Setting up inception_4e/5x5
I1115 11:29:42.374202 19108 net.cpp:157] Top shape: 24 128 14 14 (602112)
I1115 11:29:42.374204 19108 net.cpp:165] Memory required for data: 1239904136
I1115 11:29:42.374209 19108 layer_factory.hpp:77] Creating layer inception_4e/relu_5x5
I1115 11:29:42.374213 19108 net.cpp:100] Creating Layer inception_4e/relu_5x5
I1115 11:29:42.374217 19108 net.cpp:434] inception_4e/relu_5x5 <- inception_4e/5x5
I1115 11:29:42.374220 19108 net.cpp:395] inception_4e/relu_5x5 -> inception_4e/5x5 (in-place)
I1115 11:29:42.374224 19108 net.cpp:150] Setting up inception_4e/relu_5x5
I1115 11:29:42.374228 19108 net.cpp:157] Top shape: 24 128 14 14 (602112)
I1115 11:29:42.374230 19108 net.cpp:165] Memory required for data: 1242312584
I1115 11:29:42.374233 19108 layer_factory.hpp:77] Creating layer inception_4e/pool
I1115 11:29:42.374239 19108 net.cpp:100] Creating Layer inception_4e/pool
I1115 11:29:42.374243 19108 net.cpp:434] inception_4e/pool <- inception_4d/output_inception_4d/output_0_split_4
I1115 11:29:42.374246 19108 net.cpp:408] inception_4e/pool -> inception_4e/pool
I1115 11:29:42.374277 19108 net.cpp:150] Setting up inception_4e/pool
I1115 11:29:42.374281 19108 net.cpp:157] Top shape: 24 528 14 14 (2483712)
I1115 11:29:42.374284 19108 net.cpp:165] Memory required for data: 1252247432
I1115 11:29:42.374286 19108 layer_factory.hpp:77] Creating layer inception_4e/pool_proj
I1115 11:29:42.374294 19108 net.cpp:100] Creating Layer inception_4e/pool_proj
I1115 11:29:42.374296 19108 net.cpp:434] inception_4e/pool_proj <- inception_4e/pool
I1115 11:29:42.374302 19108 net.cpp:408] inception_4e/pool_proj -> inception_4e/pool_proj
I1115 11:29:42.374739 19108 net.cpp:150] Setting up inception_4e/pool_proj
I1115 11:29:42.374745 19108 net.cpp:157] Top shape: 24 128 14 14 (602112)
I1115 11:29:42.374747 19108 net.cpp:165] Memory required for data: 1254655880
I1115 11:29:42.374752 19108 layer_factory.hpp:77] Creating layer inception_4e/relu_pool_proj
I1115 11:29:42.374757 19108 net.cpp:100] Creating Layer inception_4e/relu_pool_proj
I1115 11:29:42.374759 19108 net.cpp:434] inception_4e/relu_pool_proj <- inception_4e/pool_proj
I1115 11:29:42.374764 19108 net.cpp:395] inception_4e/relu_pool_proj -> inception_4e/pool_proj (in-place)
I1115 11:29:42.374769 19108 net.cpp:150] Setting up inception_4e/relu_pool_proj
I1115 11:29:42.374773 19108 net.cpp:157] Top shape: 24 128 14 14 (602112)
I1115 11:29:42.374774 19108 net.cpp:165] Memory required for data: 1257064328
I1115 11:29:42.374776 19108 layer_factory.hpp:77] Creating layer inception_4e/output
I1115 11:29:42.374781 19108 net.cpp:100] Creating Layer inception_4e/output
I1115 11:29:42.374784 19108 net.cpp:434] inception_4e/output <- inception_4e/1x1
I1115 11:29:42.374788 19108 net.cpp:434] inception_4e/output <- inception_4e/3x3
I1115 11:29:42.374790 19108 net.cpp:434] inception_4e/output <- inception_4e/5x5
I1115 11:29:42.374800 19108 net.cpp:434] inception_4e/output <- inception_4e/pool_proj
I1115 11:29:42.374806 19108 net.cpp:408] inception_4e/output -> inception_4e/output
I1115 11:29:42.374826 19108 net.cpp:150] Setting up inception_4e/output
I1115 11:29:42.374830 19108 net.cpp:157] Top shape: 24 832 14 14 (3913728)
I1115 11:29:42.374833 19108 net.cpp:165] Memory required for data: 1272719240
I1115 11:29:42.374835 19108 layer_factory.hpp:77] Creating layer pool4/3x3_s2
I1115 11:29:42.374841 19108 net.cpp:100] Creating Layer pool4/3x3_s2
I1115 11:29:42.374845 19108 net.cpp:434] pool4/3x3_s2 <- inception_4e/output
I1115 11:29:42.374848 19108 net.cpp:408] pool4/3x3_s2 -> pool4/3x3_s2
I1115 11:29:42.374876 19108 net.cpp:150] Setting up pool4/3x3_s2
I1115 11:29:42.374881 19108 net.cpp:157] Top shape: 24 832 7 7 (978432)
I1115 11:29:42.374882 19108 net.cpp:165] Memory required for data: 1276632968
I1115 11:29:42.374886 19108 layer_factory.hpp:77] Creating layer pool4/3x3_s2_pool4/3x3_s2_0_split
I1115 11:29:42.374891 19108 net.cpp:100] Creating Layer pool4/3x3_s2_pool4/3x3_s2_0_split
I1115 11:29:42.374892 19108 net.cpp:434] pool4/3x3_s2_pool4/3x3_s2_0_split <- pool4/3x3_s2
I1115 11:29:42.374897 19108 net.cpp:408] pool4/3x3_s2_pool4/3x3_s2_0_split -> pool4/3x3_s2_pool4/3x3_s2_0_split_0
I1115 11:29:42.374902 19108 net.cpp:408] pool4/3x3_s2_pool4/3x3_s2_0_split -> pool4/3x3_s2_pool4/3x3_s2_0_split_1
I1115 11:29:42.374907 19108 net.cpp:408] pool4/3x3_s2_pool4/3x3_s2_0_split -> pool4/3x3_s2_pool4/3x3_s2_0_split_2
I1115 11:29:42.374910 19108 net.cpp:408] pool4/3x3_s2_pool4/3x3_s2_0_split -> pool4/3x3_s2_pool4/3x3_s2_0_split_3
I1115 11:29:42.374953 19108 net.cpp:150] Setting up pool4/3x3_s2_pool4/3x3_s2_0_split
I1115 11:29:42.374956 19108 net.cpp:157] Top shape: 24 832 7 7 (978432)
I1115 11:29:42.374959 19108 net.cpp:157] Top shape: 24 832 7 7 (978432)
I1115 11:29:42.374963 19108 net.cpp:157] Top shape: 24 832 7 7 (978432)
I1115 11:29:42.374965 19108 net.cpp:157] Top shape: 24 832 7 7 (978432)
I1115 11:29:42.374968 19108 net.cpp:165] Memory required for data: 1292287880
I1115 11:29:42.374969 19108 layer_factory.hpp:77] Creating layer inception_5a/1x1
I1115 11:29:42.374976 19108 net.cpp:100] Creating Layer inception_5a/1x1
I1115 11:29:42.374979 19108 net.cpp:434] inception_5a/1x1 <- pool4/3x3_s2_pool4/3x3_s2_0_split_0
I1115 11:29:42.374984 19108 net.cpp:408] inception_5a/1x1 -> inception_5a/1x1
I1115 11:29:42.376397 19108 net.cpp:150] Setting up inception_5a/1x1
I1115 11:29:42.376407 19108 net.cpp:157] Top shape: 24 256 7 7 (301056)
I1115 11:29:42.376410 19108 net.cpp:165] Memory required for data: 1293492104
I1115 11:29:42.376415 19108 layer_factory.hpp:77] Creating layer inception_5a/relu_1x1
I1115 11:29:42.376420 19108 net.cpp:100] Creating Layer inception_5a/relu_1x1
I1115 11:29:42.376423 19108 net.cpp:434] inception_5a/relu_1x1 <- inception_5a/1x1
I1115 11:29:42.376428 19108 net.cpp:395] inception_5a/relu_1x1 -> inception_5a/1x1 (in-place)
I1115 11:29:42.376433 19108 net.cpp:150] Setting up inception_5a/relu_1x1
I1115 11:29:42.376437 19108 net.cpp:157] Top shape: 24 256 7 7 (301056)
I1115 11:29:42.376440 19108 net.cpp:165] Memory required for data: 1294696328
I1115 11:29:42.376441 19108 layer_factory.hpp:77] Creating layer inception_5a/3x3_reduce
I1115 11:29:42.376447 19108 net.cpp:100] Creating Layer inception_5a/3x3_reduce
I1115 11:29:42.376451 19108 net.cpp:434] inception_5a/3x3_reduce <- pool4/3x3_s2_pool4/3x3_s2_0_split_1
I1115 11:29:42.376456 19108 net.cpp:408] inception_5a/3x3_reduce -> inception_5a/3x3_reduce
I1115 11:29:42.377529 19108 net.cpp:150] Setting up inception_5a/3x3_reduce
I1115 11:29:42.377538 19108 net.cpp:157] Top shape: 24 160 7 7 (188160)
I1115 11:29:42.377540 19108 net.cpp:165] Memory required for data: 1295448968
I1115 11:29:42.377545 19108 layer_factory.hpp:77] Creating layer inception_5a/relu_3x3_reduce
I1115 11:29:42.377550 19108 net.cpp:100] Creating Layer inception_5a/relu_3x3_reduce
I1115 11:29:42.377553 19108 net.cpp:434] inception_5a/relu_3x3_reduce <- inception_5a/3x3_reduce
I1115 11:29:42.377568 19108 net.cpp:395] inception_5a/relu_3x3_reduce -> inception_5a/3x3_reduce (in-place)
I1115 11:29:42.377573 19108 net.cpp:150] Setting up inception_5a/relu_3x3_reduce
I1115 11:29:42.377578 19108 net.cpp:157] Top shape: 24 160 7 7 (188160)
I1115 11:29:42.377579 19108 net.cpp:165] Memory required for data: 1296201608
I1115 11:29:42.377583 19108 layer_factory.hpp:77] Creating layer inception_5a/3x3
I1115 11:29:42.377589 19108 net.cpp:100] Creating Layer inception_5a/3x3
I1115 11:29:42.377593 19108 net.cpp:434] inception_5a/3x3 <- inception_5a/3x3_reduce
I1115 11:29:42.377598 19108 net.cpp:408] inception_5a/3x3 -> inception_5a/3x3
I1115 11:29:42.380136 19108 net.cpp:150] Setting up inception_5a/3x3
I1115 11:29:42.380146 19108 net.cpp:157] Top shape: 24 320 7 7 (376320)
I1115 11:29:42.380147 19108 net.cpp:165] Memory required for data: 1297706888
I1115 11:29:42.380152 19108 layer_factory.hpp:77] Creating layer inception_5a/relu_3x3
I1115 11:29:42.380157 19108 net.cpp:100] Creating Layer inception_5a/relu_3x3
I1115 11:29:42.380161 19108 net.cpp:434] inception_5a/relu_3x3 <- inception_5a/3x3
I1115 11:29:42.380165 19108 net.cpp:395] inception_5a/relu_3x3 -> inception_5a/3x3 (in-place)
I1115 11:29:42.380172 19108 net.cpp:150] Setting up inception_5a/relu_3x3
I1115 11:29:42.380174 19108 net.cpp:157] Top shape: 24 320 7 7 (376320)
I1115 11:29:42.380177 19108 net.cpp:165] Memory required for data: 1299212168
I1115 11:29:42.380179 19108 layer_factory.hpp:77] Creating layer inception_5a/5x5_reduce
I1115 11:29:42.380187 19108 net.cpp:100] Creating Layer inception_5a/5x5_reduce
I1115 11:29:42.380192 19108 net.cpp:434] inception_5a/5x5_reduce <- pool4/3x3_s2_pool4/3x3_s2_0_split_2
I1115 11:29:42.380197 19108 net.cpp:408] inception_5a/5x5_reduce -> inception_5a/5x5_reduce
I1115 11:29:42.380493 19108 net.cpp:150] Setting up inception_5a/5x5_reduce
I1115 11:29:42.380501 19108 net.cpp:157] Top shape: 24 32 7 7 (37632)
I1115 11:29:42.380503 19108 net.cpp:165] Memory required for data: 1299362696
I1115 11:29:42.380507 19108 layer_factory.hpp:77] Creating layer inception_5a/relu_5x5_reduce
I1115 11:29:42.380512 19108 net.cpp:100] Creating Layer inception_5a/relu_5x5_reduce
I1115 11:29:42.380516 19108 net.cpp:434] inception_5a/relu_5x5_reduce <- inception_5a/5x5_reduce
I1115 11:29:42.380522 19108 net.cpp:395] inception_5a/relu_5x5_reduce -> inception_5a/5x5_reduce (in-place)
I1115 11:29:42.380527 19108 net.cpp:150] Setting up inception_5a/relu_5x5_reduce
I1115 11:29:42.380529 19108 net.cpp:157] Top shape: 24 32 7 7 (37632)
I1115 11:29:42.380532 19108 net.cpp:165] Memory required for data: 1299513224
I1115 11:29:42.380534 19108 layer_factory.hpp:77] Creating layer inception_5a/5x5
I1115 11:29:42.380542 19108 net.cpp:100] Creating Layer inception_5a/5x5
I1115 11:29:42.380545 19108 net.cpp:434] inception_5a/5x5 <- inception_5a/5x5_reduce
I1115 11:29:42.380549 19108 net.cpp:408] inception_5a/5x5 -> inception_5a/5x5
I1115 11:29:42.381125 19108 net.cpp:150] Setting up inception_5a/5x5
I1115 11:29:42.381130 19108 net.cpp:157] Top shape: 24 128 7 7 (150528)
I1115 11:29:42.381134 19108 net.cpp:165] Memory required for data: 1300115336
I1115 11:29:42.381137 19108 layer_factory.hpp:77] Creating layer inception_5a/relu_5x5
I1115 11:29:42.381141 19108 net.cpp:100] Creating Layer inception_5a/relu_5x5
I1115 11:29:42.381146 19108 net.cpp:434] inception_5a/relu_5x5 <- inception_5a/5x5
I1115 11:29:42.381150 19108 net.cpp:395] inception_5a/relu_5x5 -> inception_5a/5x5 (in-place)
I1115 11:29:42.381155 19108 net.cpp:150] Setting up inception_5a/relu_5x5
I1115 11:29:42.381157 19108 net.cpp:157] Top shape: 24 128 7 7 (150528)
I1115 11:29:42.381160 19108 net.cpp:165] Memory required for data: 1300717448
I1115 11:29:42.381162 19108 layer_factory.hpp:77] Creating layer inception_5a/pool
I1115 11:29:42.381166 19108 net.cpp:100] Creating Layer inception_5a/pool
I1115 11:29:42.381170 19108 net.cpp:434] inception_5a/pool <- pool4/3x3_s2_pool4/3x3_s2_0_split_3
I1115 11:29:42.381175 19108 net.cpp:408] inception_5a/pool -> inception_5a/pool
I1115 11:29:42.381216 19108 net.cpp:150] Setting up inception_5a/pool
I1115 11:29:42.381222 19108 net.cpp:157] Top shape: 24 832 7 7 (978432)
I1115 11:29:42.381223 19108 net.cpp:165] Memory required for data: 1304631176
I1115 11:29:42.381225 19108 layer_factory.hpp:77] Creating layer inception_5a/pool_proj
I1115 11:29:42.381234 19108 net.cpp:100] Creating Layer inception_5a/pool_proj
I1115 11:29:42.381237 19108 net.cpp:434] inception_5a/pool_proj <- inception_5a/pool
I1115 11:29:42.381243 19108 net.cpp:408] inception_5a/pool_proj -> inception_5a/pool_proj
I1115 11:29:42.382208 19108 net.cpp:150] Setting up inception_5a/pool_proj
I1115 11:29:42.382218 19108 net.cpp:157] Top shape: 24 128 7 7 (150528)
I1115 11:29:42.382220 19108 net.cpp:165] Memory required for data: 1305233288
I1115 11:29:42.382225 19108 layer_factory.hpp:77] Creating layer inception_5a/relu_pool_proj
I1115 11:29:42.382230 19108 net.cpp:100] Creating Layer inception_5a/relu_pool_proj
I1115 11:29:42.382233 19108 net.cpp:434] inception_5a/relu_pool_proj <- inception_5a/pool_proj
I1115 11:29:42.382238 19108 net.cpp:395] inception_5a/relu_pool_proj -> inception_5a/pool_proj (in-place)
I1115 11:29:42.382243 19108 net.cpp:150] Setting up inception_5a/relu_pool_proj
I1115 11:29:42.382246 19108 net.cpp:157] Top shape: 24 128 7 7 (150528)
I1115 11:29:42.382249 19108 net.cpp:165] Memory required for data: 1305835400
I1115 11:29:42.382251 19108 layer_factory.hpp:77] Creating layer inception_5a/output
I1115 11:29:42.382256 19108 net.cpp:100] Creating Layer inception_5a/output
I1115 11:29:42.382259 19108 net.cpp:434] inception_5a/output <- inception_5a/1x1
I1115 11:29:42.382263 19108 net.cpp:434] inception_5a/output <- inception_5a/3x3
I1115 11:29:42.382266 19108 net.cpp:434] inception_5a/output <- inception_5a/5x5
I1115 11:29:42.382269 19108 net.cpp:434] inception_5a/output <- inception_5a/pool_proj
I1115 11:29:42.382272 19108 net.cpp:408] inception_5a/output -> inception_5a/output
I1115 11:29:42.382293 19108 net.cpp:150] Setting up inception_5a/output
I1115 11:29:42.382298 19108 net.cpp:157] Top shape: 24 832 7 7 (978432)
I1115 11:29:42.382300 19108 net.cpp:165] Memory required for data: 1309749128
I1115 11:29:42.382302 19108 layer_factory.hpp:77] Creating layer inception_5a/output_inception_5a/output_0_split
I1115 11:29:42.382308 19108 net.cpp:100] Creating Layer inception_5a/output_inception_5a/output_0_split
I1115 11:29:42.382309 19108 net.cpp:434] inception_5a/output_inception_5a/output_0_split <- inception_5a/output
I1115 11:29:42.382313 19108 net.cpp:408] inception_5a/output_inception_5a/output_0_split -> inception_5a/output_inception_5a/output_0_split_0
I1115 11:29:42.382320 19108 net.cpp:408] inception_5a/output_inception_5a/output_0_split -> inception_5a/output_inception_5a/output_0_split_1
I1115 11:29:42.382324 19108 net.cpp:408] inception_5a/output_inception_5a/output_0_split -> inception_5a/output_inception_5a/output_0_split_2
I1115 11:29:42.382329 19108 net.cpp:408] inception_5a/output_inception_5a/output_0_split -> inception_5a/output_inception_5a/output_0_split_3
I1115 11:29:42.382375 19108 net.cpp:150] Setting up inception_5a/output_inception_5a/output_0_split
I1115 11:29:42.382378 19108 net.cpp:157] Top shape: 24 832 7 7 (978432)
I1115 11:29:42.382382 19108 net.cpp:157] Top shape: 24 832 7 7 (978432)
I1115 11:29:42.382385 19108 net.cpp:157] Top shape: 24 832 7 7 (978432)
I1115 11:29:42.382387 19108 net.cpp:157] Top shape: 24 832 7 7 (978432)
I1115 11:29:42.382390 19108 net.cpp:165] Memory required for data: 1325404040
I1115 11:29:42.382392 19108 layer_factory.hpp:77] Creating layer inception_5b/1x1
I1115 11:29:42.382400 19108 net.cpp:100] Creating Layer inception_5b/1x1
I1115 11:29:42.382403 19108 net.cpp:434] inception_5b/1x1 <- inception_5a/output_inception_5a/output_0_split_0
I1115 11:29:42.382407 19108 net.cpp:408] inception_5b/1x1 -> inception_5b/1x1
I1115 11:29:42.384275 19108 net.cpp:150] Setting up inception_5b/1x1
I1115 11:29:42.384285 19108 net.cpp:157] Top shape: 24 384 7 7 (451584)
I1115 11:29:42.384289 19108 net.cpp:165] Memory required for data: 1327210376
I1115 11:29:42.384301 19108 layer_factory.hpp:77] Creating layer inception_5b/relu_1x1
I1115 11:29:42.384306 19108 net.cpp:100] Creating Layer inception_5b/relu_1x1
I1115 11:29:42.384310 19108 net.cpp:434] inception_5b/relu_1x1 <- inception_5b/1x1
I1115 11:29:43.488142 19108 net.cpp:395] inception_5b/relu_1x1 -> inception_5b/1x1 (in-place)
I1115 11:29:43.488195 19108 net.cpp:150] Setting up inception_5b/relu_1x1
I1115 11:29:43.488210 19108 net.cpp:157] Top shape: 24 384 7 7 (451584)
I1115 11:29:43.488216 19108 net.cpp:165] Memory required for data: 1329016712
I1115 11:29:43.488245 19108 layer_factory.hpp:77] Creating layer inception_5b/3x3_reduce
I1115 11:29:43.488271 19108 net.cpp:100] Creating Layer inception_5b/3x3_reduce
I1115 11:29:43.488281 19108 net.cpp:434] inception_5b/3x3_reduce <- inception_5a/output_inception_5a/output_0_split_1
I1115 11:29:43.488296 19108 net.cpp:408] inception_5b/3x3_reduce -> inception_5b/3x3_reduce
I1115 11:29:43.491437 19108 net.cpp:150] Setting up inception_5b/3x3_reduce
I1115 11:29:43.491461 19108 net.cpp:157] Top shape: 24 192 7 7 (225792)
I1115 11:29:43.491469 19108 net.cpp:165] Memory required for data: 1329919880
I1115 11:29:43.491483 19108 layer_factory.hpp:77] Creating layer inception_5b/relu_3x3_reduce
I1115 11:29:43.491503 19108 net.cpp:100] Creating Layer inception_5b/relu_3x3_reduce
I1115 11:29:43.491511 19108 net.cpp:434] inception_5b/relu_3x3_reduce <- inception_5b/3x3_reduce
I1115 11:29:43.491526 19108 net.cpp:395] inception_5b/relu_3x3_reduce -> inception_5b/3x3_reduce (in-place)
I1115 11:29:43.491541 19108 net.cpp:150] Setting up inception_5b/relu_3x3_reduce
I1115 11:29:43.491551 19108 net.cpp:157] Top shape: 24 192 7 7 (225792)
I1115 11:29:43.491557 19108 net.cpp:165] Memory required for data: 1330823048
I1115 11:29:43.491564 19108 layer_factory.hpp:77] Creating layer inception_5b/3x3
I1115 11:29:43.491581 19108 net.cpp:100] Creating Layer inception_5b/3x3
I1115 11:29:43.491588 19108 net.cpp:434] inception_5b/3x3 <- inception_5b/3x3_reduce
I1115 11:29:43.491600 19108 net.cpp:408] inception_5b/3x3 -> inception_5b/3x3
I1115 11:29:43.500810 19108 net.cpp:150] Setting up inception_5b/3x3
I1115 11:29:43.500838 19108 net.cpp:157] Top shape: 24 384 7 7 (451584)
I1115 11:29:43.500844 19108 net.cpp:165] Memory required for data: 1332629384
I1115 11:29:43.500857 19108 layer_factory.hpp:77] Creating layer inception_5b/relu_3x3
I1115 11:29:43.500869 19108 net.cpp:100] Creating Layer inception_5b/relu_3x3
I1115 11:29:43.500877 19108 net.cpp:434] inception_5b/relu_3x3 <- inception_5b/3x3
I1115 11:29:43.500887 19108 net.cpp:395] inception_5b/relu_3x3 -> inception_5b/3x3 (in-place)
I1115 11:29:43.500901 19108 net.cpp:150] Setting up inception_5b/relu_3x3
I1115 11:29:43.500910 19108 net.cpp:157] Top shape: 24 384 7 7 (451584)
I1115 11:29:43.500916 19108 net.cpp:165] Memory required for data: 1334435720
I1115 11:29:43.500921 19108 layer_factory.hpp:77] Creating layer inception_5b/5x5_reduce
I1115 11:29:43.500941 19108 net.cpp:100] Creating Layer inception_5b/5x5_reduce
I1115 11:29:43.500948 19108 net.cpp:434] inception_5b/5x5_reduce <- inception_5a/output_inception_5a/output_0_split_2
I1115 11:29:43.500967 19108 net.cpp:408] inception_5b/5x5_reduce -> inception_5b/5x5_reduce
I1115 11:29:43.501813 19108 net.cpp:150] Setting up inception_5b/5x5_reduce
I1115 11:29:43.501827 19108 net.cpp:157] Top shape: 24 48 7 7 (56448)
I1115 11:29:43.501832 19108 net.cpp:165] Memory required for data: 1334661512
I1115 11:29:43.501843 19108 layer_factory.hpp:77] Creating layer inception_5b/relu_5x5_reduce
I1115 11:29:43.501852 19108 net.cpp:100] Creating Layer inception_5b/relu_5x5_reduce
I1115 11:29:43.501860 19108 net.cpp:434] inception_5b/relu_5x5_reduce <- inception_5b/5x5_reduce
I1115 11:29:43.501869 19108 net.cpp:395] inception_5b/relu_5x5_reduce -> inception_5b/5x5_reduce (in-place)
I1115 11:29:43.501881 19108 net.cpp:150] Setting up inception_5b/relu_5x5_reduce
I1115 11:29:43.501893 19108 net.cpp:157] Top shape: 24 48 7 7 (56448)
I1115 11:29:43.501899 19108 net.cpp:165] Memory required for data: 1334887304
I1115 11:29:43.501934 19108 layer_factory.hpp:77] Creating layer inception_5b/5x5
I1115 11:29:43.501950 19108 net.cpp:100] Creating Layer inception_5b/5x5
I1115 11:29:43.501956 19108 net.cpp:434] inception_5b/5x5 <- inception_5b/5x5_reduce
I1115 11:29:43.501971 19108 net.cpp:408] inception_5b/5x5 -> inception_5b/5x5
I1115 11:29:43.503935 19108 net.cpp:150] Setting up inception_5b/5x5
I1115 11:29:43.503949 19108 net.cpp:157] Top shape: 24 128 7 7 (150528)
I1115 11:29:43.503955 19108 net.cpp:165] Memory required for data: 1335489416
I1115 11:29:43.503967 19108 layer_factory.hpp:77] Creating layer inception_5b/relu_5x5
I1115 11:29:43.503976 19108 net.cpp:100] Creating Layer inception_5b/relu_5x5
I1115 11:29:43.503983 19108 net.cpp:434] inception_5b/relu_5x5 <- inception_5b/5x5
I1115 11:29:43.503993 19108 net.cpp:395] inception_5b/relu_5x5 -> inception_5b/5x5 (in-place)
I1115 11:29:43.504004 19108 net.cpp:150] Setting up inception_5b/relu_5x5
I1115 11:29:43.504014 19108 net.cpp:157] Top shape: 24 128 7 7 (150528)
I1115 11:29:43.504019 19108 net.cpp:165] Memory required for data: 1336091528
I1115 11:29:43.504024 19108 layer_factory.hpp:77] Creating layer inception_5b/pool
I1115 11:29:43.504037 19108 net.cpp:100] Creating Layer inception_5b/pool
I1115 11:29:43.504045 19108 net.cpp:434] inception_5b/pool <- inception_5a/output_inception_5a/output_0_split_3
I1115 11:29:43.504055 19108 net.cpp:408] inception_5b/pool -> inception_5b/pool
I1115 11:29:43.504127 19108 net.cpp:150] Setting up inception_5b/pool
I1115 11:29:43.504138 19108 net.cpp:157] Top shape: 24 832 7 7 (978432)
I1115 11:29:43.504144 19108 net.cpp:165] Memory required for data: 1340005256
I1115 11:29:43.504150 19108 layer_factory.hpp:77] Creating layer inception_5b/pool_proj
I1115 11:29:43.504168 19108 net.cpp:100] Creating Layer inception_5b/pool_proj
I1115 11:29:43.504174 19108 net.cpp:434] inception_5b/pool_proj <- inception_5b/pool
I1115 11:29:43.504185 19108 net.cpp:408] inception_5b/pool_proj -> inception_5b/pool_proj
I1115 11:29:43.506450 19108 net.cpp:150] Setting up inception_5b/pool_proj
I1115 11:29:43.506472 19108 net.cpp:157] Top shape: 24 128 7 7 (150528)
I1115 11:29:43.506479 19108 net.cpp:165] Memory required for data: 1340607368
I1115 11:29:43.506490 19108 layer_factory.hpp:77] Creating layer inception_5b/relu_pool_proj
I1115 11:29:43.506501 19108 net.cpp:100] Creating Layer inception_5b/relu_pool_proj
I1115 11:29:43.506510 19108 net.cpp:434] inception_5b/relu_pool_proj <- inception_5b/pool_proj
I1115 11:29:43.506522 19108 net.cpp:395] inception_5b/relu_pool_proj -> inception_5b/pool_proj (in-place)
I1115 11:29:43.506536 19108 net.cpp:150] Setting up inception_5b/relu_pool_proj
I1115 11:29:43.506544 19108 net.cpp:157] Top shape: 24 128 7 7 (150528)
I1115 11:29:43.506551 19108 net.cpp:165] Memory required for data: 1341209480
I1115 11:29:43.506556 19108 layer_factory.hpp:77] Creating layer inception_5b/output
I1115 11:29:43.506566 19108 net.cpp:100] Creating Layer inception_5b/output
I1115 11:29:43.506572 19108 net.cpp:434] inception_5b/output <- inception_5b/1x1
I1115 11:29:43.506582 19108 net.cpp:434] inception_5b/output <- inception_5b/3x3
I1115 11:29:43.506589 19108 net.cpp:434] inception_5b/output <- inception_5b/5x5
I1115 11:29:43.506597 19108 net.cpp:434] inception_5b/output <- inception_5b/pool_proj
I1115 11:29:43.506608 19108 net.cpp:408] inception_5b/output -> inception_5b/output
I1115 11:29:43.506654 19108 net.cpp:150] Setting up inception_5b/output
I1115 11:29:43.506664 19108 net.cpp:157] Top shape: 24 1024 7 7 (1204224)
I1115 11:29:43.506669 19108 net.cpp:165] Memory required for data: 1346026376
I1115 11:29:43.506675 19108 layer_factory.hpp:77] Creating layer pool5/7x7_s1
I1115 11:29:43.506688 19108 net.cpp:100] Creating Layer pool5/7x7_s1
I1115 11:29:43.506695 19108 net.cpp:434] pool5/7x7_s1 <- inception_5b/output
I1115 11:29:43.506705 19108 net.cpp:408] pool5/7x7_s1 -> pool5/7x7_s1
I1115 11:29:43.506749 19108 net.cpp:150] Setting up pool5/7x7_s1
I1115 11:29:43.506760 19108 net.cpp:157] Top shape: 24 1024 1 1 (24576)
I1115 11:29:43.506786 19108 net.cpp:165] Memory required for data: 1346124680
I1115 11:29:43.506793 19108 layer_factory.hpp:77] Creating layer pool5/drop_7x7_s1
I1115 11:29:43.506804 19108 net.cpp:100] Creating Layer pool5/drop_7x7_s1
I1115 11:29:50.490020 19108 net.cpp:434] pool5/drop_7x7_s1 <- pool5/7x7_s1
I1115 11:29:50.490067 19108 net.cpp:395] pool5/drop_7x7_s1 -> pool5/7x7_s1 (in-place)
I1115 11:29:50.490173 19108 net.cpp:150] Setting up pool5/drop_7x7_s1
I1115 11:29:50.490193 19108 net.cpp:157] Top shape: 24 1024 1 1 (24576)
I1115 11:29:50.490200 19108 net.cpp:165] Memory required for data: 1346222984
I1115 11:29:50.490209 19108 layer_factory.hpp:77] Creating layer loss3/classifier
I1115 11:29:50.490226 19108 net.cpp:100] Creating Layer loss3/classifier
I1115 11:29:50.490233 19108 net.cpp:434] loss3/classifier <- pool5/7x7_s1
I1115 11:29:50.490247 19108 net.cpp:408] loss3/classifier -> loss3/classifier
I1115 11:29:50.490814 19108 net.cpp:150] Setting up loss3/classifier
I1115 11:29:50.490829 19108 net.cpp:157] Top shape: 24 28 (672)
I1115 11:29:50.490835 19108 net.cpp:165] Memory required for data: 1346225672
I1115 11:29:50.490849 19108 layer_factory.hpp:77] Creating layer loss3/loss3
I1115 11:29:50.490864 19108 net.cpp:100] Creating Layer loss3/loss3
I1115 11:29:50.490872 19108 net.cpp:434] loss3/loss3 <- loss3/classifier
I1115 11:29:50.490882 19108 net.cpp:434] loss3/loss3 <- label_data_1_split_2
I1115 11:29:50.490893 19108 net.cpp:408] loss3/loss3 -> loss3/loss3
…
I1115 11:29:51.648532 19108 net.cpp:322] The NetState phase (1) differed from the phase (0) specified by a rule in layer data
I1115 11:29:51.651531 19108 net.cpp:58] Initializing net from parameters: 
name: "GoogleNet"
state {
  phase: TEST
}
layer {
  name: "data"
  type: "Data"
  top: "data"
  top: "label"
  include {
    phase: TEST
  }
  transform_param {
    mirror: false
    crop_size: 224
    mean_value: 104
    mean_value: 117
    mean_value: 123
  }
  data_param {
    source: "examples/google/img_test_lmdb"
    batch_size: 24
    backend: LMDB
  }
}
layer {
  name: "conv1/7x7_s2"
  type: "Convolution"
  bottom: "data"
  top: "conv1/7x7_s2"
  param {
    lr_mult: 1
    decay_mult: 1
  }
  param {
    lr_mult: 2
    decay_mult: 0
  }
  convolution_param {
    num_output: 64
    pad: 3
    kernel_size: 7
    stride: 2
    weight_filler {
      type: "xavier"
    }
    bias_filler {
      type: "constant"
      value: 0.2
    }
  }
}
layer {
  name: "conv1/relu_7x7"
  type: "ReLU"
  bottom: "conv1/7x7_s2"
  top: "conv1/7x7_s2"
}
layer {
  name: "pool1/3x3_s2"
  type: "Pooling"
  bottom: "conv1/7x7_s2"
  top: "pool1/3x3_s2"
  pooling_param {
    pool: MAX
    kernel_size: 3
    stride: 2
  }
}
layer {
  name: "pool1/norm1"
  type: "LRN"
  bottom: "pool1/3x3_s2"
  top: "pool1/norm1"
  lrn_param {
    local_size: 5
    alpha: 0.0001
    beta: 0.75
  }
}
layer {
  name: "conv2/3x3_reduce"
  type: "Convolution"
  bottom: "pool1/norm1"
  top: "conv2/3x3_reduce"
  param {
    lr_mult: 1
    decay_mult: 1
  }
  param {
    lr_mult: 2
    decay_mult: 0
  }
  convolution_param {
    num_output: 64
    kernel_size: 1
    weight_filler {
      type: "xavier"
    }
    bias_filler {
      type: "constant"
      value: 0.2
    }
  }
}
layer {
  name: "conv2/relu_3x3_reduce"
  type: "ReLU"
  bottom: "conv2/3x3_reduce"
  top: "conv2/3x3_reduce"
}
layer {
  name: "conv2/3x3"
  type: "Convolution"
  bottom: "conv2/3x3_reduce"
  top: "conv2/3x3"
  param {
    lr_mult: 1
    decay_mult: 1
  }
  param {
    lr_mult: 2
    decay_mult: 0
  }
  convolution_param {
    num_output: 192
    pad: 1
    kernel_size: 3
    weight_filler {
      type: "xavier"
    }
    bias_filler {
      type: "constant"
      value: 0.2
    }
  }
}
layer {
  name: "conv2/relu_3x3"
  type: "ReLU"
  bottom: "conv2/3x3"
  top: "conv2/3x3"
}
layer {
  name: "conv2/norm2"
  type: "LRN"
  bottom: "conv2/3x3"
  top: "conv2/norm2"
  lrn_param {
    local_size: 5
    alpha: 0.0001
    beta: 0.75
  }
}
layer {
  name: "pool2/3x3_s2"
  type: "Pooling"
  bottom: "conv2/norm2"
  top: "pool2/3x3_s2"
  pooling_param {
    pool: MAX
    kernel_size: 3
    stride: 2
  }
}
layer {
  name: "inception_3a/1x1"
  type: "Convolution"
  bottom: "pool2/3x3_s2"
  top: "inception_3a/1x1"
  param {
    lr_mult: 1
    decay_mult: 1
  }
  param {
    lr_mult: 2
    decay_mult: 0
  }
  convolution_param {
    num_output: 64
    kernel_size: 1
    weight_filler {
      type: "xavier"
    }
    bias_filler {
      type: "constant"
      value: 0.2
    }
  }
}
layer {
  name: "inception_3a/relu_1x1"
  type: "ReLU"
  bottom: "inception_3a/1x1"
  top: "inception_3a/1x1"
}
layer {
  name: "inception_3a/3x3_reduce"
  type: "Convolution"
  bottom: "pool2/3x3_s2"
  top: "inception_3a/3x3_reduce"
  param {
    lr_mult: 1
    decay_mult: 1
  }
  param {
    lr_mult: 2
    decay_mult: 0
  }
  convolution_param {
    num_output: 96
    kernel_size: 1
    weight_filler {
      type: "xavier"
    }
    bias_filler {
      type: "constant"
      value: 0.2
    }
  }
}
layer {
  name: "inception_3a/relu_3x3_reduce"
  type: "ReLU"
  bottom: "inception_3a/3x3_reduce"
  top: "inception_3a/3x3_reduce"
}
layer {
  name: "inception_3a/3x3"
  type: "Convolution"
  bottom: "inception_3a/3x3_reduce"
  top: "inception_3a/3x3"
  param {
    lr_mult: 1
    decay_mult: 1
  }
  param {
    lr_mult: 2
    decay_mult: 0
  }
  convolution_param {
    num_output: 128
    pad: 1
    kernel_size: 3
    weight_filler {
      type: "xavier"
    }
    bias_filler {
      type: "constant"
      value: 0.2
    }
  }
}
layer {
  name: "inception_3a/relu_3x3"
  type: "ReLU"
  bottom: "inception_3a/3x3"
  top: "inception_3a/3x3"
}
layer {
  name: "inception_3a/5x5_reduce"
  type: "Convolution"
  bottom: "pool2/3x3_s2"
  top: "inception_3a/5x5_reduce"
  param {
    lr_mult: 1
    decay_mult: 1
  }
  param {
    lr_mult: 2
    decay_mult: 0
  }
  convolution_param {
    num_output: 16
    kernel_size: 1
    weight_filler {
      type: "xavier"
    }
    bias_filler {
      type: "constant"
      value: 0.2
    }
  }
}
layer {
  name: "inception_3a/relu_5x5_reduce"
  type: "ReLU"
  bottom: "inception_3a/5x5_reduce"
  top: "inception_3a/5x5_reduce"
}
layer {
  name: "inception_3a/5x5"
  type: "Convolution"
  bottom: "inception_3a/5x5_reduce"
  top: "inception_3a/5x5"
  param {
    lr_mult: 1
    decay_mult: 1
  }
  param {
    lr_mult: 2
    decay_mult: 0
  }
  convolution_param {
    num_output: 32
    pad: 2
    kernel_size: 5
    weight_filler {
      type: "xavier"
    }
    bias_filler {
      type: "constant"
      value: 0.2
    }
  }
}
layer {
  name: "inception_3a/relu_5x5"
  type: "ReLU"
  bottom: "inception_3a/5x5"
  top: "inception_3a/5x5"
}
layer {
  name: "inception_3a/pool"
  type: "Pooling"
  bottom: "pool2/3x3_s2"
  top: "inception_3a/pool"
  pooling_param {
    pool: MAX
    kernel_size: 3
    stride: 1
    pad: 1
  }
}
layer {
  name: "inception_3a/pool_proj"
  type: "Convolution"
  bottom: "inception_3a/pool"
  top: "inception_3a/pool_proj"
  param {
    lr_mult: 1
    decay_mult: 1
  }
  param {
    lr_mult: 2
    decay_mult: 0
  }
  convolution_param {
    num_output: 32
    kernel_size: 1
    weight_filler {
      type: "xavier"
    }
    bias_filler {
      type: "constant"
      value: 0.2
    }
  }
}
layer {
  name: "inception_3a/relu_pool_proj"
  type: "ReLU"
  bottom: "inception_3a/pool_proj"
  top: "inception_3a/pool_proj"
}
layer {
  name: "inception_3a/output"
  type: "Concat"
  bottom: "inception_3a/1x1"
  bottom: "inception_3a/3x3"
  bottom: "inception_3a/5x5"
  bottom: "inception_3a/pool_proj"
  top: "inception_3a/output"
}
layer {
  name: "inception_3b/1x1"
  type: "Convolution"
  bottom: "inception_3a/output"
  top: "inception_3b/1x1"
  param {
    lr_mult: 1
    decay_mult: 1
  }
  param {
    lr_mult: 2
    decay_mult: 0
  }
  convolution_param {
    num_output: 128
    kernel_size: 1
    weight_filler {
      type: "xavier"
    }
    bias_filler {
      type: "constant"
      value: 0.2
    }
  }
}
layer {
  name: "inception_3b/relu_1x1"
  type: "ReLU"
  bottom: "inception_3b/1x1"
  top: "inception_3b/1x1"
}
layer {
  name: "inception_3b/3x3_reduce"
  type: "Convolution"
  bottom: "inception_3a/output"
  top: "inception_3b/3x3_reduce"
  param {
    lr_mult: 1
    decay_mult: 1
  }
  param {
    lr_mult: 2
    decay_mult: 0
  }
  convolution_param {
    num_output: 128
    kernel_size: 1
    weight_filler {
      type: "xavier"
    }
    bias_filler {
      type: "constant"
      value: 0.2
    }
  }
}
layer {
  name: "inception_3b/relu_3x3_reduce"
  type: "ReLU"
  bottom: "inception_3b/3x3_reduce"
  top: "inception_3b/3x3_reduce"
}
layer {
  name: "inception_3b/3x3"
  type: "Convolution"
  bottom: "inception_3b/3x3_reduce"
  top: "inception_3b/3x3"
  param {
    lr_mult: 1
    decay_mult: 1
  }
  param {
    lr_mult: 2
    decay_mult: 0
  }
  convolution_param {
    num_output: 192
    pad: 1
    kernel_size: 3
    weight_filler {
      type: "xavier"
    }
    bias_filler {
      type: "constant"
      value: 0.2
    }
  }
}
layer {
  name: "inception_3b/relu_3x3"
  type: "ReLU"
  bottom: "inception_3b/3x3"
  top: "inception_3b/3x3"
}
layer {
  name: "inception_3b/5x5_reduce"
  type: "Convolution"
  bottom: "inception_3a/output"
  top: "inception_3b/5x5_reduce"
  param {
    lr_mult: 1
    decay_mult: 1
  }
  param {
    lr_mult: 2
    decay_mult: 0
  }
  convolution_param {
    num_output: 32
    kernel_size: 1
    weight_filler {
      type: "xavier"
    }
    bias_filler {
      type: "constant"
      value: 0.2
    }
  }
}
layer {
  name: "inception_3b/relu_5x5_reduce"
  type: "ReLU"
  bottom: "inception_3b/5x5_reduce"
  top: "inception_3b/5x5_reduce"
}
layer {
  name: "inception_3b/5x5"
  type: "Convolution"
  bottom: "inception_3b/5x5_reduce"
  top: "inception_3b/5x5"
  param {
    lr_mult: 1
    decay_mult: 1
  }
  param {
    lr_mult: 2
    decay_mult: 0
  }
  convolution_param {
    num_output: 96
    pad: 2
    kernel_size: 5
    weight_filler {
      type: "xavier"
    }
    bias_filler {
      type: "constant"
      value: 0.2
    }
  }
}
layer {
  name: "inception_3b/relu_5x5"
  type: "ReLU"
  bottom: "inception_3b/5x5"
  top: "inception_3b/5x5"
}
layer {
  name: "inception_3b/pool"
  type: "Pooling"
  bottom: "inception_3a/output"
  top: "inception_3b/pool"
  pooling_param {
    pool: MAX
    kernel_size: 3
    stride: 1
    pad: 1
  }
}
layer {
  name: "inception_3b/pool_proj"
  type: "Convolution"
  bottom: "inception_3b/pool"
  top: "inception_3b/pool_proj"
  param {
    lr_mult: 1
    decay_mult: 1
  }
  param {
    lr_mult: 2
    decay_mult: 0
  }
  convolution_param {
    num_output: 64
    kernel_size: 1
    weight_filler {
      type: "xavier"
    }
    bias_filler {
      type: "constant"
      value: 0.2
    }
  }
}
layer {
  name: "inception_3b/relu_pool_proj"
  type: "ReLU"
  bottom: "inception_3b/pool_proj"
  top: "inception_3b/pool_proj"
}
layer {
  name: "inception_3b/output"
  type: "Concat"
  bottom: "inception_3b/1x1"
  bottom: "inception_3b/3x3"
  bottom: "inception_3b/5x5"
  bottom: "inception_3b/pool_proj"
  top: "inception_3b/output"
}
layer {
  name: "pool3/3x3_s2"
  type: "Pooling"
  bottom: "inception_3b/output"
  top: "pool3/3x3_s2"
  pooling_param {
    pool: MAX
    kernel_size: 3
    stride: 2
  }
}
layer {
  name: "inception_4a/1x1"
  type: "Convolution"
  bottom: "pool3/3x3_s2"
  top: "inception_4a/1x1"
  param {
    lr_mult: 1
    decay_mult: 1
  }
  param {
    lr_mult: 2
    decay_mult: 0
  }
  convolution_param {
    num_output: 192
    kernel_size: 1
    weight_filler {
      type: "xavier"
    }
    bias_filler {
      type: "constant"
      value: 0.2
    }
  }
}
layer {
  name: "inception_4a/relu_1x1"
  type: "ReLU"
  bottom: "inception_4a/1x1"
  top: "inception_4a/1x1"
}
layer {
  name: "inception_4a/3x3_reduce"
  type: "Convolution"
  bottom: "pool3/3x3_s2"
  top: "inception_4a/3x3_reduce"
  param {
    lr_mult: 1
    decay_mult: 1
  }
  param {
    lr_mult: 2
    decay_mult: 0
  }
  convolution_param {
    num_output: 96
    kernel_size: 1
    weight_filler {
      type: "xavier"
    }
    bias_filler {
      type: "constant"
      value: 0.2
    }
  }
}
layer {
  name: "inception_4a/relu_3x3_reduce"
  type: "ReLU"
  bottom: "inception_4a/3x3_reduce"
  top: "inception_4a/3x3_reduce"
}
layer {
  name: "inception_4a/3x3"
  type: "Convolution"
  bottom: "inception_4a/3x3_reduce"
  top: "inception_4a/3x3"
  param {
    lr_mult: 1
    decay_mult: 1
  }
  param {
    lr_mult: 2
    decay_mult: 0
  }
  convolution_param {
    num_output: 208
    pad: 1
    kernel_size: 3
    weight_filler {
      type: "xavier"
    }
    bias_filler {
      type: "constant"
      value: 0.2
    }
  }
}
layer {
  name: "inception_4a/relu_3x3"
  type: "ReLU"
  bottom: "inception_4a/3x3"
  top: "inception_4a/3x3"
}
layer {
  name: "inception_4a/5x5_reduce"
  type: "Convolution"
  bottom: "pool3/3x3_s2"
  top: "inception_4a/5x5_reduce"
  param {
    lr_mult: 1
    decay_mult: 1
  }
  param {
    lr_mult: 2
    decay_mult: 0
  }
  convolution_param {
    num_output: 16
    kernel_size: 1
    weight_filler {
      type: "xavier"
    }
    bias_filler {
      type: "constant"
      value: 0.2
    }
  }
}
layer {
  name: "inception_4a/relu_5x5_reduce"
  type: "ReLU"
  bottom: "inception_4a/5x5_reduce"
  top: "inception_4a/5x5_reduce"
}
layer {
  name: "inception_4a/5x5"
  type: "Convolution"
  bottom: "inception_4a/5x5_reduce"
  top: "inception_4a/5x5"
  param {
    lr_mult: 1
    decay_mult: 1
  }
  param {
    lr_mult: 2
    decay_mult: 0
  }
  convolution_param {
    num_output: 48
    pad: 2
    kernel_size: 5
    weight_filler {
      type: "xavier"
    }
    bias_filler {
      type: "constant"
      value: 0.2
    }
  }
}
layer {
  name: "inception_4a/relu_5x5"
  type: "ReLU"
  bottom: "inception_4a/5x5"
  top: "inception_4a/5x5"
}
layer {
  name: "inception_4a/pool"
  type: "Pooling"
  bottom: "pool3/3x3_s2"
  top: "inception_4a/pool"
  pooling_param {
    pool: MAX
    kernel_size: 3
    stride: 1
    pad: 1
  }
}
layer {
  name: "inception_4a/pool_proj"
  type: "Convolution"
  bottom: "inception_4a/pool"
  top: "inception_4a/pool_proj"
  param {
    lr_mult: 1
    decay_mult: 1
  }
  param {
    lr_mult: 2
    decay_mult: 0
  }
  convolution_param {
    num_output: 64
    kernel_size: 1
    weight_filler {
      type: "xavier"
    }
    bias_filler {
      type: "constant"
      value: 0.2
    }
  }
}
layer {
  name: "inception_4a/relu_pool_proj"
  type: "ReLU"
  bottom: "inception_4a/pool_proj"
  top: "inception_4a/pool_proj"
}
layer {
  name: "inception_4a/output"
  type: "Concat"
  bottom: "inception_4a/1x1"
  bottom: "inception_4a/3x3"
  bottom: "inception_4a/5x5"
  bottom: "inception_4a/pool_proj"
  top: "inception_4a/output"
}
layer {
  name: "loss1/ave_pool"
  type: "Pooling"
  bottom: "inception_4a/output"
  top: "loss1/ave_pool"
  pooling_param {
    pool: AVE
    kernel_size: 5
    stride: 3
  }
}
layer {
  name: "loss1/conv"
  type: "Convolution"
  bottom: "loss1/ave_pool"
  top: "loss1/conv"
  param {
    lr_mult: 1
    decay_mult: 1
  }
  param {
    lr_mult: 2
    decay_mult: 0
  }
  convolution_param {
    num_output: 128
    kernel_size: 1
    weight_filler {
      type: "xavier"
    }
    bias_filler {
      type: "constant"
      value: 0.2
    }
  }
}
layer {
  name: "loss1/relu_conv"
  type: "ReLU"
  bottom: "loss1/conv"
  top: "loss1/conv"
}
layer {
  name: "loss1/fc"
  type: "InnerProduct"
  bottom: "loss1/conv"
  top: "loss1/fc"
  param {
    lr_mult: 1
    decay_mult: 1
  }
  param {
    lr_mult: 2
    decay_mult: 0
  }
  inner_product_param {
    num_output: 1024
    weight_filler {
      type: "xavier"
    }
    bias_filler {
      type: "constant"
      value: 0.2
    }
  }
}
layer {
  name: "loss1/relu_fc"
  type: "ReLU"
  bottom: "loss1/fc"
  top: "loss1/fc"
}
layer {
  name: "loss1/drop_fc"
  type: "Dropout"
  bottom: "loss1/fc"
  top: "loss1/fc"
  dropout_param {
    dropout_ratio: 0.7
  }
}
layer {
  name: "loss1/classifier"
  type: "InnerProduct"
  bottom: "loss1/fc"
  top: "loss1/classifier"
  param {
    lr_mult: 1
    decay_mult: 1
  }
  param {
…
I1115 11:29:53.570778 19108 net.cpp:165] Memory required for data: 1051340748
I1115 11:29:53.570785 19108 layer_factory.hpp:77] Creating layer inception_4c/pool
I1115 11:29:53.570799 19108 net.cpp:100] Creating Layer inception_4c/pool
I1115 11:29:53.570807 19108 net.cpp:434] inception_4c/pool <- inception_4b/output_inception_4b/output_0_split_3
I1115 11:29:53.570818 19108 net.cpp:408] inception_4c/pool -> inception_4c/pool
I1115 11:29:53.570899 19108 net.cpp:150] Setting up inception_4c/pool
I1115 11:29:53.570912 19108 net.cpp:157] Top shape: 24 512 14 14 (2408448)
I1115 11:29:53.570919 19108 net.cpp:165] Memory required for data: 1060974540
I1115 11:29:53.570925 19108 layer_factory.hpp:77] Creating layer inception_4c/pool_proj
I1115 11:29:53.570940 19108 net.cpp:100] Creating Layer inception_4c/pool_proj
I1115 11:29:53.570948 19108 net.cpp:434] inception_4c/pool_proj <- inception_4c/pool
I1115 11:29:53.570963 19108 net.cpp:408] inception_4c/pool_proj -> inception_4c/pool_proj
I1115 11:29:53.571835 19108 net.cpp:150] Setting up inception_4c/pool_proj
I1115 11:29:53.571849 19108 net.cpp:157] Top shape: 24 64 14 14 (301056)
I1115 11:29:53.571856 19108 net.cpp:165] Memory required for data: 1062178764
I1115 11:29:53.571867 19108 layer_factory.hpp:77] Creating layer inception_4c/relu_pool_proj
I1115 11:29:53.571877 19108 net.cpp:100] Creating Layer inception_4c/relu_pool_proj
I1115 11:29:53.571887 19108 net.cpp:434] inception_4c/relu_pool_proj <- inception_4c/pool_proj
I1115 11:29:53.571898 19108 net.cpp:395] inception_4c/relu_pool_proj -> inception_4c/pool_proj (in-place)
I1115 11:29:53.571912 19108 net.cpp:150] Setting up inception_4c/relu_pool_proj
I1115 11:29:53.571920 19108 net.cpp:157] Top shape: 24 64 14 14 (301056)
I1115 11:29:53.571926 19108 net.cpp:165] Memory required for data: 1063382988
I1115 11:29:53.571933 19108 layer_factory.hpp:77] Creating layer inception_4c/output
I1115 11:29:53.571943 19108 net.cpp:100] Creating Layer inception_4c/output
I1115 11:29:53.571950 19108 net.cpp:434] inception_4c/output <- inception_4c/1x1
I1115 11:29:53.571959 19108 net.cpp:434] inception_4c/output <- inception_4c/3x3
I1115 11:29:53.571967 19108 net.cpp:434] inception_4c/output <- inception_4c/5x5
I1115 11:29:53.571976 19108 net.cpp:434] inception_4c/output <- inception_4c/pool_proj
I1115 11:29:53.571988 19108 net.cpp:408] inception_4c/output -> inception_4c/output
I1115 11:29:53.572039 19108 net.cpp:150] Setting up inception_4c/output
I1115 11:29:53.572051 19108 net.cpp:157] Top shape: 24 512 14 14 (2408448)
I1115 11:29:53.572057 19108 net.cpp:165] Memory required for data: 1073016780
I1115 11:29:53.572062 19108 layer_factory.hpp:77] Creating layer inception_4c/output_inception_4c/output_0_split
I1115 11:29:53.572090 19108 net.cpp:100] Creating Layer inception_4c/output_inception_4c/output_0_split
I1115 11:29:53.572099 19108 net.cpp:434] inception_4c/output_inception_4c/output_0_split <- inception_4c/output
I1115 11:29:53.572114 19108 net.cpp:408] inception_4c/output_inception_4c/output_0_split -> inception_4c/output_inception_4c/output_0_split_0
I1115 11:29:53.572129 19108 net.cpp:408] inception_4c/output_inception_4c/output_0_split -> inception_4c/output_inception_4c/output_0_split_1
I1115 11:29:53.572140 19108 net.cpp:408] inception_4c/output_inception_4c/output_0_split -> inception_4c/output_inception_4c/output_0_split_2
I1115 11:29:53.572154 19108 net.cpp:408] inception_4c/output_inception_4c/output_0_split -> inception_4c/output_inception_4c/output_0_split_3
I1115 11:29:53.572296 19108 net.cpp:150] Setting up inception_4c/output_inception_4c/output_0_split
I1115 11:29:53.572310 19108 net.cpp:157] Top shape: 24 512 14 14 (2408448)
I1115 11:29:53.572319 19108 net.cpp:157] Top shape: 24 512 14 14 (2408448)
I1115 11:29:53.572326 19108 net.cpp:157] Top shape: 24 512 14 14 (2408448)
I1115 11:29:53.572335 19108 net.cpp:157] Top shape: 24 512 14 14 (2408448)
I1115 11:29:53.572340 19108 net.cpp:165] Memory required for data: 1111551948
I1115 11:29:53.572347 19108 layer_factory.hpp:77] Creating layer inception_4d/1x1
I1115 11:29:53.572365 19108 net.cpp:100] Creating Layer inception_4d/1x1
I1115 11:29:53.572371 19108 net.cpp:434] inception_4d/1x1 <- inception_4c/output_inception_4c/output_0_split_0
I1115 11:29:53.572386 19108 net.cpp:408] inception_4d/1x1 -> inception_4d/1x1
I1115 11:29:53.574287 19108 net.cpp:150] Setting up inception_4d/1x1
I1115 11:29:53.574309 19108 net.cpp:157] Top shape: 24 112 14 14 (526848)
I1115 11:29:53.574316 19108 net.cpp:165] Memory required for data: 1113659340
I1115 11:29:53.574329 19108 layer_factory.hpp:77] Creating layer inception_4d/relu_1x1
I1115 11:29:53.574340 19108 net.cpp:100] Creating Layer inception_4d/relu_1x1
I1115 11:29:53.574348 19108 net.cpp:434] inception_4d/relu_1x1 <- inception_4d/1x1
I1115 11:29:53.740624 19108 net.cpp:395] inception_4d/relu_1x1 -> inception_4d/1x1 (in-place)
I1115 11:29:53.740660 19108 net.cpp:150] Setting up inception_4d/relu_1x1
I1115 11:29:53.740672 19108 net.cpp:157] Top shape: 24 112 14 14 (526848)
I1115 11:29:53.740677 19108 net.cpp:165] Memory required for data: 1115766732
I1115 11:29:53.740684 19108 layer_factory.hpp:77] Creating layer inception_4d/3x3_reduce
I1115 11:29:53.740705 19108 net.cpp:100] Creating Layer inception_4d/3x3_reduce
I1115 11:29:53.740712 19108 net.cpp:434] inception_4d/3x3_reduce <- inception_4c/output_inception_4c/output_0_split_1
I1115 11:29:53.740725 19108 net.cpp:408] inception_4d/3x3_reduce -> inception_4d/3x3_reduce
I1115 11:29:53.741925 19108 net.cpp:150] Setting up inception_4d/3x3_reduce
I1115 11:29:53.741940 19108 net.cpp:157] Top shape: 24 144 14 14 (677376)
I1115 11:29:53.741945 19108 net.cpp:165] Memory required for data: 1118476236
I1115 11:29:53.741956 19108 layer_factory.hpp:77] Creating layer inception_4d/relu_3x3_reduce
I1115 11:29:53.741966 19108 net.cpp:100] Creating Layer inception_4d/relu_3x3_reduce
I1115 11:29:53.741974 19108 net.cpp:434] inception_4d/relu_3x3_reduce <- inception_4d/3x3_reduce
I1115 11:29:53.741983 19108 net.cpp:395] inception_4d/relu_3x3_reduce -> inception_4d/3x3_reduce (in-place)
I1115 11:29:53.741994 19108 net.cpp:150] Setting up inception_4d/relu_3x3_reduce
I1115 11:29:53.742002 19108 net.cpp:157] Top shape: 24 144 14 14 (677376)
I1115 11:29:53.742007 19108 net.cpp:165] Memory required for data: 1121185740
I1115 11:29:53.742012 19108 layer_factory.hpp:77] Creating layer inception_4d/3x3
I1115 11:29:53.742029 19108 net.cpp:100] Creating Layer inception_4d/3x3
I1115 11:29:53.742035 19108 net.cpp:434] inception_4d/3x3 <- inception_4d/3x3_reduce
I1115 11:29:53.742048 19108 net.cpp:408] inception_4d/3x3 -> inception_4d/3x3
I1115 11:29:53.747262 19108 net.cpp:150] Setting up inception_4d/3x3
I1115 11:29:53.747289 19108 net.cpp:157] Top shape: 24 288 14 14 (1354752)
I1115 11:29:53.747324 19108 net.cpp:165] Memory required for data: 1126604748
I1115 11:29:53.747339 19108 layer_factory.hpp:77] Creating layer inception_4d/relu_3x3
I1115 11:29:53.747351 19108 net.cpp:100] Creating Layer inception_4d/relu_3x3
I1115 11:29:53.747360 19108 net.cpp:434] inception_4d/relu_3x3 <- inception_4d/3x3
I1115 11:29:53.747371 19108 net.cpp:395] inception_4d/relu_3x3 -> inception_4d/3x3 (in-place)
I1115 11:29:53.747386 19108 net.cpp:150] Setting up inception_4d/relu_3x3
I1115 11:29:53.747395 19108 net.cpp:157] Top shape: 24 288 14 14 (1354752)
I1115 11:29:53.747401 19108 net.cpp:165] Memory required for data: 1132023756
I1115 11:29:53.747408 19108 layer_factory.hpp:77] Creating layer inception_4d/5x5_reduce
I1115 11:29:53.747426 19108 net.cpp:100] Creating Layer inception_4d/5x5_reduce
I1115 11:29:53.747436 19108 net.cpp:434] inception_4d/5x5_reduce <- inception_4c/output_inception_4c/output_0_split_2
I1115 11:29:53.747450 19108 net.cpp:408] inception_4d/5x5_reduce -> inception_4d/5x5_reduce
I1115 11:29:53.748183 19108 net.cpp:150] Setting up inception_4d/5x5_reduce
I1115 11:29:53.748196 19108 net.cpp:157] Top shape: 24 32 14 14 (150528)
I1115 11:29:53.748203 19108 net.cpp:165] Memory required for data: 1132625868
I1115 11:29:53.748215 19108 layer_factory.hpp:77] Creating layer inception_4d/relu_5x5_reduce
I1115 11:29:53.748235 19108 net.cpp:100] Creating Layer inception_4d/relu_5x5_reduce
I1115 11:29:53.748245 19108 net.cpp:434] inception_4d/relu_5x5_reduce <- inception_4d/5x5_reduce
I1115 11:29:53.748255 19108 net.cpp:395] inception_4d/relu_5x5_reduce -> inception_4d/5x5_reduce (in-place)
I1115 11:29:53.748267 19108 net.cpp:150] Setting up inception_4d/relu_5x5_reduce
I1115 11:29:53.748276 19108 net.cpp:157] Top shape: 24 32 14 14 (150528)
I1115 11:29:53.748283 19108 net.cpp:165] Memory required for data: 1133227980
I1115 11:29:53.748289 19108 layer_factory.hpp:77] Creating layer inception_4d/5x5
I1115 11:29:53.748306 19108 net.cpp:100] Creating Layer inception_4d/5x5
I1115 11:29:53.748314 19108 net.cpp:434] inception_4d/5x5 <- inception_4d/5x5_reduce
I1115 11:29:53.748332 19108 net.cpp:408] inception_4d/5x5 -> inception_4d/5x5
I1115 11:29:53.749413 19108 net.cpp:150] Setting up inception_4d/5x5
I1115 11:29:53.749426 19108 net.cpp:157] Top shape: 24 64 14 14 (301056)
I1115 11:29:53.749433 19108 net.cpp:165] Memory required for data: 1134432204
I1115 11:29:53.749444 19108 layer_factory.hpp:77] Creating layer inception_4d/relu_5x5
I1115 11:29:53.749454 19108 net.cpp:100] Creating Layer inception_4d/relu_5x5
I1115 11:29:53.749461 19108 net.cpp:434] inception_4d/relu_5x5 <- inception_4d/5x5
I1115 11:29:53.749471 19108 net.cpp:395] inception_4d/relu_5x5 -> inception_4d/5x5 (in-place)
I1115 11:29:53.749483 19108 net.cpp:150] Setting up inception_4d/relu_5x5
I1115 11:29:53.749492 19108 net.cpp:157] Top shape: 24 64 14 14 (301056)
I1115 11:29:53.749498 19108 net.cpp:165] Memory required for data: 1135636428
I1115 11:29:53.749505 19108 layer_factory.hpp:77] Creating layer inception_4d/pool
I1115 11:29:53.749517 19108 net.cpp:100] Creating Layer inception_4d/pool
I1115 11:29:53.749526 19108 net.cpp:434] inception_4d/pool <- inception_4c/output_inception_4c/output_0_split_3
I1115 11:29:53.749536 19108 net.cpp:408] inception_4d/pool -> inception_4d/pool
I1115 11:29:53.749620 19108 net.cpp:150] Setting up inception_4d/pool
I1115 11:29:53.749632 19108 net.cpp:157] Top shape: 24 512 14 14 (2408448)
I1115 11:29:53.749639 19108 net.cpp:165] Memory required for data: 1145270220
I1115 11:29:53.749644 19108 layer_factory.hpp:77] Creating layer inception_4d/pool_proj
I1115 11:29:53.749661 19108 net.cpp:100] Creating Layer inception_4d/pool_proj
I1115 11:29:53.749670 19108 net.cpp:434] inception_4d/pool_proj <- inception_4d/pool
I1115 11:29:53.749683 19108 net.cpp:408] inception_4d/pool_proj -> inception_4d/pool_proj
I1115 11:29:53.750536 19108 net.cpp:150] Setting up inception_4d/pool_proj
I1115 11:29:53.750550 19108 net.cpp:157] Top shape: 24 64 14 14 (301056)
I1115 11:29:53.750574 19108 net.cpp:165] Memory required for data: 1146474444
I1115 11:29:53.750587 19108 layer_factory.hpp:77] Creating layer inception_4d/relu_pool_proj
I1115 11:29:53.750597 19108 net.cpp:100] Creating Layer inception_4d/relu_pool_proj
I1115 11:29:53.750605 19108 net.cpp:434] inception_4d/relu_pool_proj <- inception_4d/pool_proj
I1115 11:29:53.750617 19108 net.cpp:395] inception_4d/relu_pool_proj -> inception_4d/pool_proj (in-place)
I1115 11:29:53.750628 19108 net.cpp:150] Setting up inception_4d/relu_pool_proj
I1115 11:29:53.750638 19108 net.cpp:157] Top shape: 24 64 14 14 (301056)
I1115 11:29:53.750643 19108 net.cpp:165] Memory required for data: 1147678668
I1115 11:29:53.750649 19108 layer_factory.hpp:77] Creating layer inception_4d/output
I1115 11:29:53.750663 19108 net.cpp:100] Creating Layer inception_4d/output
I1115 11:29:53.750669 19108 net.cpp:434] inception_4d/output <- inception_4d/1x1
I1115 11:29:53.750679 19108 net.cpp:434] inception_4d/output <- inception_4d/3x3
I1115 11:29:53.750687 19108 net.cpp:434] inception_4d/output <- inception_4d/5x5
I1115 11:29:53.750695 19108 net.cpp:434] inception_4d/output <- inception_4d/pool_proj
I1115 11:29:53.750705 19108 net.cpp:408] inception_4d/output -> inception_4d/output
I1115 11:29:53.750759 19108 net.cpp:150] Setting up inception_4d/output
I1115 11:29:53.750771 19108 net.cpp:157] Top shape: 24 528 14 14 (2483712)
I1115 11:29:53.750777 19108 net.cpp:165] Memory required for data: 1157613516
I1115 11:29:53.750783 19108 layer_factory.hpp:77] Creating layer inception_4d/output_inception_4d/output_0_split
I1115 11:29:53.750793 19108 net.cpp:100] Creating Layer inception_4d/output_inception_4d/output_0_split
I1115 11:29:53.750802 19108 net.cpp:434] inception_4d/output_inception_4d/output_0_split <- inception_4d/output
I1115 11:29:53.750814 19108 net.cpp:408] inception_4d/output_inception_4d/output_0_split -> inception_4d/output_inception_4d/output_0_split_0
I1115 11:29:53.750828 19108 net.cpp:408] inception_4d/output_inception_4d/output_0_split -> inception_4d/output_inception_4d/output_0_split_1
I1115 11:29:53.855119 19108 net.cpp:408] inception_4d/output_inception_4d/output_0_split -> inception_4d/output_inception_4d/output_0_split_2
I1115 11:29:53.855155 19108 net.cpp:408] inception_4d/output_inception_4d/output_0_split -> inception_4d/output_inception_4d/output_0_split_3
I1115 11:29:53.855167 19108 net.cpp:408] inception_4d/output_inception_4d/output_0_split -> inception_4d/output_inception_4d/output_0_split_4
I1115 11:29:53.855372 19108 net.cpp:150] Setting up inception_4d/output_inception_4d/output_0_split
I1115 11:29:53.855391 19108 net.cpp:157] Top shape: 24 528 14 14 (2483712)
I1115 11:29:53.855399 19108 net.cpp:157] Top shape: 24 528 14 14 (2483712)
I1115 11:29:53.855407 19108 net.cpp:157] Top shape: 24 528 14 14 (2483712)
I1115 11:29:53.855417 19108 net.cpp:157] Top shape: 24 528 14 14 (2483712)
I1115 11:29:53.855424 19108 net.cpp:157] Top shape: 24 528 14 14 (2483712)
I1115 11:29:53.855430 19108 net.cpp:165] Memory required for data: 1207287756
I1115 11:29:53.855438 19108 layer_factory.hpp:77] Creating layer loss2/ave_pool
I1115 11:29:53.855451 19108 net.cpp:100] Creating Layer loss2/ave_pool
I1115 11:29:53.855459 19108 net.cpp:434] loss2/ave_pool <- inception_4d/output_inception_4d/output_0_split_0
I1115 11:29:53.855473 19108 net.cpp:408] loss2/ave_pool -> loss2/ave_pool
I1115 11:29:53.855525 19108 net.cpp:150] Setting up loss2/ave_pool
I1115 11:29:53.855537 19108 net.cpp:157] Top shape: 24 528 4 4 (202752)
I1115 11:29:53.855543 19108 net.cpp:165] Memory required for data: 1208098764
I1115 11:29:53.855551 19108 layer_factory.hpp:77] Creating layer loss2/conv
I1115 11:29:53.855569 19108 net.cpp:100] Creating Layer loss2/conv
I1115 11:29:53.855577 19108 net.cpp:434] loss2/conv <- loss2/ave_pool
I1115 11:29:53.855599 19108 net.cpp:408] loss2/conv -> loss2/conv
I1115 11:29:53.857705 19108 net.cpp:150] Setting up loss2/conv
I1115 11:29:53.857729 19108 net.cpp:157] Top shape: 24 128 4 4 (49152)
I1115 11:29:53.857738 19108 net.cpp:165] Memory required for data: 1208295372
I1115 11:29:53.857775 19108 layer_factory.hpp:77] Creating layer loss2/relu_conv
I1115 11:29:53.857791 19108 net.cpp:100] Creating Layer loss2/relu_conv
I1115 11:29:53.857800 19108 net.cpp:434] loss2/relu_conv <- loss2/conv
I1115 11:29:53.857811 19108 net.cpp:395] loss2/relu_conv -> loss2/conv (in-place)
I1115 11:29:53.857826 19108 net.cpp:150] Setting up loss2/relu_conv
I1115 11:29:53.857836 19108 net.cpp:157] Top shape: 24 128 4 4 (49152)
I1115 11:29:53.857842 19108 net.cpp:165] Memory required for data: 1208491980
I1115 11:29:53.857848 19108 layer_factory.hpp:77] Creating layer loss2/fc
I1115 11:29:53.857864 19108 net.cpp:100] Creating Layer loss2/fc
I1115 11:29:53.857872 19108 net.cpp:434] loss2/fc <- loss2/conv
I1115 11:29:53.857883 19108 net.cpp:408] loss2/fc -> loss2/fc
I1115 11:29:53.883469 19108 net.cpp:150] Setting up loss2/fc
I1115 11:29:53.883498 19108 net.cpp:157] Top shape: 24 1024 (24576)
I1115 11:29:53.883504 19108 net.cpp:165] Memory required for data: 1208590284
I1115 11:29:53.883517 19108 layer_factory.hpp:77] Creating layer loss2/relu_fc
I1115 11:29:53.883532 19108 net.cpp:100] Creating Layer loss2/relu_fc
I1115 11:29:53.883540 19108 net.cpp:434] loss2/relu_fc <- loss2/fc
I1115 11:29:53.883553 19108 net.cpp:395] loss2/relu_fc -> loss2/fc (in-place)
I1115 11:29:53.883566 19108 net.cpp:150] Setting up loss2/relu_fc
I1115 11:29:53.883574 19108 net.cpp:157] Top shape: 24 1024 (24576)
I1115 11:29:53.883579 19108 net.cpp:165] Memory required for data: 1208688588
I1115 11:29:53.883584 19108 layer_factory.hpp:77] Creating layer loss2/drop_fc
I1115 11:29:53.883595 19108 net.cpp:100] Creating Layer loss2/drop_fc
I1115 11:29:53.883601 19108 net.cpp:434] loss2/drop_fc <- loss2/fc
I1115 11:29:53.883610 19108 net.cpp:395] loss2/drop_fc -> loss2/fc (in-place)
I1115 11:29:53.883658 19108 net.cpp:150] Setting up loss2/drop_fc
I1115 11:29:53.883668 19108 net.cpp:157] Top shape: 24 1024 (24576)
I1115 11:29:53.883673 19108 net.cpp:165] Memory required for data: 1208786892
I1115 11:29:53.883679 19108 layer_factory.hpp:77] Creating layer loss2/classifier
I1115 11:29:53.883693 19108 net.cpp:100] Creating Layer loss2/classifier
I1115 11:29:53.883699 19108 net.cpp:434] loss2/classifier <- loss2/fc
I1115 11:29:53.883710 19108 net.cpp:408] loss2/classifier -> loss2/classifier
I1115 11:29:53.895117 19108 net.cpp:150] Setting up loss2/classifier
I1115 11:29:53.895138 19108 net.cpp:157] Top shape: 24 1000 (24000)
I1115 11:29:53.895143 19108 net.cpp:165] Memory required for data: 1208882892
I1115 11:29:53.895153 19108 layer_factory.hpp:77] Creating layer loss2/classifier_loss2/classifier_0_split
I1115 11:29:53.895164 19108 net.cpp:100] Creating Layer loss2/classifier_loss2/classifier_0_split
I1115 11:29:53.895171 19108 net.cpp:434] loss2/classifier_loss2/classifier_0_split <- loss2/classifier
I1115 11:29:53.895184 19108 net.cpp:408] loss2/classifier_loss2/classifier_0_split -> loss2/classifier_loss2/classifier_0_split_0
I1115 11:29:53.895196 19108 net.cpp:408] loss2/classifier_loss2/classifier_0_split -> loss2/classifier_loss2/classifier_0_split_1
I1115 11:29:53.895206 19108 net.cpp:408] loss2/classifier_loss2/classifier_0_split -> loss2/classifier_loss2/classifier_0_split_2
I1115 11:29:53.895299 19108 net.cpp:150] Setting up loss2/classifier_loss2/classifier_0_split
I1115 11:29:53.895308 19108 net.cpp:157] Top shape: 24 1000 (24000)
I1115 11:29:53.895315 19108 net.cpp:157] Top shape: 24 1000 (24000)
I1115 11:29:53.895321 19108 net.cpp:157] Top shape: 24 1000 (24000)
I1115 11:29:53.895326 19108 net.cpp:165] Memory required for data: 1209170892
I1115 11:29:53.895331 19108 layer_factory.hpp:77] Creating layer loss2/loss
I1115 11:29:53.895340 19108 net.cpp:100] Creating Layer loss2/loss
I1115 11:29:53.895346 19108 net.cpp:434] loss2/loss <- loss2/classifier_loss2/classifier_0_split_0
I1115 11:29:53.895355 19108 net.cpp:434] loss2/loss <- label_data_1_split_3
…
I1115 11:29:53.895737 19108 net.cpp:150] Setting up loss2/top-5
I1115 11:29:53.895745 19108 net.cpp:157] Top shape: (1)
I1115 11:29:53.895748 19108 net.cpp:165] Memory required for data: 1209170904
I1115 11:29:53.895753 19108 layer_factory.hpp:77] Creating layer inception_4e/1x1
I1115 11:29:53.895771 19108 net.cpp:100] Creating Layer inception_4e/1x1
I1115 11:29:53.895777 19108 net.cpp:434] inception_4e/1x1 <- inception_4d/output_inception_4d/output_0_split_1
I1115 11:29:53.895787 19108 net.cpp:408] inception_4e/1x1 -> inception_4e/1x1
I1115 11:29:53.897406 19108 net.cpp:150] Setting up inception_4e/1x1
I1115 11:29:53.897423 19108 net.cpp:157] Top shape: 24 256 14 14 (1204224)
I1115 11:29:53.897428 19108 net.cpp:165] Memory required for data: 1213987800
I1115 11:29:54.064352 19108 layer_factory.hpp:77] Creating layer inception_4e/relu_1x1
I1115 11:29:54.064388 19108 net.cpp:100] Creating Layer inception_4e/relu_1x1
I1115 11:29:54.064400 19108 net.cpp:434] inception_4e/relu_1x1 <- inception_4e/1x1
I1115 11:29:54.064414 19108 net.cpp:395] inception_4e/relu_1x1 -> inception_4e/1x1 (in-place)
I1115 11:29:54.064431 19108 net.cpp:150] Setting up inception_4e/relu_1x1
I1115 11:29:54.064441 19108 net.cpp:157] Top shape: 24 256 14 14 (1204224)
I1115 11:29:54.064448 19108 net.cpp:165] Memory required for data: 1218804696
I1115 11:29:54.064455 19108 layer_factory.hpp:77] Creating layer inception_4e/3x3_reduce
I1115 11:29:54.064502 19108 net.cpp:100] Creating Layer inception_4e/3x3_reduce
I1115 11:29:54.064512 19108 net.cpp:434] inception_4e/3x3_reduce <- inception_4d/output_inception_4d/output_0_split_2
I1115 11:29:54.064524 19108 net.cpp:408] inception_4e/3x3_reduce -> inception_4e/3x3_reduce
I1115 11:29:54.066512 19108 net.cpp:150] Setting up inception_4e/3x3_reduce
I1115 11:29:54.066532 19108 net.cpp:157] Top shape: 24 160 14 14 (752640)
I1115 11:29:54.066539 19108 net.cpp:165] Memory required for data: 1221815256
I1115 11:29:54.066550 19108 layer_factory.hpp:77] Creating layer inception_4e/relu_3x3_reduce
I1115 11:29:54.066560 19108 net.cpp:100] Creating Layer inception_4e/relu_3x3_reduce
I1115 11:29:54.066567 19108 net.cpp:434] inception_4e/relu_3x3_reduce <- inception_4e/3x3_reduce
I1115 11:29:54.066578 19108 net.cpp:395] inception_4e/relu_3x3_reduce -> inception_4e/3x3_reduce (in-place)
I1115 11:29:54.066589 19108 net.cpp:150] Setting up inception_4e/relu_3x3_reduce
I1115 11:29:54.066597 19108 net.cpp:157] Top shape: 24 160 14 14 (752640)
I1115 11:29:54.066602 19108 net.cpp:165] Memory required for data: 1224825816
I1115 11:29:54.066607 19108 layer_factory.hpp:77] Creating layer inception_4e/3x3
I1115 11:29:54.066622 19108 net.cpp:100] Creating Layer inception_4e/3x3
I1115 11:29:54.066628 19108 net.cpp:434] inception_4e/3x3 <- inception_4e/3x3_reduce
I1115 11:29:54.066638 19108 net.cpp:408] inception_4e/3x3 -> inception_4e/3x3
I1115 11:29:54.072912 19108 net.cpp:150] Setting up inception_4e/3x3
I1115 11:29:54.072938 19108 net.cpp:157] Top shape: 24 320 14 14 (1505280)
I1115 11:29:54.072945 19108 net.cpp:165] Memory required for data: 1230846936
I1115 11:29:54.072958 19108 layer_factory.hpp:77] Creating layer inception_4e/relu_3x3
I1115 11:29:54.072970 19108 net.cpp:100] Creating Layer inception_4e/relu_3x3
I1115 11:29:54.072979 19108 net.cpp:434] inception_4e/relu_3x3 <- inception_4e/3x3
I1115 11:29:54.072993 19108 net.cpp:395] inception_4e/relu_3x3 -> inception_4e/3x3 (in-place)
I1115 11:29:54.073009 19108 net.cpp:150] Setting up inception_4e/relu_3x3
I1115 11:29:54.073017 19108 net.cpp:157] Top shape: 24 320 14 14 (1505280)
I1115 11:29:54.073024 19108 net.cpp:165] Memory required for data: 1236868056
I1115 11:29:54.073029 19108 layer_factory.hpp:77] Creating layer inception_4e/5x5_reduce
I1115 11:29:54.073047 19108 net.cpp:100] Creating Layer inception_4e/5x5_reduce
I1115 11:29:54.073056 19108 net.cpp:434] inception_4e/5x5_reduce <- inception_4d/output_inception_4d/output_0_split_3
I1115 11:29:54.073070 19108 net.cpp:408] inception_4e/5x5_reduce -> inception_4e/5x5_reduce
I1115 11:29:54.074481 19108 net.cpp:150] Setting up inception_4e/5x5_reduce
I1115 11:29:54.074503 19108 net.cpp:157] Top shape: 24 32 14 14 (150528)
I1115 11:29:54.074512 19108 net.cpp:165] Memory required for data: 1237470168
I1115 11:29:54.074524 19108 layer_factory.hpp:77] Creating layer inception_4e/relu_5x5_reduce
I1115 11:29:54.074537 19108 net.cpp:100] Creating Layer inception_4e/relu_5x5_reduce
I1115 11:29:54.074545 19108 net.cpp:434] inception_4e/relu_5x5_reduce <- inception_4e/5x5_reduce
I1115 11:29:54.074559 19108 net.cpp:395] inception_4e/relu_5x5_reduce -> inception_4e/5x5_reduce (in-place)
I1115 11:29:54.074573 19108 net.cpp:150] Setting up inception_4e/relu_5x5_reduce
I1115 11:29:54.074582 19108 net.cpp:157] Top shape: 24 32 14 14 (150528)
I1115 11:29:54.074589 19108 net.cpp:165] Memory required for data: 1238072280
I1115 11:29:54.074595 19108 layer_factory.hpp:77] Creating layer inception_4e/5x5
I1115 11:29:54.074614 19108 net.cpp:100] Creating Layer inception_4e/5x5
I1115 11:29:54.074621 19108 net.cpp:434] inception_4e/5x5 <- inception_4e/5x5_reduce
I1115 11:29:54.074633 19108 net.cpp:408] inception_4e/5x5 -> inception_4e/5x5
I1115 11:29:54.076172 19108 net.cpp:150] Setting up inception_4e/5x5
I1115 11:29:54.076187 19108 net.cpp:157] Top shape: 24 128 14 14 (602112)
I1115 11:29:54.076194 19108 net.cpp:165] Memory required for data: 1240480728
I1115 11:29:54.076205 19108 layer_factory.hpp:77] Creating layer inception_4e/relu_5x5
I1115 11:29:54.076215 19108 net.cpp:100] Creating Layer inception_4e/relu_5x5
I1115 11:29:54.076234 19108 net.cpp:434] inception_4e/relu_5x5 <- inception_4e/5x5
I1115 11:29:54.076248 19108 net.cpp:395] inception_4e/relu_5x5 -> inception_4e/5x5 (in-place)
I1115 11:29:54.076261 19108 net.cpp:150] Setting up inception_4e/relu_5x5
I1115 11:29:54.076270 19108 net.cpp:157] Top shape: 24 128 14 14 (602112)
I1115 11:29:54.076277 19108 net.cpp:165] Memory required for data: 1242889176
I1115 11:29:54.076282 19108 layer_factory.hpp:77] Creating layer inception_4e/pool
I1115 11:29:54.076294 19108 net.cpp:100] Creating Layer inception_4e/pool
I1115 11:29:54.076302 19108 net.cpp:434] inception_4e/pool <- inception_4d/output_inception_4d/output_0_split_4
I1115 11:29:54.076313 19108 net.cpp:408] inception_4e/pool -> inception_4e/pool
I1115 11:29:54.076386 19108 net.cpp:150] Setting up inception_4e/pool
I1115 11:29:54.076398 19108 net.cpp:157] Top shape: 24 528 14 14 (2483712)
I1115 11:29:54.076405 19108 net.cpp:165] Memory required for data: 1252824024
I1115 11:29:54.076411 19108 layer_factory.hpp:77] Creating layer inception_4e/pool_proj
I1115 11:29:54.076427 19108 net.cpp:100] Creating Layer inception_4e/pool_proj
I1115 11:29:54.076436 19108 net.cpp:434] inception_4e/pool_proj <- inception_4e/pool
I1115 11:29:54.076450 19108 net.cpp:408] inception_4e/pool_proj -> inception_4e/pool_proj
I1115 11:29:54.077606 19108 net.cpp:150] Setting up inception_4e/pool_proj
I1115 11:29:54.077641 19108 net.cpp:157] Top shape: 24 128 14 14 (602112)
I1115 11:29:54.077649 19108 net.cpp:165] Memory required for data: 1255232472
I1115 11:29:54.077661 19108 layer_factory.hpp:77] Creating layer inception_4e/relu_pool_proj
I1115 11:29:54.077674 19108 net.cpp:100] Creating Layer inception_4e/relu_pool_proj
I1115 11:29:54.077682 19108 net.cpp:434] inception_4e/relu_pool_proj <- inception_4e/pool_proj
I1115 11:29:54.077692 19108 net.cpp:395] inception_4e/relu_pool_proj -> inception_4e/pool_proj (in-place)
I1115 11:29:54.077705 19108 net.cpp:150] Setting up inception_4e/relu_pool_proj
I1115 11:29:54.077714 19108 net.cpp:157] Top shape: 24 128 14 14 (602112)
I1115 11:29:54.077720 19108 net.cpp:165] Memory required for data: 1257640920
I1115 11:29:54.077726 19108 layer_factory.hpp:77] Creating layer inception_4e/output
I1115 11:29:54.077739 19108 net.cpp:100] Creating Layer inception_4e/output
I1115 11:29:54.077746 19108 net.cpp:434] inception_4e/output <- inception_4e/1x1
I1115 11:29:54.077754 19108 net.cpp:434] inception_4e/output <- inception_4e/3x3
I1115 11:29:54.077764 19108 net.cpp:434] inception_4e/output <- inception_4e/5x5
I1115 11:29:54.077772 19108 net.cpp:434] inception_4e/output <- inception_4e/pool_proj
I1115 11:29:54.077783 19108 net.cpp:408] inception_4e/output -> inception_4e/output
I1115 11:29:54.077828 19108 net.cpp:150] Setting up inception_4e/output
I1115 11:29:54.077844 19108 net.cpp:157] Top shape: 24 832 14 14 (3913728)
I1115 11:29:54.077850 19108 net.cpp:165] Memory required for data: 1273295832
I1115 11:29:54.077857 19108 layer_factory.hpp:77] Creating layer pool4/3x3_s2
I1115 11:29:54.077867 19108 net.cpp:100] Creating Layer pool4/3x3_s2
I1115 11:29:54.077875 19108 net.cpp:434] pool4/3x3_s2 <- inception_4e/output
I1115 11:29:54.077885 19108 net.cpp:408] pool4/3x3_s2 -> pool4/3x3_s2
I1115 11:29:54.167086 19108 net.cpp:150] Setting up pool4/3x3_s2
I1115 11:29:54.167114 19108 net.cpp:157] Top shape: 24 832 7 7 (978432)
I1115 11:29:54.167121 19108 net.cpp:165] Memory required for data: 1277209560
I1115 11:29:54.167129 19108 layer_factory.hpp:77] Creating layer pool4/3x3_s2_pool4/3x3_s2_0_split
I1115 11:29:54.167146 19108 net.cpp:100] Creating Layer pool4/3x3_s2_pool4/3x3_s2_0_split
I1115 11:29:54.167155 19108 net.cpp:434] pool4/3x3_s2_pool4/3x3_s2_0_split <- pool4/3x3_s2
I1115 11:29:54.167166 19108 net.cpp:408] pool4/3x3_s2_pool4/3x3_s2_0_split -> pool4/3x3_s2_pool4/3x3_s2_0_split_0
I1115 11:29:54.167179 19108 net.cpp:408] pool4/3x3_s2_pool4/3x3_s2_0_split -> pool4/3x3_s2_pool4/3x3_s2_0_split_1
I1115 11:29:54.167192 19108 net.cpp:408] pool4/3x3_s2_pool4/3x3_s2_0_split -> pool4/3x3_s2_pool4/3x3_s2_0_split_2
I1115 11:29:54.167228 19108 net.cpp:408] pool4/3x3_s2_pool4/3x3_s2_0_split -> pool4/3x3_s2_pool4/3x3_s2_0_split_3
I1115 11:29:54.167340 19108 net.cpp:150] Setting up pool4/3x3_s2_pool4/3x3_s2_0_split
I1115 11:29:54.167354 19108 net.cpp:157] Top shape: 24 832 7 7 (978432)
I1115 11:29:54.167363 19108 net.cpp:157] Top shape: 24 832 7 7 (978432)
I1115 11:29:54.167373 19108 net.cpp:157] Top shape: 24 832 7 7 (978432)
I1115 11:29:54.167382 19108 net.cpp:157] Top shape: 24 832 7 7 (978432)
I1115 11:29:54.167387 19108 net.cpp:165] Memory required for data: 1292864472
I1115 11:29:54.167394 19108 layer_factory.hpp:77] Creating layer inception_5a/1x1
I1115 11:29:54.167414 19108 net.cpp:100] Creating Layer inception_5a/1x1
I1115 11:29:54.167423 19108 net.cpp:434] inception_5a/1x1 <- pool4/3x3_s2_pool4/3x3_s2_0_split_0
I1115 11:29:54.167435 19108 net.cpp:408] inception_5a/1x1 -> inception_5a/1x1
I1115 11:29:54.171054 19108 net.cpp:150] Setting up inception_5a/1x1
I1115 11:29:54.171079 19108 net.cpp:157] Top shape: 24 256 7 7 (301056)
I1115 11:29:54.171087 19108 net.cpp:165] Memory required for data: 1294068696
I1115 11:29:54.171100 19108 layer_factory.hpp:77] Creating layer inception_5a/relu_1x1
I1115 11:29:54.171113 19108 net.cpp:100] Creating Layer inception_5a/relu_1x1
I1115 11:29:54.171121 19108 net.cpp:434] inception_5a/relu_1x1 <- inception_5a/1x1
I1115 11:29:54.171136 19108 net.cpp:395] inception_5a/relu_1x1 -> inception_5a/1x1 (in-place)
I1115 11:29:54.171175 19108 net.cpp:150] Setting up inception_5a/relu_1x1
I1115 11:29:54.171185 19108 net.cpp:157] Top shape: 24 256 7 7 (301056)
I1115 11:29:54.171192 19108 net.cpp:165] Memory required for data: 1295272920
I1115 11:29:54.171198 19108 layer_factory.hpp:77] Creating layer inception_5a/3x3_reduce
I1115 11:29:54.171214 19108 net.cpp:100] Creating Layer inception_5a/3x3_reduce
I1115 11:29:54.171222 19108 net.cpp:434] inception_5a/3x3_reduce <- pool4/3x3_s2_pool4/3x3_s2_0_split_1
I1115 11:29:54.171238 19108 net.cpp:408] inception_5a/3x3_reduce -> inception_5a/3x3_reduce
I1115 11:29:54.173928 19108 net.cpp:150] Setting up inception_5a/3x3_reduce
I1115 11:29:54.173951 19108 net.cpp:157] Top shape: 24 160 7 7 (188160)
I1115 11:29:54.173959 19108 net.cpp:165] Memory required for data: 1296025560
I1115 11:29:54.173972 19108 layer_factory.hpp:77] Creating layer inception_5a/relu_3x3_reduce
I1115 11:29:54.173985 19108 net.cpp:100] Creating Layer inception_5a/relu_3x3_reduce
I1115 11:29:54.173993 19108 net.cpp:434] inception_5a/relu_3x3_reduce <- inception_5a/3x3_reduce
I1115 11:29:54.174007 19108 net.cpp:395] inception_5a/relu_3x3_reduce -> inception_5a/3x3_reduce (in-place)
I1115 11:29:54.174021 19108 net.cpp:150] Setting up inception_5a/relu_3x3_reduce
I1115 11:29:54.174031 19108 net.cpp:157] Top shape: 24 160 7 7 (188160)
I1115 11:29:54.174036 19108 net.cpp:165] Memory required for data: 1296778200
I1115 11:29:54.174042 19108 layer_factory.hpp:77] Creating layer inception_5a/3x3
I1115 11:29:54.174060 19108 net.cpp:100] Creating Layer inception_5a/3x3
I1115 11:29:54.174067 19108 net.cpp:434] inception_5a/3x3 <- inception_5a/3x3_reduce
I1115 11:29:54.174080 19108 net.cpp:408] inception_5a/3x3 -> inception_5a/3x3
I1115 11:29:54.180655 19108 net.cpp:150] Setting up inception_5a/3x3
I1115 11:29:54.180676 19108 net.cpp:157] Top shape: 24 320 7 7 (376320)
I1115 11:29:54.180682 19108 net.cpp:165] Memory required for data: 1298283480
I1115 11:29:54.180694 19108 layer_factory.hpp:77] Creating layer inception_5a/relu_3x3
I1115 11:29:54.180706 19108 net.cpp:100] Creating Layer inception_5a/relu_3x3
I1115 11:29:54.180714 19108 net.cpp:434] inception_5a/relu_3x3 <- inception_5a/3x3
I1115 11:29:54.180727 19108 net.cpp:395] inception_5a/relu_3x3 -> inception_5a/3x3 (in-place)
I1115 11:29:54.180740 19108 net.cpp:150] Setting up inception_5a/relu_3x3
I1115 11:29:54.180748 19108 net.cpp:157] Top shape: 24 320 7 7 (376320)
I1115 11:29:54.180754 19108 net.cpp:165] Memory required for data: 1299788760
I1115 11:29:54.180759 19108 layer_factory.hpp:77] Creating layer inception_5a/5x5_reduce
I1115 11:29:54.180776 19108 net.cpp:100] Creating Layer inception_5a/5x5_reduce
I1115 11:29:54.180783 19108 net.cpp:434] inception_5a/5x5_reduce <- pool4/3x3_s2_pool4/3x3_s2_0_split_2
I1115 11:29:54.180795 19108 net.cpp:408] inception_5a/5x5_reduce -> inception_5a/5x5_reduce
I1115 11:29:54.181495 19108 net.cpp:150] Setting up inception_5a/5x5_reduce
I1115 11:29:54.181509 19108 net.cpp:157] Top shape: 24 32 7 7 (37632)
I1115 11:29:54.181514 19108 net.cpp:165] Memory required for data: 1299939288
I1115 11:29:54.181525 19108 layer_factory.hpp:77] Creating layer inception_5a/relu_5x5_reduce
I1115 11:29:54.181535 19108 net.cpp:100] Creating Layer inception_5a/relu_5x5_reduce
I1115 11:29:54.181541 19108 net.cpp:434] inception_5a/relu_5x5_reduce <- inception_5a/5x5_reduce
I1115 11:29:54.181555 19108 net.cpp:395] inception_5a/relu_5x5_reduce -> inception_5a/5x5_reduce (in-place)
I1115 11:29:54.181566 19108 net.cpp:150] Setting up inception_5a/relu_5x5_reduce
I1115 11:29:54.181574 19108 net.cpp:157] Top shape: 24 32 7 7 (37632)
I1115 11:29:54.181581 19108 net.cpp:165] Memory required for data: 1300089816
I1115 11:29:54.181586 19108 layer_factory.hpp:77] Creating layer inception_5a/5x5
I1115 11:29:54.181602 19108 net.cpp:100] Creating Layer inception_5a/5x5
I1115 11:29:54.181607 19108 net.cpp:434] inception_5a/5x5 <- inception_5a/5x5_reduce
I1115 11:29:54.181618 19108 net.cpp:408] inception_5a/5x5 -> inception_5a/5x5
I1115 11:29:54.183073 19108 net.cpp:150] Setting up inception_5a/5x5
I1115 11:29:54.183087 19108 net.cpp:157] Top shape: 24 128 7 7 (150528)
I1115 11:29:54.183094 19108 net.cpp:165] Memory required for data: 1300691928
I1115 11:29:54.183104 19108 layer_factory.hpp:77] Creating layer inception_5a/relu_5x5
I1115 11:29:54.183114 19108 net.cpp:100] Creating Layer inception_5a/relu_5x5
I1115 11:29:54.183121 19108 net.cpp:434] inception_5a/relu_5x5 <- inception_5a/5x5
I1115 11:29:54.183133 19108 net.cpp:395] inception_5a/relu_5x5 -> inception_5a/5x5 (in-place)
I1115 11:29:54.183145 19108 net.cpp:150] Setting up inception_5a/relu_5x5
I1115 11:29:54.183152 19108 net.cpp:157] Top shape: 24 128 7 7 (150528)
I1115 11:29:54.183157 19108 net.cpp:165] Memory required for data: 1301294040
I1115 11:29:54.183163 19108 layer_factory.hpp:77] Creating layer inception_5a/pool
I1115 11:29:54.183173 19108 net.cpp:100] Creating Layer inception_5a/pool
I1115 11:29:54.183181 19108 net.cpp:434] inception_5a/pool <- pool4/3x3_s2_pool4/3x3_s2_0_split_3
I1115 11:29:54.183192 19108 net.cpp:408] inception_5a/pool -> inception_5a/pool
I1115 11:29:54.183260 19108 net.cpp:150] Setting up inception_5a/pool
I1115 11:29:54.183271 19108 net.cpp:157] Top shape: 24 832 7 7 (978432)
I1115 11:29:54.183276 19108 net.cpp:165] Memory required for data: 1305207768
I1115 11:29:54.183282 19108 layer_factory.hpp:77] Creating layer inception_5a/pool_proj
I1115 11:29:54.183298 19108 net.cpp:100] Creating Layer inception_5a/pool_proj
I1115 11:29:54.183305 19108 net.cpp:434] inception_5a/pool_proj <- inception_5a/pool
I1115 11:29:54.183320 19108 net.cpp:408] inception_5a/pool_proj -> inception_5a/pool_proj
I1115 11:29:54.185545 19108 net.cpp:150] Setting up inception_5a/pool_proj
I1115 11:29:54.343436 19108 net.cpp:157] Top shape: 24 128 7 7 (150528)
I1115 11:29:54.343454 19108 net.cpp:165] Memory required for data: 1305809880
I1115 11:29:54.343472 19108 layer_factory.hpp:77] Creating layer inception_5a/relu_pool_proj
I1115 11:29:54.343487 19108 net.cpp:100] Creating Layer inception_5a/relu_pool_proj
I1115 11:29:54.343497 19108 net.cpp:434] inception_5a/relu_pool_proj <- inception_5a/pool_proj
I1115 11:29:54.343510 19108 net.cpp:395] inception_5a/relu_pool_proj -> inception_5a/pool_proj (in-place)
I1115 11:29:54.343528 19108 net.cpp:150] Setting up inception_5a/relu_pool_proj
I1115 11:29:54.343538 19108 net.cpp:157] Top shape: 24 128 7 7 (150528)
I1115 11:29:54.343544 19108 net.cpp:165] Memory required for data: 1306411992
I1115 11:29:54.343550 19108 layer_factory.hpp:77] Creating layer inception_5a/output
I1115 11:29:54.343569 19108 net.cpp:100] Creating Layer inception_5a/output
I1115 11:29:54.343577 19108 net.cpp:434] inception_5a/output <- inception_5a/1x1
I1115 11:29:54.343587 19108 net.cpp:434] inception_5a/output <- inception_5a/3x3
I1115 11:29:54.343596 19108 net.cpp:434] inception_5a/output <- inception_5a/5x5
I1115 11:29:54.343605 19108 net.cpp:434] inception_5a/output <- inception_5a/pool_proj
I1115 11:29:54.343616 19108 net.cpp:408] inception_5a/output -> inception_5a/output
I1115 11:29:54.343696 19108 net.cpp:150] Setting up inception_5a/output
I1115 11:29:54.343708 19108 net.cpp:157] Top shape: 24 832 7 7 (978432)
I1115 11:29:54.343714 19108 net.cpp:165] Memory required for data: 1310325720
I1115 11:29:54.343721 19108 layer_factory.hpp:77] Creating layer inception_5a/output_inception_5a/output_0_split
I1115 11:29:54.343732 19108 net.cpp:100] Creating Layer inception_5a/output_inception_5a/output_0_split
I1115 11:29:54.343739 19108 net.cpp:434] inception_5a/output_inception_5a/output_0_split <- inception_5a/output
I1115 11:29:54.343750 19108 net.cpp:408] inception_5a/output_inception_5a/output_0_split -> inception_5a/output_inception_5a/output_0_split_0
I1115 11:29:54.343767 19108 net.cpp:408] inception_5a/output_inception_5a/output_0_split -> inception_5a/output_inception_5a/output_0_split_1
I1115 11:29:54.343780 19108 net.cpp:408] inception_5a/output_inception_5a/output_0_split -> inception_5a/output_inception_5a/output_0_split_2
I1115 11:29:54.343816 19108 net.cpp:408] inception_5a/output_inception_5a/output_0_split -> inception_5a/output_inception_5a/output_0_split_3
I1115 11:29:54.343955 19108 net.cpp:150] Setting up inception_5a/output_inception_5a/output_0_split
I1115 11:29:54.343966 19108 net.cpp:157] Top shape: 24 832 7 7 (978432)
I1115 11:29:54.343974 19108 net.cpp:157] Top shape: 24 832 7 7 (978432)
I1115 11:29:54.343981 19108 net.cpp:157] Top shape: 24 832 7 7 (978432)
I1115 11:29:54.343988 19108 net.cpp:157] Top shape: 24 832 7 7 (978432)
I1115 11:29:54.343994 19108 net.cpp:165] Memory required for data: 1325980632
I1115 11:29:54.344000 19108 layer_factory.hpp:77] Creating layer inception_5b/1x1
I1115 11:29:54.344020 19108 net.cpp:100] Creating Layer inception_5b/1x1
I1115 11:29:54.344028 19108 net.cpp:434] inception_5b/1x1 <- inception_5a/output_inception_5a/output_0_split_0
I1115 11:29:54.344040 19108 net.cpp:408] inception_5b/1x1 -> inception_5b/1x1
I1115 11:29:54.348896 19108 net.cpp:150] Setting up inception_5b/1x1
I1115 11:29:54.348922 19108 net.cpp:157] Top shape: 24 384 7 7 (451584)
I1115 11:29:54.348929 19108 net.cpp:165] Memory required for data: 1327786968
I1115 11:29:54.348942 19108 layer_factory.hpp:77] Creating layer inception_5b/relu_1x1
I1115 11:29:54.348954 19108 net.cpp:100] Creating Layer inception_5b/relu_1x1
I1115 11:29:54.348963 19108 net.cpp:434] inception_5b/relu_1x1 <- inception_5b/1x1
I1115 11:29:54.348978 19108 net.cpp:395] inception_5b/relu_1x1 -> inception_5b/1x1 (in-place)
I1115 11:29:54.348992 19108 net.cpp:150] Setting up inception_5b/relu_1x1
I1115 11:29:54.349001 19108 net.cpp:157] Top shape: 24 384 7 7 (451584)
I1115 11:29:54.349009 19108 net.cpp:165] Memory required for data: 1329593304
I1115 11:29:54.349015 19108 layer_factory.hpp:77] Creating layer inception_5b/3x3_reduce
I1115 11:29:54.349032 19108 net.cpp:100] Creating Layer inception_5b/3x3_reduce
I1115 11:29:54.349041 19108 net.cpp:434] inception_5b/3x3_reduce <- inception_5a/output_inception_5a/output_0_split_1
I1115 11:29:54.349055 19108 net.cpp:408] inception_5b/3x3_reduce -> inception_5b/3x3_reduce
I1115 11:29:54.352005 19108 net.cpp:150] Setting up inception_5b/3x3_reduce
I1115 11:29:54.352026 19108 net.cpp:157] Top shape: 24 192 7 7 (225792)
I1115 11:29:54.352033 19108 net.cpp:165] Memory required for data: 1330496472
I1115 11:29:54.352046 19108 layer_factory.hpp:77] Creating layer inception_5b/relu_3x3_reduce
I1115 11:29:54.352058 19108 net.cpp:100] Creating Layer inception_5b/relu_3x3_reduce
I1115 11:29:54.352067 19108 net.cpp:434] inception_5b/relu_3x3_reduce <- inception_5b/3x3_reduce
I1115 11:29:54.352082 19108 net.cpp:395] inception_5b/relu_3x3_reduce -> inception_5b/3x3_reduce (in-place)
I1115 11:29:54.352097 19108 net.cpp:150] Setting up inception_5b/relu_3x3_reduce
I1115 11:29:54.352105 19108 net.cpp:157] Top shape: 24 192 7 7 (225792)
I1115 11:29:54.352111 19108 net.cpp:165] Memory required for data: 1331399640
I1115 11:29:54.352118 19108 layer_factory.hpp:77] Creating layer inception_5b/3x3
I1115 11:29:54.352135 19108 net.cpp:100] Creating Layer inception_5b/3x3
I1115 11:29:54.352144 19108 net.cpp:434] inception_5b/3x3 <- inception_5b/3x3_reduce
I1115 11:29:54.352155 19108 net.cpp:408] inception_5b/3x3 -> inception_5b/3x3
I1115 11:29:54.360940 19108 net.cpp:150] Setting up inception_5b/3x3
I1115 11:29:54.360963 19108 net.cpp:157] Top shape: 24 384 7 7 (451584)
I1115 11:29:54.360970 19108 net.cpp:165] Memory required for data: 1333205976
I1115 11:29:54.360981 19108 layer_factory.hpp:77] Creating layer inception_5b/relu_3x3
I1115 11:29:54.360992 19108 net.cpp:100] Creating Layer inception_5b/relu_3x3
I1115 11:29:54.361001 19108 net.cpp:434] inception_5b/relu_3x3 <- inception_5b/3x3
I1115 11:29:54.361011 19108 net.cpp:395] inception_5b/relu_3x3 -> inception_5b/3x3 (in-place)
I1115 11:29:54.361023 19108 net.cpp:150] Setting up inception_5b/relu_3x3
I1115 11:29:54.361032 19108 net.cpp:157] Top shape: 24 384 7 7 (451584)
I1115 11:29:54.361037 19108 net.cpp:165] Memory required for data: 1335012312
I1115 11:29:54.361043 19108 layer_factory.hpp:77] Creating layer inception_5b/5x5_reduce
I1115 11:29:54.361090 19108 net.cpp:100] Creating Layer inception_5b/5x5_reduce
I1115 11:29:54.361099 19108 net.cpp:434] inception_5b/5x5_reduce <- inception_5a/output_inception_5a/output_0_split_2
I1115 11:29:54.361114 19108 net.cpp:408] inception_5b/5x5_reduce -> inception_5b/5x5_reduce
I1115 11:29:54.361953 19108 net.cpp:150] Setting up inception_5b/5x5_reduce
I1115 11:29:54.361968 19108 net.cpp:157] Top shape: 24 48 7 7 (56448)
I1115 11:29:54.361974 19108 net.cpp:165] Memory required for data: 1335238104
I1115 11:29:54.361984 19108 layer_factory.hpp:77] Creating layer inception_5b/relu_5x5_reduce
I1115 11:29:54.361994 19108 net.cpp:100] Creating Layer inception_5b/relu_5x5_reduce
I1115 11:29:54.362001 19108 net.cpp:434] inception_5b/relu_5x5_reduce <- inception_5b/5x5_reduce
I1115 11:29:54.362012 19108 net.cpp:395] inception_5b/relu_5x5_reduce -> inception_5b/5x5_reduce (in-place)
I1115 11:29:54.362025 19108 net.cpp:150] Setting up inception_5b/relu_5x5_reduce
I1115 11:29:54.362032 19108 net.cpp:157] Top shape: 24 48 7 7 (56448)
I1115 11:29:54.362038 19108 net.cpp:165] Memory required for data: 1335463896
I1115 11:29:54.362045 19108 layer_factory.hpp:77] Creating layer inception_5b/5x5
I1115 11:29:54.362057 19108 net.cpp:100] Creating Layer inception_5b/5x5
I1115 11:29:54.362063 19108 net.cpp:434] inception_5b/5x5 <- inception_5b/5x5_reduce
I1115 11:29:54.362076 19108 net.cpp:408] inception_5b/5x5 -> inception_5b/5x5
I1115 11:29:54.364042 19108 net.cpp:150] Setting up inception_5b/5x5
I1115 11:29:54.364056 19108 net.cpp:157] Top shape: 24 128 7 7 (150528)
I1115 11:29:54.364063 19108 net.cpp:165] Memory required for data: 1336066008
I1115 11:29:54.663826 19108 layer_factory.hpp:77] Creating layer inception_5b/relu_5x5
I1115 11:29:54.663858 19108 net.cpp:100] Creating Layer inception_5b/relu_5x5
I1115 11:29:54.663872 19108 net.cpp:434] inception_5b/relu_5x5 <- inception_5b/5x5
I1115 11:29:54.663884 19108 net.cpp:395] inception_5b/relu_5x5 -> inception_5b/5x5 (in-place)
I1115 11:29:54.663902 19108 net.cpp:150] Setting up inception_5b/relu_5x5
I1115 11:29:54.663911 19108 net.cpp:157] Top shape: 24 128 7 7 (150528)
I1115 11:29:54.663918 19108 net.cpp:165] Memory required for data: 1336668120
I1115 11:29:54.663923 19108 layer_factory.hpp:77] Creating layer inception_5b/pool
I1115 11:29:54.663941 19108 net.cpp:100] Creating Layer inception_5b/pool
I1115 11:29:54.663949 19108 net.cpp:434] inception_5b/pool <- inception_5a/output_inception_5a/output_0_split_3
I1115 11:29:54.663961 19108 net.cpp:408] inception_5b/pool -> inception_5b/pool
I1115 11:29:54.664083 19108 net.cpp:150] Setting up inception_5b/pool
I1115 11:29:54.664094 19108 net.cpp:157] Top shape: 24 832 7 7 (978432)
I1115 11:29:54.664100 19108 net.cpp:165] Memory required for data: 1340581848
I1115 11:29:54.664106 19108 layer_factory.hpp:77] Creating layer inception_5b/pool_proj
I1115 11:29:54.664129 19108 net.cpp:100] Creating Layer inception_5b/pool_proj
I1115 11:29:54.664136 19108 net.cpp:434] inception_5b/pool_proj <- inception_5b/pool
I1115 11:29:54.664150 19108 net.cpp:408] inception_5b/pool_proj -> inception_5b/pool_proj
I1115 11:29:54.666615 19108 net.cpp:150] Setting up inception_5b/pool_proj
I1115 11:29:54.666638 19108 net.cpp:157] Top shape: 24 128 7 7 (150528)
I1115 11:29:54.666646 19108 net.cpp:165] Memory required for data: 1341183960
I1115 11:29:54.666659 19108 layer_factory.hpp:77] Creating layer inception_5b/relu_pool_proj
I1115 11:29:54.666674 19108 net.cpp:100] Creating Layer inception_5b/relu_pool_proj
I1115 11:29:54.666683 19108 net.cpp:434] inception_5b/relu_pool_proj <- inception_5b/pool_proj
I1115 11:29:54.666695 19108 net.cpp:395] inception_5b/relu_pool_proj -> inception_5b/pool_proj (in-place)
I1115 11:29:54.666709 19108 net.cpp:150] Setting up inception_5b/relu_pool_proj
I1115 11:29:54.666719 19108 net.cpp:157] Top shape: 24 128 7 7 (150528)
I1115 11:29:54.666725 19108 net.cpp:165] Memory required for data: 1341786072
I1115 11:29:54.666731 19108 layer_factory.hpp:77] Creating layer inception_5b/output
I1115 11:29:54.666769 19108 net.cpp:100] Creating Layer inception_5b/output
I1115 11:29:54.666777 19108 net.cpp:434] inception_5b/output <- inception_5b/1x1
I1115 11:29:54.666787 19108 net.cpp:434] inception_5b/output <- inception_5b/3x3
I1115 11:29:54.666795 19108 net.cpp:434] inception_5b/output <- inception_5b/5x5
I1115 11:29:54.666805 19108 net.cpp:434] inception_5b/output <- inception_5b/pool_proj
I1115 11:29:54.666817 19108 net.cpp:408] inception_5b/output -> inception_5b/output
I1115 11:29:54.666867 19108 net.cpp:150] Setting up inception_5b/output
I1115 11:29:54.666878 19108 net.cpp:157] Top shape: 24 1024 7 7 (1204224)
I1115 11:29:54.666884 19108 net.cpp:165] Memory required for data: 1346602968
I1115 11:29:54.666892 19108 layer_factory.hpp:77] Creating layer pool5/7x7_s1
I1115 11:29:54.666905 19108 net.cpp:100] Creating Layer pool5/7x7_s1
I1115 11:29:54.666913 19108 net.cpp:434] pool5/7x7_s1 <- inception_5b/output
I1115 11:29:54.666924 19108 net.cpp:408] pool5/7x7_s1 -> pool5/7x7_s1
I1115 11:29:54.666971 19108 net.cpp:150] Setting up pool5/7x7_s1
I1115 11:29:54.666982 19108 net.cpp:157] Top shape: 24 1024 1 1 (24576)
I1115 11:29:54.666988 19108 net.cpp:165] Memory required for data: 1346701272
I1115 11:29:54.666995 19108 layer_factory.hpp:77] Creating layer pool5/drop_7x7_s1
I1115 11:29:54.667006 19108 net.cpp:100] Creating Layer pool5/drop_7x7_s1
I1115 11:29:54.667013 19108 net.cpp:434] pool5/drop_7x7_s1 <- pool5/7x7_s1
I1115 11:29:54.667053 19108 net.cpp:395] pool5/drop_7x7_s1 -> pool5/7x7_s1 (in-place)
I1115 11:29:54.667121 19108 net.cpp:150] Setting up pool5/drop_7x7_s1
I1115 11:29:54.667135 19108 net.cpp:157] Top shape: 24 1024 1 1 (24576)
I1115 11:29:54.667141 19108 net.cpp:165] Memory required for data: 1346799576
I1115 11:29:54.667147 19108 layer_factory.hpp:77] Creating layer loss3/classifier
I1115 11:29:54.667162 19108 net.cpp:100] Creating Layer loss3/classifier
I1115 11:29:54.667170 19108 net.cpp:434] loss3/classifier <- pool5/7x7_s1
I1115 11:29:54.667183 19108 net.cpp:408] loss3/classifier -> loss3/classifier
I1115 11:29:54.668606 19108 net.cpp:150] Setting up loss3/classifier
I1115 11:29:54.668628 19108 net.cpp:157] Top shape: 24 28 (672)
I1115 11:29:54.668635 19108 net.cpp:165] Memory required for data: 1346802264
I1115 11:29:54.668649 19108 layer_factory.hpp:77] Creating layer loss3/classifier_loss3/classifier_0_split
I1115 11:29:54.668661 19108 net.cpp:100] Creating Layer loss3/classifier_loss3/classifier_0_split
I1115 11:29:54.668670 19108 net.cpp:434] loss3/classifier_loss3/classifier_0_split <- loss3/classifier
I1115 11:29:54.668683 19108 net.cpp:408] loss3/classifier_loss3/classifier_0_split -> loss3/classifier_loss3/classifier_0_split_0
I1115 11:29:54.668697 19108 net.cpp:408] loss3/classifier_loss3/classifier_0_split -> loss3/classifier_loss3/classifier_0_split_1
I1115 11:29:54.668709 19108 net.cpp:408] loss3/classifier_loss3/classifier_0_split -> loss3/classifier_loss3/classifier_0_split_2
I1115 11:29:54.668807 19108 net.cpp:150] Setting up loss3/classifier_loss3/classifier_0_split
I1115 11:29:54.668817 19108 net.cpp:157] Top shape: 24 28 (672)
I1115 11:29:54.668826 19108 net.cpp:157] Top shape: 24 28 (672)
I1115 11:29:54.668834 19108 net.cpp:157] Top shape: 24 28 (672)
I1115 11:29:54.668839 19108 net.cpp:165] Memory required for data: 1346810328
I1115 11:29:54.668846 19108 layer_factory.hpp:77] Creating layer loss3/loss3
I1115 11:29:54.668858 19108 net.cpp:100] Creating Layer loss3/loss3
I1115 11:29:54.668864 19108 net.cpp:434] loss3/loss3 <- loss3/classifier_loss3/classifier_0_split_0
I1115 11:29:54.668874 19108 net.cpp:434] loss3/loss3 <- label_data_1_split_6
…
